final_model.pt (torch, 251845 bytes, 10 tensors)

conv1.weight f4 [6, 3, 5, 5]
0	0xbca55b84	-0.02018524
1	0x3be8a002	0.0070991525
2	0xbdb90895	-0.0903484
3	0xbc3cf727	-0.011533535
4	0xbd62b83e	-0.05535149
5	0x3e027439	0.12739648
6	0x3d80d55a	0.062906936
7	0x3da8abee	0.08235918
8	0xbd17e9b9	-0.03708813
9	0x3d41018e	0.047120623
10	0x3d9f0b67	0.07765847
11	0xbd3a5614	-0.045492247
12	0x3e059a67	0.13047181
13	0xbc6b23c0	-0.014351785
14	0x3e2a19ac	0.16611356
15	0xbd8b455a	-0.06800337
16	0x3cb6781e	0.022274073
17	0xbd9ffb9d	-0.07811663
18	0x3c4dd39f	0.012562661
19	0x3e0ec634	0.13942796
20	0xbe1b4ab7	-0.1516522
21	0x3d169a28	0.03676811
22	0xbe0b2b34	-0.135907
23	0x3b8c6450	0.004284419
24	0xbde75e22	-0.11297251
25	0x3ce9777c	0.028499357
26	0xbd59b753	-0.053153347
27	0x3d83a5d8	0.064281166
28	0x38c98900	9.609945e-05
29	0xbc8069de	-0.015675481
30	0xbbb48154	-0.005508581
31	0xbd07ca3c	-0.03315185
32	0x3d3df7d0	0.04637891
33	0x3c51c519	0.012803339
34	0xbc314226	-0.010818994
35	0xbd6ed46b	-0.058308046
36	0xbd89d086	-0.06729226
37	0x3d0a069e	0.033697717
38	0xbcaeb573	-0.021326756
39	0xbc82f6ca	-0.015986819
40	0xbcbeef70	-0.023307532
41	0xbdcd102f	-0.100128524
42	0xbdaea8a6	-0.08528261
43	0xbd996ff4	-0.074920565
44	0x3dc8002a	0.09765656
45	0x3d6a9c7d	0.057278145
46	0x3a760fcc	0.0009386509
47	0xbae56080	-0.0017500073
48	0xbd8b6f07	-0.06808286
49	0xbb24c480	-0.0025141537
50	0x3ca72c7e	0.020406958
51	0xbd32982e	-0.04360216
52	0xbdf67b7e	-0.12035273
53	0x3b84656c	0.0040404107
54	0x3b771e70	0.003770735
55	0x3c80d7d7	0.01572792
56	0x3d2ecdfc	0.04267691
57	0x3d9bcf3d	0.07607887
58	0x3c90a058	0.017654583
59	0x3e0203ec	0.12696809
60	0x3ba17a34	0.004927898
61	0x3c99a4bd	0.018755311
62	0x3d6cb7bc	0.05779241
63	0xbd3f7fcd	-0.04675274
64	0xbc815b98	-0.015790746
65	0x3e087875	0.133272
66	0x3e10a324	0.14124733
67	0x3e0ac162	0.13550332
68	0x3e341487	0.17585956
69	0x3d5d71d4	0.054063633
70	0x3c826792	0.015918527
71	0xbcf5046a	-0.029909331
72	0x3ddcdf74	0.10784808
73	0x3c2682ea	0.010163048
74	0x3d1818f1	0.03713316
75	0xbe041f83	-0.12902646
76	0xbe4397ec	-0.19100922
77	0xbe339edc	-0.17541069
78	0xbe3b85b8	-0.18312728
79	0xbe6f1b56	-0.23350272
80	0x3e452297	0.19251476
81	0x3ea9e8d3	0.33185443
82	0x3e5ac9b5	0.21366008
83	0x3dd0d4a7	0.1019681
84	0x3e69511c	0.22784847
85	0x3e9b930c	0.30385625
86	0x3e489836	0.19589314
87	0x3e6241f0	0.22095466
88	0x3e1b2306	0.15150079
89	0x3e2e058b	0.16994302
90	0xbd567727	-0.052359726
91	0x3cce31a3	0.025170153
92	0xbcdc1202	-0.026864056
93	0x3c83ad80	0.016073942
94	0xbc355942	-0.011068644
95	0xbe1ef770	-0.15524077
96	0xbd759a0a	-0.059961356
97	0xbda56dff	-0.08077621
98	0x3d39b276	0.04533621
99	0x3ae8d0e8	0.0017762454
100	0xbe24e3f6	-0.16102585
101	0xbde76706	-0.11298947
102	0xbd8a6dbe	-0.06759213
103	0xbe5ad02d	-0.21368475
104	0xbe03a0fb	-0.12854378
105	0x3e5394ac	0.20662183
106	0x3e016f22	0.1264005
107	0x3e239e3e	0.15978333
108	0x3e839eee	0.2570719
109	0x3e0791b3	0.13239174
110	0xbda6342f	-0.08115422
111	0xbc090feb	-0.008365612
112	0x3d77d0d4	0.06050189
113	0x3db73905	0.089464225
114	0x39f7d590	0.00047270628
115	0xbe38c25c	-0.18042892
116	0xbe21171d	-0.15731473
117	0xbe11cf46	-0.14239225
118	0xbe08112b	-0.13287799
119	0xbe33bee1	-0.17553283
120	0xbe6accac	-0.22929639
121	0xbe431258	-0.19049966
122	0xbe1aa5a2	-0.15102246
123	0xbe0a8fc6	-0.13531408
124	0xbe1c09c3	-0.15238099
125	0x3dccb22c	0.09994921
126	0xbd694336	-0.056948863
127	0xbda04559	-0.07825727
128	0x3d80c2ec	0.062871784
129	0x3e288af6	0.1645926
130	0x3e22e64f	0.15908168
131	0x3dae8d04	0.0852299
132	0x3e83d95e	0.25751776
133	0x3d75c53a	0.060002543
134	0x3e7e6c93	0.24846105
135	0x3d239ae0	0.039942622
136	0xbd3bcb2c	-0.045848057
137	0xbcc1965c	-0.023631267
138	0x3cf78711	0.030215772
139	0x3d5cddf2	0.0539226
140	0xbd4fc71e	-0.050727002
141	0xbe115957	-0.14194237
142	0xbe22cea1	-0.15899135
143	0xbe29d98d	-0.16586895
144	0x3ce3e40c	0.027818702
145	0xbd6d8775	-0.05799051
146	0xbcba1754	-0.022716202
147	0xbad92bd8	-0.0016568853
148	0xbdb8adaf	-0.090175025
149	0xbdb0de6c	-0.086361736
150	0x3dd86d3c	0.1056771
151	0xbd4ebec2	-0.05047489
152	0x3da0be98	0.07848853
153	0x3d9bea4e	0.076130494
154	0xbda2cbf2	-0.07949056
155	0x3c968baf	0.018377153
156	0xbce4c60b	-0.027926465
157	0x3b254258	0.0025216546
158	0xbd9a4f6c	-0.0753468
159	0x3d95fa41	0.07323123
160	0xbdcd70b6	-0.100312635
161	0xbdb66698	-0.08906287
162	0x3db7ee46	0.08980994
163	0x3d290cd2	0.041271992
164	0xbd81578a	-0.06315525
165	0xbdaf2288	-0.08551508
166	0x3d38e1b2	0.045137115
167	0xbddb2560	-0.10700488
168	0x3cfa2309	0.030534284
169	0x3d1c81ff	0.03820991
170	0x3d5f530b	0.054522555
171	0x3c934fb1	0.017982336
172	0xbc1a95ef	-0.009435161
173	0xbdc9583d	-0.09831283
174	0xbcda9fd3	-0.026687538
175	0xbdd8afa9	-0.105803795
176	0xbd84d7a4	-0.06486443
177	0xbd7da97d	-0.061929215
178	0xbd251db7	-0.04031154
179	0xbd889c3e	-0.06670426
180	0xbd613eda	-0.05499158
181	0xbcff591e	-0.031170424
182	0x3dc23c5c	0.09484169
183	0xbd97e520	-0.07416749
184	0xbda38ad7	-0.07985466
185	0xbc23a637	-0.009988359
186	0x3aa932c0	0.0012908801
187	0x3d30b39c	0.04314004
188	0x3d8a8079	0.067627855
189	0xbd70f9dc	-0.058832034
190	0x3c31b779	0.010846966
191	0x3d80a03a	0.06280561
192	0xbb0a4c67	-0.0021102668
193	0xbd5261ea	-0.05136291
194	0xbd2294c8	-0.03969267
195	0x3e0f352a	0.13985124
196	0xbd785eae	-0.06063717
197	0xbb4c7768	-0.0031199101
198	0x3d1cb34d	0.038256932
199	0x3c26946a	0.010167221
200	0x3dce35b2	0.10068835
201	0x3e5da206	0.21643838
202	0xbb6f3758	-0.0036501493
203	0x3d3c6df8	0.046003312
204	0x3d1d8511	0.03845698
205	0x3d79d1d7	0.060991134
206	0x3db5b431	0.088722594
207	0x3e0b3c30	0.13597178
208	0x3d5eaea3	0.054365765
209	0x3e1719d7	0.14755951
210	0x3e6dceef	0.2322347
211	0x3e222db6	0.1583775
212	0x3dc408a0	0.095719576
213	0x3dec2f0a	0.115324095
214	0xbd3c5488	-0.045979053
215	0x3e288537	0.16457067
216	0x3e79eca5	0.24406679
217	0x3e7b6065	0.2454849
218	0x3dd0fce4	0.10204485
219	0x3c38cc01	0.011279107
220	0x3e8165cc	0.25272977
221	0x3e89bd06	0.26902026
222	0x3e2b04b8	0.16701019
223	0x3e9d3776	0.30706376
224	0x3df809a6	0.12111215
225	0x3e121665	0.14266355
226	0x3a81ee68	0.000991297
227	0xbc2ca73a	-0.010537917
228	0xbdb40e1c	-0.08791754
229	0x3c740261	0.014893145
230	0x3ce499f0	0.027905434
231	0x3db3f8d8	0.087876976
232	0xbd4a5802	-0.049400337
233	0xbd5ca07e	-0.053863995
234	0xbd304488	-0.043034106
235	0xbce3bef0	-0.027801007
236	0xbd91ea10	-0.07124722
237	0xbdc0342c	-0.09384951
238	0x3d83b3e3	0.06430795
239	0x3d0cdf8b	0.034392875
240	0xbdcd2a6b	-0.10017856
241	0xbd4d9864	-0.05019416
242	0xbd6982a9	-0.057009373
243	0xbae082b4	-0.0017128796
244	0x3d0336c5	0.032034654
245	0xbdc33e96	-0.09533422
246	0xbdcae7b8	-0.09907478
247	0xbce5d578	-0.028055891
248	0x3c154e0d	0.009112847
249	0xbe27bc45	-0.16380413
250	0xbd110cee	-0.03541272
251	0xbd940a87	-0.072285704
252	0x3cfd2271	0.030900212
253	0x3dbc7d63	0.09203603
254	0x3b0cc7ac	0.0021481318
255	0xbd20dbd6	-0.039272152

conv1.bias f4 [6]
0	0xbf0a9455	-0.54132587
1	0xbf2391ab	-0.63894147
2	0xbe93e510	-0.28885698
3	0xbf1be7ac	-0.6090038
4	0x3c76f997	0.015074155
5	0xbd150289	-0.03637937

conv2.weight f4 [16, 6, 5, 5]
0	0xbdcc6d86	-0.099818274
1	0x3ce96fe3	0.028495735
2	0x3d03fa2d	0.032221008
3	0x3bd402c3	0.006470056
4	0xbddb8be8	-0.107200444
5	0xbd3eb654	-0.0465606
6	0xbe08fde1	-0.13378097
7	0xbdaf5622	-0.085613504
8	0xbe182f63	-0.14861827
9	0xbe061ba6	-0.13096485
10	0xbd824cc2	-0.06362297
11	0xbddbb970	-0.10728729
12	0xbdc67dc9	-0.0969196
13	0x3cdd56da	0.027018953
14	0xbd32b36d	-0.043628145
15	0xbda35feb	-0.07977279
16	0xbe12f28a	-0.14350334
17	0xbcb0ddae	-0.02159008
18	0xbde6e954	-0.112749726
19	0xbaaa0cc4	-0.0012973775
20	0xbd0da811	-0.03458411
21	0xbdc30b57	-0.09523647
22	0xbdb092c7	-0.086217456
23	0x3c7b5269	0.015339472
24	0xbd28e462	-0.041233428
25	0xbd163896	-0.03667506
26	0xbdba6557	-0.0910136
27	0xbd5af853	-0.053459477
28	0xbdad69d2	-0.08467449
29	0xbd98e8d2	-0.07466282
30	0xbbfce4d9	-0.0077177105
31	0xbdc93676	-0.09824841
32	0xbd050b97	-0.032481756
33	0xbc7f32e0	-0.015576094
34	0xbd5af074	-0.05345197
35	0xbcfd4af8	-0.030919537
36	0xbd9edb66	-0.07756691
37	0xbde95826	-0.11393766
38	0xbd95841a	-0.07300587
39	0xbd90649b	-0.07050439
40	0xbd1f25e1	-0.038854484
41	0xbdec6320	-0.11542344
42	0xbdf2dcf2	-0.11858548
43	0x3bee2326	0.0072673736
44	0xbc580f8e	-0.013187302
45	0xbca9f4df	-0.020746646
46	0xbe0a0ef4	-0.13482267
47	0xbd8727d5	-0.06599394
48	0x3c1f8255	0.009735663
49	0xbc3b75df	-0.011441677
50	0xbdfae256	-0.122502014
51	0xbc538ac6	-0.012911504
52	0xbd251f1c	-0.04031287
53	0xbd6efa10	-0.058343947
54	0xbd8d35b1	-0.068950064
55	0xbd283868	-0.04106942
56	0xbd7a9442	-0.061176546
57	0x3bd316ea	0.0064419406
58	0xbb106070	-0.0022030137
59	0xbdacd282	-0.08438589
60	0xbdb1c2fc	-0.086797684
61	0xbc21ad95	-0.009868045
62	0xbd972d72	-0.07381715
63	0xbcc3310c	-0.023827098
64	0xbd9a10de	-0.075227484
65	0xbdc905ed	-0.098155834
66	0xbda85ca6	-0.08220796
67	0xbd42a5f6	-0.047521554
68	0xbc5a37c6	-0.0133189615
69	0xbd8729b0	-0.06599748
70	0xbe16c0bc	-0.1472196
71	0xbdfab172	-0.12240876
72	0xbd683416	-0.056690298
73	0xbe0f4489	-0.13990988
74	0xbe063dd2	-0.1310952
75	0xbd9556be	-0.072919354
76	0xbe12bcec	-0.1432988
77	0x3b987f54	0.0046538506
78	0x3cc3731c	0.0238586
79	0x3c98bc2b	0.018644413
80	0xbd3d1214	-0.04615982
81	0xbe142263	-0.14466242
82	0x3c8eb6b9	0.017421113
83	0xbd19d3d0	-0.037555516
84	0xbd570fa2	-0.052505143
85	0xbe28820b	-0.16455857
86	0xbda21b42	-0.07915355
87	0x3ba00462	0.004883335
88	0xbcea1f01	-0.028579237
89	0xbd5ded8f	-0.05418163
90	0xbdccfa1a	-0.100086406
91	0xbd9a1cd7	-0.07525032
92	0xbb6272c0	-0.003455326
93	0xbc99adb0	-0.018759578
94	0xbc9bba0b	-0.01900961
95	0x3c07e406	0.008294111
96	0xbdb9d4b4	-0.09073773
97	0xbc749294	-0.014927525
98	0x3be77ba9	0.007064302
99	0xbdc6aeb5	-0.097012915
100	0xbca48264	-0.020081706
101	0xbd08c624	-0.033392087
102	0xbc9010fa	-0.01758622
103	0xbd06228b	-0.032747786
104	0xbe153ce2	-0.14574006
105	0xbe01f7bc	-0.1269216
106	0xbe0672cc	-0.13129729
107	0xbd284308	-0.04107955
108	0xbda6984d	-0.08134518
109	0xbd7c1fc0	-0.061553717
110	0xbd87bbde	-0.0662763
111	0xbb643a16	-0.003482466
112	0xbde7f1c3	-0.11325409
113	0xbe08291e	-0.13296935
114	0x3ca2a27e	0.019852873
115	0xbda3a4a3	-0.07990386
116	0xbdc779de	-0.09740041
117	0xbd334ae4	-0.043772593
118	0xbc73567a	-0.014852161
119	0xbd5be428	-0.053684384
120	0xbd694c32	-0.05695743
121	0xbdc13bd0	-0.094352365
122	0xbd8797ed	-0.066207744
123	0xbdc24bea	-0.09487136
124	0xbd41dd4f	-0.047330197
125	0xbdebdb5a	-0.11516447
126	0xbdfdc704	-0.12391475
127	0x3b4c3c6b	0.0031163942
128	0xbe0c622a	-0.13709322
129	0xbb70292e	-0.0036645639
130	0x3c69c342	0.0142677445
131	0xbdb6fc41	-0.08934832
132	0xbdbb4804	-0.09144595
133	0x3c4b6492	0.012414115
134	0x3b93c5e7	0.004509676
135	0xbdb14a6d	-0.08656774
136	0xbdd61f6d	-0.10455213
137	0x3c55d198	0.013050459
138	0x390c7018	0.00013393199
139	0xbdd705f5	-0.10499183
140	0xbceb2b9b	-0.028707316
141	0xbd86f58f	-0.06589805
142	0xbdf86df8	-0.1213035
143	0x3c94a55a	0.018145252
144	0xbd52f7bc	-0.05150579
145	0xbdf00590	-0.11719811
146	0xbd1f3eb3	-0.038878154
147	0xbddc0e92	-0.107449666
148	0xbdd937c2	-0.10606338
149	0xbd1f9f73	-0.038970422
150	0x3bb996a8	0.0056637116
151	0x3d17978c	0.03700976
152	0xbd521e98	-0.051298708
153	0xbdb6df77	-0.08929341
154	0xbcd68a40	-0.02618897
155	0xbd326e3c	-0.04356216
156	0x3bd47687	0.006483856
157	0xbc813f18	-0.015777156
158	0xbdacf0eb	-0.08444389
159	0x3bf7e69a	0.0075653316
160	0xbdf6a3b4	-0.12042943
161	0x3d00b6ee	0.031424455
162	0xbe001344	-0.12507349
163	0xbe3ae6d5	-0.18252118
164	0xbda5a6ff	-0.080884926
165	0x3bcb8854	0.00621132
166	0xbde610f1	-0.112337
167	0xbe0738ce	-0.13205263
168	0xbde35bc0	-0.11101484
169	0xbdaf5f3d	-0.08563087
170	0x3a6d39e0	0.00090494566
171	0xbd81ffe3	-0.06347635
172	0x3c369e4e	0.011146141
173	0xbcea0ce6	-0.028570604
174	0x35e6c000	1.7192215e-06
175	0x3c301560	0.010747284
176	0x3b5c6c7a	0.0033633993
177	0xbd0c7741	-0.034293417
178	0xbcfdb452	-0.030969772
179	0xbc859229	-0.016305046
180	0xbc1c418d	-0.009537113
181	0x3d93707f	0.07199191
182	0xbbe3f788	-0.0069569983
183	0x3d5d15fa	0.053976037
184	0x3c43901c	0.011936214
185	0xbe06bea4	-0.13158661
186	0xbe002b48	-0.1251651
187	0xbdfe689a	-0.12422295
188	0x3d6087f2	0.054817148
189	0x3d6d79cb	0.05797748
190	0xbdea7f25	-0.11450032
191	0xbc73cfe8	-0.014881112
192	0x3d2ce114	0.04220684
193	0x3c888ec1	0.016669633
194	0xbca39cd9	-0.019972252
195	0x3c06de84	0.008231763
196	0xbd1c0c0b	-0.038097423
197	0xbcb7bac4	-0.022427924
198	0xbd953174	-0.07284823
199	0xbc1c55a0	-0.009541899
200	0xbb13a248	-0.0022527147
201	0x3b06d620	0.0020574406
202	0xbdc76539	-0.097361036
203	0xbe184880	-0.14871407
204	0xbe11cc50	-0.14238095
205	0xbd400dd2	-0.04688818
206	0xbdc1e566	-0.094675824
207	0xbdefb3d4	-0.11704221
208	0xbcb96739	-0.022632228
209	0xbc536245	-0.012901847
210	0xbdde4019	-0.108520694
211	0xbd394983	-0.045236122
212	0xbe100fae	-0.14068481
213	0xbdde341e	-0.10849784
214	0xbd6418d6	-0.055687748
215	0xbc244226	-0.010025537
216	0xbd0d2ce9	-0.034466658
217	0x3b2e111a	0.0026560486
218	0xbd4b25a5	-0.049596447
219	0xbca597c2	-0.020213965
220	0xbd496f74	-0.049178556
221	0xbd539cff	-0.051663395
222	0x3b016c30	0.0019748323
223	0xbd9b53a1	-0.0758431
224	0xbdd5e5dc	-0.10444233
225	0xbdc30da1	-0.09524084
226	0xbd0bf124	-0.034165516
227	0xbdc73d9d	-0.09728549
228	0xba219340	-0.00061636046
229	0xbd8b16ab	-0.06791433
230	0xbc14ae89	-0.009074816
231	0xbc6b10c3	-0.014347258
232	0xbe1e7710	-0.15475106
233	0xbdc7f0ce	-0.09762727
234	0xbd9682ec	-0.0734919
235	0xbd0a74b1	-0.03380269
236	0xbbeacf9e	-0.007165863
237	0x3ac22a30	0.0014813598
238	0xbd7f7a7c	-0.06237267
239	0xbba0f478	-0.0049119554
240	0xbcb098f8	-0.021557316
241	0xbe0df67e	-0.1386356
242	0xbe27cc56	-0.16386542
243	0xbdf58c54	-0.11989656
244	0xbd8e8cf8	-0.069604814
245	0xbddbb9b8	-0.107287824
246	0xbdea514f	-0.1144129
247	0xbd0271dc	-0.031846866
248	0xbd18a40b	-0.03726582
249	0xbdee9807	-0.11650091
250	0xbdf299ce	-0.11845742
251	0xbce780e3	-0.0282597
252	0xbde020c1	-0.10943747
253	0xbe58d312	-0.21174267
254	0xbe4489fb	-0.1919326
255	0xbe341c48	-0.17588913

conv2.bias f4 [16]
0	0xbdc08258	-0.09399861
1	0xbde93210	-0.11386502
2	0x3dec10e8	0.11526662
3	0xbddbdb77	-0.10735219
4	0x3eb49c2c	0.352754
5	0xbdefe354	-0.11713281
6	0x3ec46b52	0.3836313
7	0x3eb5e79c	0.35528266
8	0xbd8c93de	-0.06864141
9	0x3d1e4680	0.038641453
10	0xbdecd16e	-0.11563383
11	0x3e000c84	0.12504774
12	0xbd34adde	-0.044111125
13	0xbde68284	-0.11255363
14	0xbd41a08c	-0.04727225
15	0xbdde7b4a	-0.10863359

fc1.weight f4 [120, 400]
0	0xbd339f96	-0.043853365
1	0xbda5c216	-0.080936596
2	0x3c18f7c8	0.009336419
3	0xbcfcf197	-0.030876918
4	0x3c8c237f	0.01710677
5	0x3c430210	0.011902347
6	0xbc10c65a	-0.008836353
7	0x3d159b76	0.036525212
8	0x3b2c5918	0.0026298221
9	0x3c54ecb7	0.01299589
10	0x3d68f921	0.056878213
11	0xbc1f1b81	-0.009711147
12	0xbd5100bc	-0.05102609
13	0xbd13a01c	-0.036041364
14	0x3c1ced40	0.009578049
15	0x3bf9f73a	0.0076283487
16	0x3cd0dfba	0.025497306
17	0xbd155266	-0.036455534
18	0xbcc0819a	-0.023499299
19	0x3cafd0ae	0.02146181
20	0xbcd1127a	-0.025521506
21	0x3d04dde6	0.03243818
22	0xbd9556f3	-0.07291975
23	0xbcc0e27c	-0.023545496
24	0x3cce1fd9	0.02516167
25	0xbb90fa08	-0.0044243373
26	0xbdb3afb2	-0.087737456
27	0x3b90affc	0.00441551
28	0xbd8b202a	-0.06793244
29	0xbd4bcc9d	-0.04975568
30	0xbc528890	-0.012849942
31	0xbd039d62	-0.032132514
32	0xbc79af18	-0.0152394995
33	0xbd26fdc9	-0.040769372
34	0xbc0db09c	-0.008648064
35	0xbd40b2d0	-0.04704553
36	0xbd5cf8bc	-0.05394815
37	0xbd12d6be	-0.035849325
38	0xbccb9db4	-0.024855472
39	0xbc8eeba4	-0.017446347
40	0xbba37b22	-0.004989044
41	0xbd170097	-0.036865797
42	0xbd5c7b9a	-0.053828813
43	0x3d15937c	0.036517605
44	0x3d2224a8	0.03958574
45	0xbda455bc	-0.08024165
46	0x3acd7cd0	0.0015677456
47	0xbc6db344	-0.014508072
48	0xbd81bfd1	-0.06335414
49	0xbd0bb3d1	-0.034107033
50	0xbd0c1cfc	-0.03420733
51	0xbca4fa1c	-0.020138793
52	0xbd88d932	-0.06682052
53	0xbd3c822a	-0.04602257
54	0xbd95d294	-0.07315555
55	0xbdc8541c	-0.097816676
56	0xbd621703	-0.055197727
57	0xbd911d94	-0.0708572
58	0xbda82df2	-0.082118884
59	0xbdcec3d0	-0.10095942
60	0xbd998088	-0.074952185
61	0xbd7e8538	-0.062138766
62	0xbbc89e12	-0.006122359
63	0xbd1e048b	-0.03857855
64	0xbd1a7dd0	-0.03771764
65	0xbd224234	-0.039613917
66	0xbd90f1b8	-0.07077354
67	0xbdcd4752	-0.10023369
68	0x3c7318ff	0.0148375025
69	0xbd1d583a	-0.038414218
70	0x3c115241	0.0088697085
71	0xbd6dfcd0	-0.05810243
72	0xbd9d0c1d	-0.07668326
73	0xbc976965	-0.018482873
74	0xbda10c39	-0.078636594
75	0xbd2e631d	-0.04257499
76	0x3badec98	0.005307745
77	0xbcec49e8	-0.028843835
78	0xbc6bad76	-0.014384618
79	0xbd5761e7	-0.0525836
80	0x3d3a7af3	0.04552741
81	0xbd7d762f	-0.061880287
82	0xbc177d7c	-0.009246226
83	0xbd2510e2	-0.040299304
84	0x3c8a71a2	0.016899887
85	0x3c97adcc	0.01851549
86	0x3d41bf31	0.047301475
87	0xbdc93000	-0.098236084
88	0xbd3fec3a	-0.046856143
89	0xbd847fd1	-0.064696915
90	0x3ad02510	0.0015880186
91	0xbcbe7b6c	-0.023252212
92	0xbd1294a8	-0.0357863
93	0xbd260084	-0.040527835
94	0xbd0af952	-0.033929177
95	0x3c852082	0.016250852
96	0xbb6be76c	-0.0035996092
97	0xbcda32e9	-0.026635604
98	0xbc38f242	-0.0112882275
99	0xbd4ba874	-0.049721196
100	0xbcc59828	-0.024120405
101	0xbd6c1aea	-0.057642855
102	0xbdbc0138	-0.0917992
103	0xbd0cf5d1	-0.034414116
104	0xbc05096e	-0.008119924
105	0xbc59649e	-0.013268618
106	0xbd71a5d2	-0.05899603
107	0xbc82bb65	-0.015958497
108	0xbcb7b7ac	-0.022426449
109	0xbd368bcf	-0.044566926
110	0xbca7e43b	-0.020494571
111	0xbda56506	-0.08075909
112	0xbd3a5142	-0.04548765
113	0xbd070fa8	-0.032973915
114	0xbd4de64c	-0.050268456
115	0xbd822224	-0.06354168
116	0xbd81c5dd	-0.063365676
117	0x3bfb9aac	0.0076783504
118	0xbd9ecbd4	-0.07753721
119	0xbd64026e	-0.05566638
120	0xbbd11456	-0.006380598
121	0xbd02a20e	-0.03189283
122	0xbd7ff53c	-0.062489733
123	0xbc9d526e	-0.019204345
124	0xbbd18326	-0.006393808
125	0x3cef306f	0.0291979
126	0xbaa972d0	-0.0012927894
127	0xbc95d462	-0.018289749
128	0x3cb9c183	0.022675281
129	0x3b938bc7	0.0045027467
130	0x3b13fa2a	0.002257953
131	0xbd56ddfc	-0.052457795
132	0xbda83dda	-0.08214922
133	0x3a0e1bb0	0.0005420996
134	0xbd9fad0b	-0.07796677
135	0x3c5b35dd	0.013379541
136	0xb9c00a00	-0.00036628544
137	0xbdd9b343	-0.106298946
138	0x3c94a78e	0.018146303
139	0xbd33751c	-0.043812856
140	0x3d106853	0.03525574
141	0x3c7de0dc	0.015495505
142	0xbc6763f2	-0.01412295
143	0x3c8ddbd0	0.017316729
144	0x3cd9626e	0.026536193
145	0x3c96b0df	0.018394886
146	0x3c8333f0	0.016015977
147	0xbc15af7d	-0.009136078
148	0xbced8ed8	-0.028998777
149	0xbd4c5eee	-0.04989522
150	0xbc0a263d	-0.008431968
151	0xbd02394a	-0.031792916
152	0xbd317554	-0.043324783
153	0xbd6907c1	-0.05689216
154	0xbd33785a	-0.043815948
155	0xbce740e8	-0.028229192
156	0xbd3410da	-0.043961383
157	0xbd702430	-0.05862826
158	0xbc592dff	-0.013255595
159	0xbd9a6678	-0.075390756
160	0x3d29bd92	0.041440554
161	0xbc5e067d	-0.013551352
162	0xbcd1ed20	-0.025625765
163	0x3c00e00a	0.007865915
164	0xbd99e40c	-0.075141996
165	0xbaa25074	-0.0012383596
166	0xbd45fe78	-0.048338383
167	0x3c35aa6f	0.011087998
168	0xbd964c3c	-0.07338759
169	0xbd20871d	-0.039191354
170	0xbc5f82dc	-0.013642039
171	0x3cbd0c66	0.023077201
172	0xbd074b52	-0.033030815
173	0x3d1c05b9	0.038091395
174	0xbb0bd510	-0.0021336712
175	0xbd86eab1	-0.065877326
176	0xbbdb9247	-0.006700787
177	0xbc035522	-0.008015903
178	0xbd978a9c	-0.073994845
179	0xbd9ab61f	-0.07554268
180	0xbdc57a6c	-0.09642491
181	0xbdced697	-0.100995235
182	0xbdd489cc	-0.10377845
183	0xbd468b33	-0.048472594
184	0xbbd348d4	-0.006447891
185	0xbcdb558d	-0.026774192
186	0xbd82b3bd	-0.063819386
187	0xbdd0b050	-0.10189879
188	0xbbd0119b	-0.006349755
189	0xbdb16db0	-0.08663499
190	0xbc1e256a	-0.009652475
191	0xbd7f3bb8	-0.06231281
192	0xbcccd6af	-0.025004713
193	0xbd28e7d2	-0.041236706
194	0xbd9a34a5	-0.075295724
195	0xbd4b6940	-0.04966092
196	0xbd76dfbc	-0.060271963
197	0x39b49240	0.0003444124
198	0xbceab252	-0.028649483
199	0xbd7a3e25	-0.061094422
200	0x3c8dbfe8	0.017303422
201	0xbd911786	-0.07084565
202	0x3bb1527a	0.0054114433
203	0x3bf863fc	0.0075802784
204	0xbd7d8b8e	-0.061900668
205	0x3d486e61	0.04893339
206	0xbcab3906	-0.020901214
207	0xbc53e9ef	-0.012934192
208	0xbcde0300	-0.02710104
209	0xbcf1502a	-0.02945717
210	0xbc086dbe	-0.008326946
211	0xbd19b71a	-0.037528135
212	0xbd11e9bf	-0.03562331
213	0xbd5588eb	-0.05213253
214	0xbd80a6e5	-0.062818326
215	0xbd2f0f3a	-0.04273913
216	0xbd874715	-0.06605355
217	0xbd9ffafe	-0.07811545
218	0xbc942205	-0.018082628
219	0xbb15f81c	-0.002288348
220	0xbcfd93ac	-0.030954204
221	0xbd1a0f0c	-0.037612006
222	0x3c6b55b4	0.014363695
223	0xbd0b7a02	-0.034051903
224	0x3cb24691	0.021762164
225	0x3ae12368	0.001717669
226	0xbcc61d1a	-0.024183799
227	0x3d6d381d	0.057914842
228	0xbc1d1ca2	-0.009589346
229	0xbdc8f665	-0.09812621
230	0xbd642481	-0.055698875
231	0xbcd102f4	-0.025514103
232	0x3cbb165a	0.022837806
233	0xbd9970d2	-0.07492222
234	0x3c011adb	0.007879938
235	0xbcdcd4b8	-0.026956901
236	0xbd52889b	-0.05139981
237	0xbd079c23	-0.033107888
238	0x3b70edf4	0.0036762925
239	0xbd26a54a	-0.040684976
240	0xbd72fc28	-0.059322506
241	0xbd0aceda	-0.033888675
242	0xbd3b99f1	-0.045801107
243	0xbd91f155	-0.071261086
244	0xbdbcaf73	-0.09213152
245	0xbce5ddf9	-0.028059946
246	0xbda7e2c4	-0.08197549
247	0xbc0e9fb6	-0.00870507
248	0xbd5afe32	-0.053465076
249	0xbd4987b6	-0.04920169
250	0xbda0104a	-0.07815607
251	0xbdc9a0e3	-0.0984514
252	0xbd95948c	-0.07303724
253	0xbd6a106d	-0.05714457
254	0xbd4375dd	-0.047719825
255	0xbdc24a5b	-0.094868384

fc1.bias f4 [120]
0	0xbdda7bde	-0.10668157
1	0xbde457fe	-0.11149596
2	0xbe0ca31f	-0.13734101
3	0x3dc33362	0.09531285
4	0xbd8b065c	-0.06788322
5	0xbe7a8b54	-0.24467212
6	0xbdb8e428	-0.09027892
7	0xbe27124a	-0.1631557
8	0xbe4bb40a	-0.19892898
9	0xbdc596c3	-0.09647896
10	0xbdfb9d8a	-0.122859076
11	0xbda58ebd	-0.08083866
12	0xbdec5ac0	-0.11540747
13	0x3d00f8f0	0.031487405
14	0xbe01a538	-0.12660682
15	0x3cc56e48	0.024100438
16	0x3e2455f8	0.1604842
17	0xbdd1efe2	-0.10250832
18	0xbe00a1cf	-0.12561725
19	0xbe00ac91	-0.12565829
20	0xbd250a84	-0.04029323
21	0x3d058b8c	0.032603785
22	0x3cb8e132	0.022568319
23	0xbe0520bf	-0.13000773
24	0x3e2ce101	0.16882707
25	0x3e6f2f53	0.23357897
26	0xbe6eb051	-0.23309447
27	0xbdc634d7	-0.09678047
28	0x3e445438	0.19172752
29	0xbe6729ce	-0.22574541
30	0xbe0fa354	-0.14027148
31	0xbe224cc8	-0.15849602
32	0xbdc7adfa	-0.0974998
33	0xbdbf2c00	-0.09334564
34	0xbe13bc41	-0.14427282
35	0xbe0a2c72	-0.13493517
36	0xbe1bf184	-0.1522885
37	0xbdb4ca2b	-0.08827623
38	0xbdcff322	-0.10153796
39	0xbde8a2bb	-0.113591634
40	0xbdf51e64	-0.11968687
41	0xbde3013a	-0.11084218
42	0x3e205af5	0.15659697
43	0xbe10aa1d	-0.14127393
44	0xbdee7e36	-0.116451666
45	0x3cd62743	0.026141768
46	0x3d73a421	0.059482697
47	0xbd3a2481	-0.04544497
48	0xbdeb6d29	-0.1149543
49	0x3ccfa815	0.025348702
50	0x3d952bea	0.072837666
51	0xbe08504a	-0.13311878
52	0x3de3d4bd	0.11124561
53	0x3d27282e	0.040809803
54	0x3e5f301c	0.21795696
55	0xbe7c6a51	-0.24649931
56	0x3e57e2d4	0.21082622
57	0xbe0fa85a	-0.14029065
58	0xbe16bde9	-0.14720882
59	0x3de331fc	0.11093518
60	0x3eac36d9	0.33635595
61	0xbced1e2c	-0.028945051
62	0x3d83220f	0.064029805
63	0xbd683216	-0.05668839
64	0xbe4b4af0	-0.19852805
65	0xbdde9b16	-0.10869424
66	0xbe2ec73a	-0.17068186
67	0x3e1eb081	0.15497018
68	0xbe05114a	-0.12994877
69	0xbe0df9d4	-0.13864833
70	0xbcd7cbd8	-0.026342317
71	0xbc85d536	-0.016337018
72	0x3daa8d1a	0.08327694
73	0xbdf6f8fc	-0.12059209
74	0xbd837e08	-0.06420523
75	0xbd7fc531	-0.062443916
76	0xbdb0f90e	-0.086412534
77	0xbdf145a2	-0.117808595
78	0xbd7835ef	-0.06059831
79	0x3e170cb4	0.1475094
80	0x3d41dd86	0.0473304
81	0xbdc9e522	-0.09858157
82	0xbe029ab5	-0.12754329
83	0x3d5d0f6c	0.053969786
84	0x3d931074	0.071808726
85	0xbdea1027	-0.11428862
86	0xbbc03b90	-0.0058664754
87	0xbd9a0b34	-0.07521668
88	0xbc1a9464	-0.009434793
89	0xbe3e8472	-0.18605211
90	0xbb543bc0	-0.0032384247
91	0xbd770b5a	-0.06031356
92	0xbd7108f2	-0.05884642
93	0xbe072720	-0.13198519
94	0xbd1de32f	-0.038546737
95	0xbdede3c1	-0.11615706
96	0x3e6f004e	0.2333996
97	0x39589200	0.00020653754
98	0xbded5e13	-0.11590209
99	0xbde66df8	-0.112514436
100	0x3da500f9	0.08056826
101	0xbddc5e82	-0.107602134
102	0x3e73703d	0.23773284
103	0xbddfcfca	-0.109283045
104	0xbdfbd9fa	-0.12297435
105	0x3e59ea62	0.21280816
106	0xbdc60232	-0.096683875
107	0xbd1a4d8f	-0.037671622
108	0xbe58dd62	-0.21178201
109	0xbd81f917	-0.06346338
110	0xbdea0352	-0.114264145
111	0xbd98b493	-0.07456317
112	0xbe5b850a	-0.21437469
113	0xbe5fa1d3	-0.21839075
114	0xbdbf863a	-0.093517736
115	0xbd677269	-0.056505594
116	0xbe3e5bd8	-0.18589723
117	0xbbf75ff0	-0.0075492784
118	0xbda0aa36	-0.07844965
119	0xbe4ad399	-0.1980728

fc2.weight f4 [84, 120]
0	0x3c44d314	0.012013216
1	0x3d24713f	0.040147062
2	0x3d9e6ea7	0.07735949
3	0x3d9ad091	0.07559312
4	0xbd9a566a	-0.075360134
5	0xbdcbb4bd	-0.099465825
6	0xbd8d23ea	-0.06891616
7	0xbdd4a534	-0.103830725
8	0xbdecdd34	-0.11565629
9	0xbd8758cd	-0.06608734
10	0x3d63f0cc	0.055649564
11	0xbb3a17a4	-0.0028395439
12	0xbe3857e6	-0.1800228
13	0xbe26c158	-0.16284692
14	0xbdf2a8bd	-0.118485905
15	0xbd8f69f5	-0.070026316
16	0xbe89f525	-0.26944843
17	0xbcc159cd	-0.02360239
18	0xbc9b3696	-0.018946927
19	0xbc78f086	-0.015194064
20	0xbd0914b9	-0.03346703
21	0x3d0d614f	0.03451663
22	0x3e23f32c	0.16010731
23	0x3ccad2ad	0.024758661
24	0xbd6b0b82	-0.05738402
25	0xbe053ded	-0.13011904
26	0xbe3b2fed	-0.18280001
27	0x3b717478	0.0036843102
28	0xbd855e50	-0.06512129
29	0xbcb99bd0	-0.022657305
30	0xbd19ee30	-0.03758067
31	0xbd9aa3f6	-0.07550804
32	0xbd071734	-0.032981113
33	0xbdd5ac21	-0.104332216
34	0x3cf6cd52	0.030127201
35	0x3d4af4d5	0.049549896
36	0x3d0230ee	0.031784944
37	0xbd973252	-0.07382645
38	0xbd85903d	-0.06521652
39	0xbe3cae58	-0.18425882
40	0x3a5a4980	0.00083269924
41	0xbd88c5cc	-0.06678352
42	0xbcc44255	-0.02395741
43	0xbdfdc4b0	-0.12391031
44	0x3d06f25d	0.03294598
45	0xbde277d2	-0.1105801
46	0x3bb5984c	0.005541837
47	0xbe285a1b	-0.16440623
48	0xbcb97eee	-0.022643533
49	0x3d7cdb96	0.06173285
50	0xbe371064	-0.17877346
51	0xbd596866	-0.053078078
52	0xbdcc375a	-0.09971495
53	0xbe6cd529	-0.23128189
54	0x3c90dec7	0.017684354
55	0xbd81d337	-0.06339114
56	0xbc848ab7	-0.016179426
57	0x3d0049c1	0.031320337
58	0xbbb3e8aa	-0.005490382
59	0xbe18d65a	-0.14925519
60	0xbe45e62a	-0.19326082
61	0xbdcfb989	-0.1014281
62	0xbe79bbf8	-0.2438811
63	0xbde9473d	-0.11390541
64	0x3dc4baf4	0.09605971
65	0xbd20e54b	-0.03928117
66	0x3be5161d	0.0069911615
67	0xbdbeb819	-0.093124576
68	0xbd4ac14c	-0.04950075
69	0x3c2f3848	0.010694571
70	0x3d38527d	0.045000542
71	0xbd5b5916	-0.053551756
72	0xbd7ba33b	-0.061434966
73	0xbd342f02	-0.043990143
74	0x3d67ffc0	0.056640387
75	0xbdaff942	-0.08592464
76	0xbccc13be	-0.024911758
77	0xbd4446f0	-0.047919214
78	0x3d3e6bec	0.04648964
79	0xbe553de9	-0.20824398
80	0xbde2d32e	-0.110754356
81	0x3d119bfe	0.035549156
82	0xbd90e7a0	-0.07075429
83	0xbe0e29c3	-0.13883118
84	0xbd8ae686	-0.0678225
85	0xbd01bd11	-0.03167445
86	0xbd5908d4	-0.052986935
87	0xbd78368e	-0.060598902
88	0xbbfe4576	-0.007759745
89	0xbd3d19d1	-0.0461672
90	0xbd89902d	-0.067169525
91	0x3d90b25e	0.07065271
92	0xbe3bd662	-0.183435
93	0x3d339b8a	0.043849505
94	0x3d90e19c	0.070742816
95	0xbc8dc9a8	-0.017308071
96	0xbdbb13e2	-0.09134652
97	0x3cc9d9b5	0.024639944
98	0xbe3972df	-0.18110226
99	0x3d4a8e90	0.049452364
100	0xbd888186	-0.0666533
101	0x3c858579	0.016298996
102	0xbe061bc2	-0.13096526
103	0x3d8bd915	0.068285145
104	0xbd685d33	-0.056729507
105	0x3d1aaa1f	0.037759896
106	0xbe201f3b	-0.15636913
107	0xbcdd1018	-0.026985213
108	0xbd15fcf3	-0.036618184
109	0xbbf5588c	-0.0074873623
110	0x3b50798a	0.0031810724
111	0xbd35f323	-0.044421326
112	0xbd7830a7	-0.060593273
113	0xbce7b233	-0.028283214
114	0xbddbfc5d	-0.10741494
115	0xbad98600	-0.0016595721
116	0xbd35beae	-0.0443713
117	0x3df96db2	0.12179126
118	0xbc6966b0	-0.014245674
119	0xbe0a6d7c	-0.13518327
120	0x3d97c844	0.074112445
121	0xbdb2be30	-0.08727682
122	0xbd886bf6	-0.06661217
123	0xbe279613	-0.16365843
124	0x3e35aeb8	0.17742431
125	0xbddff17b	-0.109347306
126	0x3d72ec86	0.059307598
127	0x3a519bc0	0.0007995926
128	0xbced7d24	-0.028990336
129	0xbcbc2554	-0.022967018
130	0x3d84c018	0.064819515
131	0xbd959eb9	-0.073056646
132	0xbcc5f19d	-0.024163062
133	0xbbdb80f6	-0.006698723
134	0xbc68398c	-0.0141738765
135	0x3dd5b471	0.10434807
136	0x3b766898	0.0037598964
137	0x3e211dda	0.15734044
138	0x3b94ae00	0.004537344
139	0xbd082e1e	-0.033247106
140	0xbddfdfb5	-0.109313406
141	0xbea5bb62	-0.32369524
142	0xbcc12b37	-0.023580177
143	0x3d05aa62	0.032633193
144	0xbe57dc37	-0.21080099
145	0xbe013462	-0.12617639
146	0x3dc09e96	0.09405248
147	0xbd3d69d2	-0.046243496
148	0x3dc2da85	0.095143355
149	0x3de85d52	0.113459244
150	0xbcdd1cae	-0.026991215
151	0xbd3b6cff	-0.045758244
152	0x3ca0a800	0.019611359
153	0xbe2b78ca	-0.16745296
154	0x3d98d288	0.07462031
155	0xbd8b14a4	-0.06791046
156	0xbe0e7035	-0.13909991
157	0x3b991316	0.0046714647
158	0xba7de318	-0.00096850237
159	0xbd68fef3	-0.056883764
160	0xbd645a43	-0.055750143
161	0x3c08fe7e	0.008361457
162	0xbe20cc05	-0.15702827
163	0xbd70b350	-0.058764756
164	0xbcfeaf59	-0.031089472
165	0xbde4d0aa	-0.11172612
166	0x3dc5bb58	0.096548736
167	0x3e35a612	0.17739132
168	0xbd8dce2f	-0.06924092
169	0xbc923bd3	-0.017850792
170	0x3da97ecc	0.08276138
171	0x3df45954	0.119311005
172	0x3c7cdbea	0.015433291
173	0x3da9cd36	0.08291094
174	0xbd271f0b	-0.04080109
175	0x3db6ac93	0.08919635
176	0xbd6d0624	-0.057867184
177	0xbd0afbec	-0.033931658
178	0x3dd3eca9	0.10347874
179	0xbbe975f2	-0.007124656
180	0xbd8841e6	-0.06653194
181	0xbd3f1ff7	-0.046661343
182	0x3b254be0	0.0025222227
183	0x3d66ae10	0.056318343
184	0xbcfa0396	-0.030519288
185	0x3d8a1822	0.06742884
186	0xbc863d2b	-0.016386589
187	0x3dd081f6	0.10181038
188	0x3e25086a	0.16116491
189	0xbd8ea175	-0.06964389
190	0x3d18bffa	0.037292458
191	0xbcddc05f	-0.027069269
192	0xbe56e5ee	-0.20986149
193	0xbcc87726	-0.024470877
194	0x3d3e20ba	0.04641793
195	0xbe07961d	-0.13240857
196	0xbcae834d	-0.021302843
197	0x3d9ffc39	0.078117795
198	0x3cac5f52	0.021041546
199	0xbdd52fd1	-0.10409511
200	0xbe36dada	-0.17856923
201	0x3c4d7b3a	0.0125415865
202	0x3dd1e1dd	0.10248158
203	0xbdbf642e	-0.0934528
204	0xbd91029f	-0.07080578
205	0x3b91fc87	0.0044551524
206	0x3d0d1ca2	0.034451135
207	0x3deeadfc	0.11654279
208	0xbe4b4eaf	-0.19854234
209	0xbcca3569	-0.024683671
210	0x3d2d47ad	0.042304683
211	0x3d63dac3	0.05562855
212	0xbd721ef6	-0.059111558
213	0x3c78999f	0.015173345
214	0xbd8e10e7	-0.069368176
215	0xbdc77fa2	-0.09741141
216	0xbe153e1a	-0.14574471
217	0xbd854a87	-0.065083556
218	0x3dbf5119	0.0934164
219	0x3dca51f4	0.098789126
220	0xbcf11fee	-0.02943417
221	0x3d5d23c9	0.053989206
222	0x3bce9c32	0.006305241
223	0xbdb69a0c	-0.08916101
224	0x3d918cf3	0.07106962
225	0xbdb7c99a	-0.08973999
226	0x3bd7f6ea	0.0065907137
227	0xbcb8aed2	-0.022544298
228	0xbd78b3be	-0.06071829
229	0x3bac3f38	0.0052565597
230	0xbde8f194	-0.11374202
231	0x3dc822b1	0.09772242
232	0xbd853a18	-0.06505221
233	0xbdcd943e	-0.100380406
234	0xbd888180	-0.06665325
235	0xbdd395f3	-0.10331335
236	0xbcaa68d4	-0.02080194
237	0x3e1534a6	0.14570865
238	0x3d66bc83	0.056332123
239	0x3cf7201a	0.030166674
240	0x3d591692	0.05300004
241	0xbde1380d	-0.10997019
242	0xbd782618	-0.060583204
243	0xbddd0bdb	-0.10793277
244	0xbc39885e	-0.011324016
245	0x3c848d8c	0.016180776
246	0x3d997af7	0.07494157
247	0xbd6e14c2	-0.058125265
248	0xbe0cf5ee	-0.1376569
249	0xbd2f95f6	-0.042867623
250	0x3d3afd17	0.04565152
251	0xbdcd47e7	-0.1002348
252	0x3cb9154d	0.022593165
253	0xbd0512b0	-0.032488525
254	0xbb9325b4	-0.0044905785
255	0xbe359490	-0.17732453

fc2.bias f4 [84]
0	0x3d62ac8e	0.055340342
1	0x3c4a3be6	0.012343382
2	0xbdd1b224	-0.10239056
3	0xbe510cca	-0.20415035
4	0x3d8b2aca	0.06795271
5	0xbe4ffca4	-0.20311219
6	0xbdb98098	-0.090577304
7	0xbe28d6b0	-0.16488147
8	0x3e4a2b8d	0.19743176
9	0xbded254c	-0.115793794
10	0xbe1b03be	-0.15138146
11	0xbe360465	-0.17775114
12	0xbe260914	-0.162144
13	0xbdfc8ca2	-0.12331511
14	0xbdc482d3	-0.09595265
15	0xbe94a734	-0.29033816
16	0xbd04d837	-0.03243276
17	0xbe4f92dc	-0.20270866
18	0x3e9b4da8	0.30332685
19	0xbe00c468	-0.12574923
20	0xbe07714e	-0.13226816
21	0xbe2985d6	-0.1655496
22	0x3c97f12e	0.01854762
23	0xbe1c943a	-0.15290919
24	0xbe165544	-0.14680964
25	0xbd621d45	-0.055203695
26	0x3c5b1fa5	0.013374244
27	0x3e1a24c0	0.15053082
28	0xbe0868ad	-0.1332118
29	0x3e759950	0.23984265
30	0x3d3f0968	0.04663983
31	0xbd7f2041	-0.06228662
32	0xbdda0af3	-0.1064662
33	0xbe3a78e6	-0.18210182
34	0xbd6fb464	-0.058521643
35	0xbe10192a	-0.140721
36	0xbddc43b8	-0.10755104
37	0xbd94a7a2	-0.07258536
38	0x3e772bd1	0.24137808
39	0xbd71717a	-0.05894611
40	0xbe2aac21	-0.16667224
41	0xbe2b7602	-0.16744235
42	0xbea29381	-0.31753162
43	0xbd883b4c	-0.06651935
44	0xbdf97593	-0.12180629
45	0x3e923358	0.28554797
46	0xbc581097	-0.013187549
47	0xbd4813a0	-0.04884684
48	0x3d0c869b	0.034308057
49	0xbdf77679	-0.12083144
50	0x3e3dea84	0.18546492
51	0xbe6697c1	-0.22518827
52	0xbdfec74b	-0.12440356
53	0xbe3b00b1	-0.18261983
54	0xbe3c965e	-0.18416736
55	0xbe882dfe	-0.2659759
56	0x392c5380	0.00016434304
57	0xbdf0cbb5	-0.11757604
58	0x3e42996a	0.19003835
59	0xbe6f3f4e	-0.23363993
60	0x3e8666ac	0.26250207
61	0x3df88dd0	0.121364236
62	0xbe45ef22	-0.19329503
63	0xbe245d9c	-0.16051334
64	0x3e7468e2	0.23868135
65	0xbe4a8fd7	-0.19781433
66	0x3ddc8b4b	0.107687555
67	0xbe4954ab	-0.19661205
68	0xbe6695b2	-0.22518042
69	0xbe19797e	-0.14987752
70	0xbe1922c4	-0.14954668
71	0xbe2e1c86	-0.17003068
72	0x3d830366	0.063971326
73	0xbe30c80d	-0.17263813
74	0xbe6a7810	-0.22897363
75	0xbd09231c	-0.03348075
76	0x3eb323e8	0.34988332
77	0xbda623d7	-0.08112305
78	0x3e81c9b4	0.253492
79	0xbe173bf5	-0.14768966
80	0x3d1f5c03	0.03890611
81	0xbe397a29	-0.18113007
82	0xbe2a5d9c	-0.16637272
83	0xbe8ad2fb	-0.2711409

fc3.weight f4 [10, 84]
0	0xbe5922d6	-0.21204695
1	0xbe3f55be	-0.18685052
2	0xbd1e02f7	-0.038577046
3	0x3cdf3616	0.02724747
4	0xbe7a9c8b	-0.24473779
5	0xbe970fcc	-0.2950424
6	0x3cfac55a	0.030611683
7	0xbdb4bde6	-0.08825283
8	0x3e848fca	0.25890952
9	0xbe2b0451	-0.16700865
10	0x3c85a068	0.01631184
11	0xbe51969a	-0.20467606
12	0xbdbbff18	-0.09179515
13	0xbe12ef3c	-0.14349073
14	0xbcccd5e9	-0.025004344
15	0xbd335581	-0.043782715
16	0x3d48c3d6	0.04901489
17	0xbd371558	-0.04469809
18	0xbe9cf571	-0.30656007
19	0xbdad0f3a	-0.0845017
20	0xbd9b06cb	-0.07569655
21	0xbdcfcd2c	-0.10146555
22	0xbe74c77a	-0.2390422
23	0xbce9d410	-0.028543502
24	0xbdab51a5	-0.08365182
25	0xbe5dc97a	-0.21658888
26	0xbd2b0fe6	-0.04176321
27	0xbe86f2d7	-0.26357147
28	0xbd0b6168	-0.03402844
29	0xbea5e439	-0.32400683
30	0xbb513c4c	-0.003192681
31	0xbd2ec3b4	-0.042667106
32	0xbd0b812d	-0.03405874
33	0xbdc62946	-0.09675841
34	0xbe144795	-0.14480431
35	0xbd0b8ddc	-0.034070835
36	0x3c163715	0.009168406
37	0xbdf1d045	-0.118073024
38	0x3dd88493	0.105721615
39	0xbe0c2f77	-0.13689981
40	0xbe4d4d2f	-0.20048974
41	0xbd3123b4	-0.04324694
42	0xbe88a613	-0.26689205
43	0xbe3f71a8	-0.186957
44	0xbdbc5eb4	-0.09197751
45	0x3e279377	0.16364847
46	0xbdb36a92	-0.08760561
47	0xbdebd2b8	-0.11514801
48	0xbdbcc2b4	-0.09216824
49	0xbe572ac8	-0.21012414
50	0xbd792e0d	-0.060834933
51	0xbe184afa	-0.14872351
52	0xbd27e9c4	-0.04099442
53	0xbe069442	-0.13142493
54	0xbde39f08	-0.11114317
55	0xbe2ac346	-0.16676053
56	0x3e50d734	0.20394593
57	0xbe1e8b0f	-0.15482734
58	0x3d91487d	0.07093904
59	0xbd66d282	-0.0563531
60	0xbe90f5e1	-0.2831259
61	0x3e12cd5e	0.14336154
62	0xbe68d9a0	-0.22739267
63	0xbd6a7164	-0.057237044
64	0x3e088e0e	0.1333544
65	0xbe597aba	-0.21238223
66	0x3e2fd488	0.17170918
67	0xbd98bb43	-0.07457592
68	0xbda8c268	-0.08240205
69	0xbe79a129	-0.24377884
70	0xbd92bd16	-0.071649715
71	0xbe8e8a57	-0.2783992
72	0x3d18a261	0.03726423
73	0x3bfed498	0.007776808
74	0x3b8201b4	0.003967488
75	0xbe3fc31c	-0.18726772
76	0xbebe37ee	-0.37152046
77	0xbd1f0313	-0.03882129
78	0xbe69524c	-0.227853
79	0x3c752c94	0.014964242
80	0x3dbba118	0.091615856
81	0xbd811602	-0.06303026
82	0xbe0cc78c	-0.13747996
83	0x3b846a26	0.004040974
84	0xbe6531fd	-0.2238235
85	0x3e24c342	0.1609011
86	0xbdbee3e2	-0.09320809
87	0x3d8b33fa	0.06797023
88	0xbe9d0071	-0.306644
89	0xbe361ed8	-0.17785203
90	0x3cc8efa3	0.02452833
91	0xbd90fbcd	-0.07079277
92	0x3dc37042	0.09542896
93	0xbdedb62e	-0.11607014
94	0xbd21a14b	-0.03946046
95	0xbd3829b8	-0.04496166
96	0xbe0fe1cd	-0.1405098
97	0xbd00aa24	-0.03141226
98	0x3c90458c	0.017611288
99	0xbe0030b4	-0.12518579
100	0x3da16785	0.07881073
101	0xbdd03b3b	-0.10167547
102	0xbe828233	-0.2548996
103	0xbe3f15f8	-0.18660724
104	0xbd8b29bd	-0.0679507
105	0xbd9a8fd4	-0.07546964
106	0xbeb16336	-0.34646004
107	0xbd34c9a7	-0.044137623
108	0xbe48e406	-0.19618234
109	0xbe8f1406	-0.27944964
110	0xbe2683ec	-0.16261262
111	0xbec6dc00	-0.38839722
112	0xbd4f3f7d	-0.050597657
113	0xbe975d1c	-0.29563224
114	0xbe355921	-0.17709781
115	0x3d23b7e4	0.039970294
116	0xbc6d8bbf	-0.01449865
117	0x3a277136	0.0006387414
118	0x3bd3ac5e	0.0064597568
119	0xbd8965c7	-0.067088656
120	0xbd5d6ce7	-0.054058935
121	0xbe961b5e	-0.29317755
122	0x3e951e16	0.29124516
123	0xbbfd8df8	-0.0077378713
124	0xbd506232	-0.050874896
125	0xbe174d7c	-0.14775652
126	0xbe428e9a	-0.1899971
127	0x3c5a301f	0.013317137
128	0xbd8ae4eb	-0.06781944
129	0x3e4d0c5a	0.20024243
130	0xbe98f691	-0.29875615
131	0xbd6a0429	-0.057132874
132	0xbd88965f	-0.06669306
133	0xbe0f5220	-0.13996172
134	0x3db8a8c2	0.09016563
135	0xbe34b17e	-0.17645833
136	0xbe28f87d	-0.16501041
137	0xbcd25f0e	-0.025680091
138	0xbe18c2e2	-0.14918092
139	0xbd0b9f2a	-0.034087338
140	0xbd89518e	-0.067050084
141	0xbe0457a4	-0.12924057
142	0x3e583e82	0.21117595
143	0xbe0c1167	-0.13678513
144	0xbe85be81	-0.26121905
145	0x3c3be787	0.011468775
146	0xbe14d816	-0.14535555
147	0xbddb8660	-0.10718989
148	0xbd3fee3a	-0.04685805
149	0xbdc60984	-0.09669784
150	0xbc75e30e	-0.015007747
151	0xbe80dea8	-0.25169873
152	0xbe72bb7a	-0.23704329
153	0xbe23d1ef	-0.15998052
154	0xbdafc72a	-0.085829094
155	0xbb26f3a0	-0.0025474802
156	0xbe48f7fd	-0.1962585
157	0xbd092ae4	-0.03348817
158	0xbd08cb56	-0.03339704
159	0xbdf8a89f	-0.12141537
160	0xbedf4ee8	-0.43614888
161	0xbb1cf7bc	-0.0023951372
162	0xbea16288	-0.31520486
163	0xbc034aa4	-0.008013401
164	0x3cc7dd77	0.024397595
165	0xbdbe76d6	-0.0930001
166	0xbd5466bf	-0.0518558
167	0xbcb0377b	-0.02151083
168	0x3ca34761	0.019931497
169	0xbe9701eb	-0.2949365
170	0xbe02a114	-0.12756759
171	0xbd4a2d8c	-0.049359843
172	0x3d0aa1d9	0.033845756
173	0xbe0c7b16	-0.13718829
174	0xbe2a0df3	-0.16606884
175	0xbd812b84	-0.06307128
176	0x3c4e5c06	0.012595182
177	0xbe5e0c96	-0.21684489
178	0xbdc3f43a	-0.09568067
179	0xbe4c01b8	-0.1992253
180	0xbccc8cd6	-0.0249695
181	0xbb9920e0	-0.0046731085
182	0xbd4780f5	-0.048706967
183	0xbe31c3ac	-0.17359799
184	0xbc8ea629	-0.017413216
185	0xbd89ae24	-0.06722668
186	0x3e3c05ff	0.18361662
187	0xbde36c78	-0.11104673
188	0x3d103e85	0.035215873
189	0xbd966735	-0.07343904
190	0xbd1ed35b	-0.038775783
191	0xbc9c7cff	-0.019102572
192	0xbd8ffdd8	-0.07030839
193	0xbe1a03c6	-0.15040502
194	0xbe1fb8a8	-0.15597785
195	0x3da18da8	0.07888347
196	0xbdf61c7c	-0.12017152
197	0x3df7b5ce	0.12095223
198	0x3d209b6a	0.039210714
199	0xbdef7d8d	-0.11693869
200	0xbd9dd20d	-0.0770608
201	0xbdab680a	-0.08369453
202	0xbe41533f	-0.18879412
203	0xbe04788f	-0.12936614
204	0xbdb3ee4e	-0.087856874
205	0xbe8e3233	-0.27772674
206	0xbe189e16	-0.14904055
207	0xbe639693	-0.22225408
208	0xbee5d4d7	-0.44888946
209	0xbdc6b84e	-0.09703122
210	0xbe14e866	-0.14541778
211	0xbe282044	-0.16418558
212	0xbdfc6e26	-0.12325697
213	0xbc53ae1f	-0.012919932
214	0xbdb57d09	-0.08861739
215	0xbb015604	-0.0019735107
216	0xbe049013	-0.12945585
217	0xbd9a9cb7	-0.07549422
218	0xbe445feb	-0.19177215
219	0xbc314a32	-0.010820912
220	0xbdf8f3ce	-0.12155877
221	0xbda2db61	-0.079519995
222	0xbdf7dcb2	-0.12102641
223	0xbdf359b8	-0.11882347
224	0xbc81f69d	-0.015864665
225	0xbe7c71b1	-0.24652745
226	0xbe82545c	-0.25454986
227	0xbdab1c0c	-0.08354959
228	0x3d16d0d6	0.036820255
229	0xbdd12aee	-0.10213266
230	0xbdcaf197	-0.09909361
231	0xbd236cf5	-0.03989883
232	0xbdfc2cc8	-0.12313229
233	0xbe3d5aa5	-0.1849161
234	0xbd8ccf56	-0.06875484
235	0xbd917788	-0.07102877
236	0x3d123ef0	0.035704553
237	0xbe922748	-0.28545594
238	0xbe3078da	-0.17233601
239	0xbe793914	-0.2433818
240	0x3c54f034	0.012996722
241	0xbe31827f	-0.17334937
242	0xbe13df12	-0.14440563
243	0xbe5ba76b	-0.21450584
244	0x3d140ce4	0.036145106
245	0xbb4e51a8	-0.0031481776
246	0xbc1f9503	-0.009740117
247	0xbd45e672	-0.048315473
248	0xbc2861cb	-0.010277222
249	0xbdd5e353	-0.10443749
250	0xbe50bd61	-0.20384742
251	0xbdb11240	-0.08646059
252	0x3d1dc4f8	0.038517922
253	0xbdfeda86	-0.12444024
254	0xbde08a5d	-0.10963891
255	0xbcc5317a	-0.024071444

fc3.bias f4 [10]
0	0xbceb7bf2	-0.028745625
1	0xbcd5d774	-0.026103713
2	0xbe06e218	-0.13172185
3	0x3df25173	0.118319415
4	0xbe2d51c2	-0.1692572
5	0x3ddc574a	0.107588366
6	0xbcc9a551	-0.024614962
7	0x3d34f41d	0.044178117
8	0xbd50e7a8	-0.051002175
9	0x3e4e289e	0.20132682
