final_model.pt (torch, 251845 bytes, 10 tensors)

conv1.weight f4 [6, 3, 5, 5]
000000 a8 05 21 3e 90 59 52 3e 8b 04 15 3e 31 72 45 3d
       0.15724814 0.20541978 0.14552514 0.048204605
000010 b6 7c c8 bc 0c 7b 71 3e 36 24 6f 3d 0b 09 95 3d
       -0.02447353 0.23582095 0.058384143 0.072771154
000020 ce ef ec bd dc a5 bb bd fe c3 24 3e c6 6d c0 3c
       -0.115691766 -0.091624945 0.1609039 0.023489844
000030 58 56 7c 3c c6 f0 85 3b f0 fc ac bd 58 99 86 3e
       0.015401445 0.0040875403 -0.084466815 0.26288867
000040 59 d5 32 3d 9c 9b df bd e6 a1 40 be 76 4a 71 3d
       0.043660495 -0.10918352 -0.1881176 0.058908902
000050 58 48 49 3e d5 35 05 3d 01 41 3d be 53 c1 5c be
       0.19656503 0.03252204 -0.18481828 -0.21558122
000060 b3 6c da bd e2 82 b7 3d 32 1f 8a 3d 1d 79 d5 3d
       -0.10665264 0.08960511 0.06744231 0.10423491
000070 16 df 1b 3d ab 18 87 bc 8b 33 43 3e 99 94 d7 3d
       0.03805455 -0.016491255 0.19062631 0.1052639
000080 00 6d 13 3e f2 5f 85 3d 02 99 ca bd 62 05 95 3e
       0.14397049 0.06512441 -0.09892465 0.2910567
000090 55 c2 37 3e 82 e2 ca bd 72 4f 91 3d be ea 89 3d
       0.17945226 -0.09906484 0.07095231 0.06734227
0000a0 f5 b6 5a 3e 0a c0 85 3e e0 e8 8c 3c c6 ee b0 3c
       0.21358855 0.26123077 0.017200887 0.021598231
0000b0 9e fb 7e 3d e2 1d 82 3e a8 b9 d6 3d d8 44 6a bd
       0.06225168 0.25413424 0.1048463 -0.05719456
0000c0 38 4e e2 3d 8d 75 8c 3d e6 37 8d be 28 b3 b1 bd
       0.11050075 0.068583585 -0.2758171 -0.086767495
0000d0 11 da fd bd 76 b9 b8 be f1 b0 99 be b4 93 aa bd
       -0.123951085 -0.36078995 -0.30017808 -0.083289534
0000e0 ce f5 1b bd 33 5a 28 be c2 3a 31 be 49 4f 15 be
       -0.038076214 -0.16440658 -0.1730757 -0.14581026
0000f0 4c 02 be 3c d7 c5 43 3d 7c f2 a7 be 76 0e a4 be
       0.023194455 0.047796097 -0.32802188 -0.32042283
000100 7b 38 96 be 38 1b 1c 3e c3 5f 10 bd b8 82 a9 be
       -0.29339966 0.15244758 -0.035247575 -0.33107543
000110 9d 11 be be 76 4c 19 be 9c 64 73 3e 56 c7 9c bd
       -0.37122813 -0.14970574 0.23768848 -0.07655208
000120 e1 29 30 be 03 ab 94 be 3c fb 4f 3b a5 64 4d bc
       -0.17203476 -0.29036722 0.003173544 -0.012536203
000130 20 38 63 be a5 8b 35 be 47 ff 72 be f1 62 f9 bd
       -0.22189379 -0.17729051 -0.23730193 -0.12177075
000140 26 4a 76 3e 9c 96 28 3e e1 20 82 3e 02 b7 03 3e
       0.24051723 0.16463703 0.2541571 0.1286278
000150 2a 36 58 3d c6 45 59 3d 77 7f 18 bd 93 d7 0d 3b
       0.05278603 0.053045057 -0.037230935 0.0021643385
000160 df 33 bd 3d 8f 82 1a bd 28 6f 2f be c6 84 25 be
       0.09238409 -0.037722167 -0.17132246 -0.1616393
000170 b8 7a a2 be aa b1 76 be a4 3c 96 be 3e f6 6e be
       -0.31734252 -0.24091211 -0.2934314 -0.23336121
000180 1c be 3f be cf 43 fe bd 74 5b c1 bd 84 9f 3f be
       -0.18724865 -0.12415277 -0.094412714 -0.18713194
000190 aa 89 a7 ba 4f 22 26 be b4 84 d2 bd c6 21 b8 bd
       -0.0012782116 -0.16224025 -0.10279217 -0.08990817
0001a0 0c 6c a1 bc 29 43 a8 3e 8c e6 68 3e e2 1c 9e 3e
       -0.019704841 0.3286374 0.22744197 0.3088141
0001b0 f6 de 99 3e 0a da 89 3e 82 05 69 3e eb 8b 27 3e
       0.30052918 0.26924163 0.22756007 0.16361968
0001c0 ec ad 1f 3e e2 a9 0e 3e b3 2e 3e 3e a4 9a 1e be
       0.1559369 0.13931993 0.18572502 -0.15488678
0001d0 38 f6 3c be fa 98 44 be 18 a7 78 be 17 88 8a be
       -0.184533 -0.19198981 -0.24282491 -0.27056953
0001e0 7a 85 65 be 06 16 8e be a4 ac 1c be 38 11 8e be
       -0.22414199 -0.27751178 -0.15300232 -0.27747512
0001f0 96 44 3d be 5e a4 8f bb d3 cb ca 3d 10 38 96 bd
       -0.18483195 -0.004383608 0.09902158 -0.07334912
000200 b0 e8 4f bd 96 64 08 bd e7 31 c9 3e 7f 42 75 3e
       -0.050759017 -0.03329905 0.39295885 0.23951147
000210 96 a0 7b 3e 40 25 8d 3e ac 89 8e 3e ad 28 63 3e
       0.24572977 0.27567482 0.2783941 0.22183485
000220 a3 50 d9 3d 36 f0 90 3e a0 e7 9d 3e c6 e4 45 3e
       0.10611083 0.28308266 0.30840778 0.19325551
000230 00 a7 e7 3c 24 c8 1a bd 4d ba 8a bc 1a 88 35 be
       0.028277874 -0.037788525 -0.016934538 -0.177277
000240 0b 6e 95 bd b2 08 fd bb 26 13 ff bd 8c 54 1c be
       -0.0729638 -0.007721984 -0.12454824 -0.15266627
000250 d1 ff 04 bd 79 4b 07 bd 2e 7f af 3d 00 cc 38 3d
       -0.032470528 -0.03303096 0.085691795 0.045116425
000260 6e ad 2e 3e 18 08 05 3e 00 5d 6b 3d 9c 2a ba 3d
       0.17058346 0.12991369 0.05746174 0.09090158
000270 27 26 4f 3e 95 ee 1b 3d 84 be 1d 3e 73 41 a5 bd
       0.20229398 0.038069326 0.15404707 -0.08069124
000280 f3 f1 23 bd e0 8d de 3d 87 26 38 3e f3 f9 a0 bc
       -0.040025663 0.10866904 0.17983447 -0.019650435
000290 5d 71 c4 3c 7a 73 cc bc 20 e7 86 3d 56 18 92 3d
       0.023979837 -0.024957407 0.06587052 0.07133548
0002a0 d8 35 e2 bd 9c 0a 0a bd 24 69 9d bd fc c5 76 bd
       -0.11045426 -0.033701524 -0.076860696 -0.060247406
0002b0 10 de fd 3c b3 25 cc bd ef 17 96 bc ae 6d 1c bd
       0.030989677 -0.09968128 -0.01832196 -0.038190536
0002c0 ee a7 2c bd cb b8 17 3c 3a c1 02 bc 29 e9 de bc
       -0.042152338 0.009260367 -0.007980639 -0.027210789
0002d0 66 00 ac bd cd 68 a9 bd af 63 a1 bd 24 54 e3 bd
       -0.083985135 -0.08271942 -0.07880341 -0.11100033
0002e0 7d 38 03 bd 48 99 5b 3c d7 3c bc 3c 4c a9 c6 bd
       -0.032036293 0.013403244 0.02297823 -0.097002596
0002f0 a8 4c 11 3b dd 17 e7 bc 36 fa 35 bc 1a 76 e4 bd
       0.0022170935 -0.028209621 -0.011107018 -0.111553386
000300 0e b9 8c 3c 38 e3 63 bd b6 d9 e6 bd c6 ae 75 bd
       0.017178085 -0.055636615 -0.11271994 -0.05998113
000310 8b 24 d4 bd 1d aa af bd f5 0d f8 3b cd 43 24 be
       -0.103585325 -0.085773684 0.007570023 -0.16041489
000320 f6 9d f7 3c 80 fc cc bd 32 ef 6c bd 33 52 18 be
       0.030226689 -0.10009098 -0.057845302 -0.14875107
000330 7a c0 11 be 7c a6 d3 bd 98 09 9c bd 86 b0 f2 bd
       -0.1423358 -0.10334489 -0.07619017 -0.118500754
000340 3d b6 47 bd 88 ea cc 3c b1 26 bc 3c 94 4f 30 3d
       -0.04875778 0.025014177 0.022967668 0.04304464
000350 56 67 e9 bd 40 3a 8e bd 5c 5d 6e 3d 14 2e 39 bb
       -0.11396663 -0.06944704 0.058194503 -0.0028256224
000360 54 27 d5 bd 57 57 35 3c 8c 74 49 3c ec bd 17 bc
       -0.10407892 0.011068187 0.012295853 -0.0092615895
000370 93 09 9a 3d fb 49 de 3d 3a b5 08 3e 35 14 59 3d
       0.075213574 0.108539544 0.13350382 0.052997787
000380 ba f1 4a 3d 2b c3 f9 3c 1a f3 a2 bc 85 df dc bc
       0.049546935 0.030488571 -0.01989131 -0.026962051
000390 7e 32 35 bd 34 05 09 be 82 db d2 bc bd 08 08 3d
       -0.044237606 -0.13380891 -0.025739435 0.03321146
0003a0 18 ed cf 3d 0a 55 ff 3c bc 9c ce bb 2c 8e c2 bc
       0.10152644 0.03116848 -0.0063053053 -0.023749433
0003b0 59 85 92 3d 47 d3 cf 3d 84 e0 3f 3e 74 4d b4 bb
       0.0715434 0.1014772 0.1873799 -0.005502397
0003c0 ce d6 48 3e db ef 0e 3e bb 0a 31 3e 4e a3 3e 3e
       0.19613191 0.13958685 0.1728925 0.18616983
0003d0 bd df cb 3d d8 9d 84 3e a7 83 13 3e 90 40 16 3e
       0.09954784 0.25901675 0.1440569 0.14673066
0003e0 67 ec 8c 3e de c6 0e 3e e2 42 39 3d 0c d2 15 3d
       0.2752411 0.1394305 0.0452298 0.03657727
0003f0 27 30 1a be fa 63 a6 bd ac f3 02 3c 8f 47 45 bd
       -0.15057431 -0.08124538 0.007992666 -0.048163947

conv1.bias f4 [6]
000000 a3 f6 28 bd 57 53 28 be ec 15 38 bf be a4 0f bf
       -0.041250836 -0.16438042 -0.7190845 -0.5611075
000010 dd 7c 0d bf 89 bc 12 bf
       -0.5526865 -0.5731893

conv2.weight f4 [16, 6, 5, 5]
000000 8b 47 9b bd dc 6f 13 be 41 f8 34 bd 36 1f ef bd
       -0.07582005 -0.1439814 -0.044182066 -0.11675875
000010 da f0 d5 bd a7 e7 0a bd 86 15 0c be 51 7d d8 bd
       -0.104463294 -0.033912327 -0.13680086 -0.10570777
000020 70 28 9a bc 2b 66 ac bd 74 da bb ba d0 66 09 be
       -0.01881811 -0.084179245 -0.0014332072 -0.13418126
000030 c4 fb 87 bd 03 f2 9d bd 94 0c 2a bd 5a f1 73 bd
       -0.06639817 -0.07712176 -0.0415159 -0.059556343
000040 f4 61 85 3c c2 c8 76 bd 9b 7f 62 bd 66 4a 03 be
       0.01628206 -0.06025005 -0.055297475 -0.1282135
000050 bc c2 ed bd ff bf 8e bd 28 3d 32 bd 15 77 04 3d
       -0.11609408 -0.06970214 -0.043515354 0.032340128
000060 08 3d 96 bd a6 4a ad bb 5d 7b 79 bd 96 fd eb 3c
       -0.073358595 -0.00528844 -0.060908664 0.028807443
000070 64 e9 b1 3c 3c eb 29 bd ac 83 a7 ba 69 23 06 bd
       0.021717735 -0.041484103 -0.001278033 -0.032748614
000080 c6 e5 a7 3c fc cd 8a bd 0b 2c 13 bd 7e a5 2f 3c
       0.020495307 -0.0677757 -0.035930675 0.010720609
000090 f8 f0 92 bd 8d f0 04 bd c9 3c 21 bd b7 79 e1 bd
       -0.071748674 -0.03245597 -0.03936461 -0.110095434
0000a0 28 7a 1f bd a0 33 0d bd 93 e3 e6 3c ce bd b2 bd
       -0.038934857 -0.03447306 0.028184688 -0.087276086
0000b0 50 d6 aa 3b 07 78 96 3c a7 78 7a bd 6e ab 96 bd
       0.0052135363 0.01836778 -0.06115022 -0.07356916
0000c0 fd 1f 9d bd 26 e1 a9 3c 8c b8 53 bd 80 ae e3 bd
       -0.07672117 0.020737242 -0.05168967 -0.111172676
0000d0 8a 37 cc bd 6a 7c 0d be 4a 82 a8 3c ed 8b 2b 3d
       -0.09971531 -0.13816991 0.02056994 0.04188149
0000e0 70 73 64 3d a8 d8 3a bc 17 98 33 3d 60 87 27 3a
       0.055774152 -0.011404194 0.043846216 0.0006390717
0000f0 38 8f 2c bc 80 53 12 3c b4 02 33 3d 7a 18 01 3c
       -0.010532193 0.008931041 0.04370375 0.007879371
000100 78 8c e0 bd 43 6e 13 be be 3d 2d be e4 28 c9 bd
       -0.10964292 -0.1439753 -0.16918084 -0.098222524
000110 14 07 34 bc 14 8f 12 3d 7f 9c 08 be b4 09 0d be
       -0.010988016 0.03578098 -0.13340949 -0.13773233
000120 a0 a5 09 be 96 1d 42 bc bb 3a 32 bc bb d2 d5 bd
       -0.13442087 -0.011847874 -0.01087826 -0.10440584
000130 0a e4 73 bc cd 2b e0 bd 18 0f 93 3c 9b ad b0 3c
       -0.014885912 -0.10945854 0.017951533 0.021567157
000140 f6 ab 69 3b 12 56 59 bd 54 3b 90 bd 2e 7c ae 3c
       0.0035655475 -0.0530606 -0.07042566 0.021299448
000150 9a bd 8b bd 9c 0f 21 bd 8e e3 68 3d de 65 09 bc
       -0.06823273 -0.039321527 0.056857638 -0.008386103
000160 68 3b ac bc 7e e5 83 bd c8 5a 03 bd 8a 99 97 bd
       -0.02102442 -0.064402565 -0.032068998 -0.07402332
000170 13 dd ce 3c bf 29 cb bd a2 ee a3 bd 2c 49 9f bc
       0.0252519 -0.09920072 -0.080045 -0.01944407
000180 0a a8 be 3c 50 55 38 bd f5 b2 28 3d 78 42 a8 bd
       0.023273487 -0.045003235 0.04118629 -0.08215803
000190 b4 f3 89 3c 12 4c 47 3c 2b 9e 18 bd 3c 73 26 3b
       0.01683984 0.012164133 -0.037260216 0.0025398275
0001a0 70 f8 ab bd c6 ec 19 be c0 7e f0 bd cc 13 98 bd
       -0.08396995 -0.15031728 -0.11742926 -0.07425651
0001b0 ee 1d 1a be 43 f5 7a bd 11 f0 d2 bd 5b ee 18 bd
       -0.1505048 -0.061269056 -0.10299695 -0.03733669
0001c0 e8 b9 ae bc af df 49 bd 7e 9d 6b 3c 31 df 73 bd
       -0.021328881 -0.049285587 0.014380811 -0.059539024
0001d0 c3 40 e3 bc 36 39 e3 bb 10 1b 01 be 4b 3d e2 bd
       -0.027740842 -0.0069343103 -0.1260798 -0.11046847
0001e0 ac a4 67 bd e2 54 09 be 42 7b bd 3c c2 30 5f 3b
       -0.056553528 -0.13411286 0.023130063 0.0034056162
0001f0 8e e1 5f bc 87 90 22 bd 2e 8d bb 3b b0 6e af bc
       -0.013664616 -0.039688613 0.005723617 -0.021415085
000200 81 36 d7 bd 04 95 9d bd ca b4 b6 bd 50 16 d3 bd
       -0.10508443 -0.07694438 -0.089212015 -0.1030699
000210 49 9d 48 bd 1b 08 04 be 26 41 05 be a9 a1 e9 bd
       -0.048978124 -0.12893717 -0.13013133 -0.11407787
000220 f1 67 91 3c 94 56 ef bd 72 e1 c5 bd be 09 08 be
       0.017749758 -0.11686435 -0.09662141 -0.13284966
000230 70 1c 00 3d 08 86 e5 3c 57 aa a1 bd 18 30 e7 bd
       0.03127712 0.028018013 -0.07893818 -0.1128847
000240 e0 ca 8b bd b2 15 d7 bd 18 4b 1e be 86 81 1f be
       -0.06825805 -0.10502185 -0.15458333 -0.15576753
000250 ee 1d 04 bd fa 2b 0a be ed c9 3c be 62 5f 25 be
       -0.032255106 -0.13493338 -0.18436404 -0.16149667
000260 d8 23 33 bd c8 3b 02 be c2 cb d7 3d 9d 0b ee bd
       -0.043735355 -0.12718117 0.105369106 -0.11623309
000270 ec b7 32 be 19 8d 2d be 2c af 26 be 48 f0 48 bd
       -0.17452973 -0.16948356 -0.1627776 -0.049057275
000280 33 b2 b1 3b eb fa 45 be f8 ed 33 be d8 e3 4c be
       0.0054228543 -0.19333999 -0.17571247 -0.2000879
000290 26 31 2e be e6 2b 5b bd 18 e0 b6 bb c0 9d e4 bd
       -0.17010936 -0.05350866 -0.0055809133 -0.11162901
0002a0 eb 06 69 bd 9c 6c 0b bd 95 7b a6 bd 5d a9 21 3d
       -0.056891363 -0.034039125 -0.0812904 0.039468158
0002b0 0a 1d 62 bd 68 d1 65 be 30 aa 41 bd e5 86 b4 bd
       -0.055203475 -0.22443163 -0.047281444 -0.088147916
0002c0 7e 73 8d be df ae b2 bd 99 8e bb bd 14 28 dd bc
       -0.27627176 -0.0872476 -0.09158058 -0.02699665
0002d0 74 a2 b5 3c c9 f0 fe bd 4a 65 fb bd 97 7e da bd
       0.02217219 -0.1244827 -0.12275179 -0.10668676
0002e0 ab 9d c2 bd 4a be 38 bc de 16 c2 bd 6e da 3e be
       -0.09502729 -0.011275837 -0.09477018 -0.18638012
0002f0 8d a9 02 be 2f 95 34 be 4c 6a 4d be 41 3b 80 be
       -0.12759991 -0.17635034 -0.2006008 -0.25045207
000300 98 5d 5d be 08 29 8a be 18 6f 42 be 5e bb ce bd
       -0.21617734 -0.2698443 -0.18987691 -0.10094331
000310 b6 5b 40 be 5e d5 5f be f0 21 4d be 31 9f 13 bd
       -0.18784985 -0.21858737 -0.20032477 -0.03604049
000320 60 c2 0c be 89 68 cc bd 5e 92 32 be 5e 8a bd bd
       -0.13746023 -0.09980876 -0.17438647 -0.09254907
000330 5a 43 bb bd ae 14 e4 bd 20 d9 0b be 25 bd e6 bd
       -0.09143706 -0.11136757 -0.13657045 -0.11266545
000340 ec 35 33 be 67 7d 32 be e7 66 19 be 1f ea 1d be
       -0.17501038 -0.1743065 -0.1498066 -0.15421341
000350 8e 21 24 3d 16 c1 8e bd a0 e5 89 bd 50 26 aa bc
       0.040071063 -0.06970422 -0.067332506 -0.020770222
000360 aa d3 7b 3d d8 5a c8 3d f2 03 86 3d 00 48 13 b9
       0.061481155 0.09782952 0.06543721 -0.00014045835
000370 b8 c7 18 3c 36 a4 3d bd 13 ed f5 3c 8d 23 cd 3d
       0.00932496 -0.046299182 0.030020272 0.100165464
000380 de 70 90 3d c1 f6 ca bc 56 65 e4 bd ee 54 24 be
       0.07052778 -0.024775865 -0.11152141 -0.16048023
000390 53 c3 74 bd 00 3b 19 be 46 d6 14 bd 91 a2 84 bd
       -0.05975659 -0.14963913 -0.03633716 -0.064763196
0003a0 c9 c4 f2 bc 5e 4a fa bd 02 c6 72 bd 2e 39 aa bd
       -0.02963485 -0.12221216 -0.059270866 -0.083116874
0003b0 34 ca 3e 3c d4 fb fd bd bf 12 40 be cc 31 0e be
       0.011644889 -0.12401548 -0.18757151 -0.13886184
0003c0 f8 e2 db 3d 60 b8 fc bc 8a 73 45 be 14 85 29 bd
       0.1073665 -0.030849636 -0.19282356 -0.04138668
0003d0 be 25 ac bd 14 3f de 3d 6c 9a 81 3d e9 4e 73 bd
       -0.08405636 0.10851875 0.06328282 -0.059401426
0003e0 52 e2 ba bd 25 97 28 bd 04 86 2d be 54 7d a8 bd
       -0.091251984 -0.041159768 -0.16945654 -0.082270294
0003f0 e2 aa 38 be f4 2a 61 be f1 9f 33 be 22 4f 98 bd
       -0.18033937 -0.21989042 -0.17541482 -0.074369684

conv2.bias f4 [16]
000000 a8 6b b6 bd c6 52 5d 3d 62 e6 1d be 46 da 2c bd
       -0.089072526 0.054034017 -0.15419915 -0.04220035
000010 1b 1f a0 bd 3c ce a6 3b 8a f3 d1 bc 4c ee e0 bd
       -0.07818433 0.005090503 -0.025628824 -0.109829515
000020 16 10 f1 bc da 62 60 bd 2c 99 e1 3c 6e c4 34 bd
       -0.029426616 -0.054781772 0.027538858 -0.044132642
000030 03 09 18 be 9f 18 f6 bd a8 86 b9 bd 33 fb d9 bd
       -0.14847188 -0.12016415 -0.09058887 -0.106436156

fc1.weight f4 [120, 400]
000000 de 33 3f 3d e2 fe 96 3c 6a e3 13 bd 58 1a 68 bc
       0.046680324 0.018432084 -0.03610555 -0.014166437
000010 f5 6a 84 3d f4 5c d0 bc 75 8b e3 bc f4 b7 c2 bc
       0.06465713 -0.025434949 -0.02777646 -0.023769356
000020 fb f5 56 3d 80 90 04 3c 56 06 b5 3d e6 37 19 3d
       0.05248068 0.008091092 0.08839099 0.037406825
000030 8f 14 02 bc 12 6c 09 bc aa 63 94 3b a2 8b 94 bd
       -0.007939472 -0.008387582 0.0045284824 -0.07253195
000040 8b 63 23 bd 0c e2 3f 3d 0e 49 43 bd fa 1a ae bd
       -0.039889853 0.046846434 -0.047677092 -0.08501239
000050 fe bb 98 bd 70 20 a2 ba b6 dc 8c 3d b4 13 9f bd
       -0.07457732 -0.0012369286 0.06878035 -0.0776743
000060 24 85 df bb 20 eb 3e 3c c6 2a b7 bd d6 9c 3d bd
       -0.0068212915 0.011652738 -0.08943705 -0.04629215
000070 44 ef 53 bc 6a 7a 13 bc 89 ef 0a be 8f eb 83 bd
       -0.012935463 -0.009001354 -0.13567938 -0.064414136
000080 89 b9 3f 3d 23 aa c2 bd ad fd 9f bd b5 52 8d bc
       0.0468078 -0.09505107 -0.07812057 -0.017251352
000090 1f 6b ff bd f6 08 8c bd 1a 09 ba bd a2 9f 08 bd
       -0.124716036 -0.06837647 -0.09083767 -0.033355363
0000a0 57 0f 06 3e 65 79 02 3e 39 29 75 bd 67 16 98 3c
       0.13091789 0.12741621 -0.059853766 0.01856537
0000b0 2c 0e 38 bd 36 2d 1d 3e 56 b9 31 3d 7c f6 96 3d
       -0.04493539 0.15349278 0.04338964 0.07371232
0000c0 3a 96 d5 3c 44 18 2f 3d 73 56 b2 bd 64 8b 8d 3c
       0.02607261 0.04274775 -0.08707895 0.01727838
0000d0 ec 62 ca bc 40 be 4b bc e8 be e9 bb 0a 56 47 3c
       -0.024705373 -0.012435496 -0.0071333535 0.012166509
0000e0 c0 23 a4 b9 3d ee a4 bc 3a 0f a4 bd ee 43 aa bc
       -0.00031307153 -0.020133132 -0.08010717 -0.020784345
0000f0 bd 8f 87 bc 29 7c d5 bb 85 d9 d5 bc 4c 12 5c 3d
       -0.016548032 -0.006515045 -0.026104698 0.053728387
000100 8c f1 3f bb e7 5a 83 3d 4c 4e c6 3c ca 22 d7 3d
       -0.002928826 0.064138226 0.024207257 0.10504682
000110 ce ae 77 3d af aa d6 3c 16 70 c7 3c 70 97 01 3d
       0.06046944 0.026204435 0.024345439 0.031638563
000120 60 22 2d bd db 3d 8c 3c 08 df ad bc f6 e6 c2 3c
       -0.04226911 0.017119339 -0.021224514 0.023791771
000130 2e ba 5d 3c 30 3e 3d bd f0 b4 e3 bc 58 ff 20 bd
       0.013533158 -0.046201885 -0.027796239 -0.039306015
000140 92 6e 38 3d 2e 9f 51 bd 80 1f 96 39 ab 0a aa bd
       0.045027323 -0.051177196 0.000286337 -0.08302816
000150 ec 29 71 bd b2 42 8d bd 2c c2 04 bd a4 cd 8f bd
       -0.05887787 -0.06897487 -0.03241174 -0.07021645
000160 c0 9d fe 39 a8 8e 9d bc ad 00 15 bc e2 df ed 3c
       0.00048564188 -0.019233063 -0.009094399 0.02903742
000170 30 7e 26 39 46 b1 b7 3c 28 9a c0 3c 7c 4f 81 3b
       0.00015878002 0.022423398 0.023511007 0.003946243
000180 cd 74 75 3c 33 1c 2f 3c ea 9f d8 3c 01 27 9e bc
       0.014981461 0.010687876 0.02644344 -0.019305708
000190 75 6c 0a 3d 86 21 39 3d 16 56 f9 3c bc d7 e2 bc
       0.03379484 0.045197986 0.030436557 -0.02769076
0001a0 85 e6 e4 3c e6 8c 05 3d 17 af 2e bc 3d bb 1a bd
       0.027941952 0.032605074 -0.010661862 -0.03777622
0001b0 28 fc 4d bb c2 21 8d bc 56 52 37 bb 1b 6e 4c bd
       -0.0031430814 -0.017228011 -0.002797266 -0.049909692
0001c0 ef 4a 2b bd 68 f5 d0 ba 30 24 1a bd 56 1b c9 3b
       -0.04181951 -0.0015942277 -0.037632167 0.006137292
0001d0 ac 12 36 3c e7 4e 8c bd f1 d8 b2 bd 5d c4 33 bc
       0.01111285 -0.06850987 -0.087327845 -0.01097211
0001e0 30 f3 f6 3a 24 dd f8 bc 6c b4 86 bb 4e 44 8e bd
       0.0018840786 -0.030378886 -0.0041108634 -0.06946622
0001f0 20 8c 9d 3a c4 c2 fb bd 3a 7c 02 be 66 2f 1f be
       0.001201991 -0.12293008 -0.12742701 -0.15545425
000200 a0 7b 82 bd b2 86 ea 3c 8c 8f a1 bd 08 cd 4d be
       -0.06371236 0.02862868 -0.078887075 -0.20097744
000210 fc c3 1a be c4 83 c1 bd 81 dc ae bd aa c7 39 3d
       -0.15113825 -0.094489604 -0.085381515 0.04535643
000220 23 6f 2c be 15 af 9a bd 6a 98 89 bd 41 e6 8b bd
       -0.1683927 -0.075529255 -0.06718524 -0.06831027
000230 a5 ea 68 bd a1 5e 03 3d 14 0d 20 bd f6 68 bc 3d
       -0.0568644 0.032072667 -0.039074972 0.09199707
000240 20 da 70 bd 5a 70 58 bd 5e 99 99 3d 53 6f bb 3d
       -0.05880177 -0.05284152 0.074999556 0.09152093
000250 60 76 8a 3d 56 f3 9a 3c 0c 07 65 3d 30 e9 59 3b
       0.067608595 0.01891486 0.055914924 0.0033250563
000260 76 87 92 3d 58 c5 eb 3c 00 09 46 bc c0 95 8f bb
       0.071547434 0.028780624 -0.012087107 -0.0043818653
000270 2d 66 6e 3c da 37 dd bc 28 dd 2c bc 1c b7 55 bd
       0.014550728 -0.027004171 -0.010550775 -0.05217658
000280 58 6f b5 bc 06 d2 13 bd b6 86 38 3d 80 5e 0e ba
       -0.02214782 -0.036088966 0.045050345 -0.0005430952
000290 ad 12 1f bd 34 6d 0a be 3a 66 88 bd 4e 64 18 bc
       -0.03883617 -0.1351822 -0.06660123 -0.009301258
0002a0 8f dc d3 bd 18 c9 4d be 12 d2 81 bd 10 88 a7 bd
       -0.103448026 -0.20096242 -0.06338896 -0.08180249
0002b0 fc 74 f7 3c 07 5b 9d bd 1a 87 2c be c8 12 b2 3b
       0.03020715 -0.07683378 -0.16848412 0.005434368
0002c0 be d6 0c bd 0f 99 81 bc d6 cc 82 bd f0 47 aa ba
       -0.03438448 -0.015820054 -0.063867256 -0.001299141
0002d0 72 84 5c bd 72 e0 f9 3b 7e 70 cc bd 13 7f 8a bd
       -0.053837247 0.007625633 -0.09982394 -0.06762519
0002e0 10 80 65 bd 85 ac 9e bc b6 1d 8e 3c e8 89 a3 bb
       -0.056030333 -0.019369373 0.017348152 -0.004990805
0002f0 94 fd f8 3c 49 bc 28 bd 90 11 f8 ba f0 0b 1b 3a
       0.030394353 -0.041195188 -0.0018926132 0.00059145596
000300 28 31 39 3b ee a0 92 3c b0 ff 8d 3d b2 60 1f bd
       0.002825806 0.017899003 0.06933534 -0.038910575
000310 3c f9 1e be 7f 57 7e bc 1c 39 2c bd 4c cf b4 3c
       -0.15524763 -0.01552379 -0.04204665 0.022071503
000320 d3 6e 92 3b 56 1d 21 bd 5a e3 01 3b 3e 47 4b bc
       0.0044687777 -0.039334618 0.001981935 -0.012407122
000330 90 56 f9 bc 88 bc b0 3d 1b e6 70 3d fa 57 3a 3d
       -0.030436784 0.086297095 0.058813196 0.045494057
000340 b4 66 9a 3c 85 12 16 3d 96 b5 2a 3c 1b a6 65 bc
       0.0188478 0.036638755 0.01041927 -0.014016653
000350 c6 91 68 3d 9d 35 53 3d db a4 fe 3c 20 58 c6 bb
       0.056779645 0.0515648 0.031084469 -0.006052986
000360 88 4b a0 3d c0 e7 32 3d de 26 f2 bc 38 f8 63 3d
       0.078269064 0.043678045 -0.029559549 0.05565664
000370 9c 08 2c bc 4c c0 5c bc 25 e8 70 bc d9 b8 ee bc
       -0.0105000995 -0.0134735815 -0.014703785 -0.029140877
000380 9b 12 bd bc a8 69 04 bd d8 de 68 3c ef 1c 0b bd
       -0.02308016 -0.032327324 0.014213286 -0.03396314
000390 76 55 ce 3c 5f 6f 3a bc d0 a1 99 bd 25 8a e4 bc
       0.025187235 -0.011379092 -0.075015664 -0.027897904
0003a0 12 6c 93 3c 86 b0 6a bd b0 9d cf 3a 6e 69 75 bc
       0.017995868 -0.057297252 0.0015839841 -0.01497875
0003b0 f4 d7 a5 bc 63 27 93 3c 04 95 80 bd 40 04 d4 b9
       -0.020244576 0.017963117 -0.062784225 -0.00040438958
0003c0 01 87 87 bd 00 ec 0b 3c 25 05 16 bd ec 8c 4d bd
       -0.06617547 0.0085401535 -0.036626 -0.05018322
0003d0 16 9c eb bc e0 6f dc 39 cd 6d 0c 3d 9f d1 ed bb
       -0.028760951 0.00042045023 0.0342844 -0.007257655
0003e0 86 e3 9b 3d 1e 81 cb bc ca c4 e3 bd 5a c9 87 bd
       0.07611756 -0.024841841 -0.11121519 -0.06630202
0003f0 1e fd b3 bd 3d 0d d9 3d 06 db 23 3d ee 38 e4 3c
       -0.08788513 0.10598228 0.0400038 0.027859177

fc1.bias f4 [120]
000000 0a ee 7e be 6c 6f ba 3d 75 fd 21 be 5e 40 96 bd
       -0.24895492 0.09103283 -0.15819342 -0.07336496
000010 30 d4 3b be 48 a1 2f be f2 36 16 be dc 0e ab bd
       -0.18342662 -0.17151368 -0.14669397 -0.083524436
000020 b1 c9 11 be 2a 47 e5 3e 50 2c f7 bd 32 78 d2 bd
       -0.14237095 0.44780856 -0.12068999 -0.10276832
000030 60 26 d5 bd 9e 8e 67 be c5 5c c7 bc 9e 3f 05 bd
       -0.1040771 -0.22612998 -0.024336228 -0.032531373
000040 e8 cc 34 3e 72 52 11 bd e4 05 44 3e 12 39 9c bd
       0.1765629 -0.035479017 0.19142872 -0.07628073
000050 90 dd 61 3d 8c 1e bb bd 8c 83 37 bd 94 63 46 bc
       0.05514294 -0.09136686 -0.044803187 -0.012108702
000060 29 d2 ad 3d b7 8d bc 3d 5d 61 44 be c8 42 3e be
       0.084873505 0.092067175 -0.19177766 -0.18580163
000070 b6 74 03 be 7c 13 ac be 3a 01 80 be 3a f2 6c be
       -0.1283749 -0.33608615 -0.25000936 -0.23139277
000080 1f 7f ec bd 37 66 30 be d7 0c fa bd a8 e9 6c 3d
       -0.11547684 -0.17226492 -0.1220948 0.05784002
000090 a4 33 cd 3d 67 c9 14 be e0 cd c6 be eb 1a 04 be
       0.10019615 -0.14529954 -0.38828945 -0.12900893
0000a0 68 f4 11 be 24 a3 03 be 84 3e c6 3d 92 57 05 be
       -0.1425339 -0.12855202 0.09679893 -0.13021687
0000b0 5b 78 60 be 04 63 23 3a 90 b9 5f 3e 77 31 b3 bd
       -0.21920912 0.0006232711 0.2184813 -0.08749669
0000c0 6b 97 80 bd d6 77 ea bd de 59 22 be 0f ff 5e bd
       -0.06278881 -0.11448638 -0.15854594 -0.05444246
0000d0 6c 06 04 bd 96 e2 ea bd 85 fc f0 bd 5a 05 b6 bd
       -0.032232687 -0.11468999 -0.11766914 -0.088877395
0000e0 70 ad 03 be be 23 39 be 3d fd 34 3e e6 62 68 bd
       -0.1285913 -0.18080041 0.17674728 -0.056734942
0000f0 63 52 8b be c8 0e 88 be 25 81 98 bd 38 40 ac bd
       -0.27211294 -0.26573777 -0.07446507 -0.08410686
000100 a4 6e 93 bc 02 12 e6 bc b3 69 84 bd b0 90 ec bd
       -0.017997093 -0.028084759 -0.06465473 -0.115510345
000110 2a 5c 82 be 93 37 5d be 83 2a 91 3e 92 40 ef bd
       -0.2546094 -0.21603231 0.28352746 -0.11682238
000120 ca 4e f2 bd b9 16 3c 3e cb 5d d4 bd 2e ad eb bd
       -0.11831434 0.18368043 -0.10369452 -0.11507641
000130 59 9e a9 bd 51 0d 57 be cf e8 3a 3e c6 01 70 bd
       -0.082821555 -0.21001174 0.18252872 -0.05859544
000140 3e 33 0e be 7c bc 1b be 71 68 29 3e d1 b1 cf bd
       -0.13886735 -0.1520862 0.16543747 -0.10141338
000150 5a ae 0f be 02 da c8 bd 19 8d a3 bd 74 f9 1d be
       -0.14031354 -0.09807207 -0.079858966 -0.1542719
000160 d2 f7 0f 3d 6b 2a c7 bd 54 45 ea bd 8f b3 b4 bd
       0.03514845 -0.097248875 -0.114390045 -0.088233106
000170 18 2c 61 be ea e2 88 be 93 71 b6 bd 21 50 58 3d
       -0.21989477 -0.26735622 -0.08908381 0.052810792
000180 db 13 17 be aa 4b e8 bd 4f 31 57 bd ce 1a f0 bd
       -0.14753668 -0.11342557 -0.05253726 -0.117238626
000190 a5 b5 94 3e af d0 c3 bd df a7 55 3c 98 7e 4a be
       0.29044834 -0.095612876 0.013040512 -0.19774854
0001a0 01 48 e0 bd 72 12 1d be 26 a2 93 bd 4a b6 04 be
       -0.10951234 -0.15339068 -0.07208662 -0.12960163
0001b0 4b e3 54 be 55 89 8c be 26 49 99 bd 9c f6 07 be
       -0.2078983 -0.27448526 -0.07484655 -0.13277668
0001c0 54 8b 11 be 48 30 9a bd cb a2 9d bc e2 76 58 3e
       -0.14213306 -0.0752874 -0.019242665 0.211391
0001d0 d1 3a 7b be 06 35 03 bd 0c 4b 97 3e af 73 50 3e
       -0.24534155 -0.03203299 0.29549444 0.2035663

fc2.weight f4 [84, 120]
000000 14 cb 16 be 92 d6 9d bd 59 92 74 3b 7c 8e b1 bd
       -0.14725906 -0.07706942 0.0037318675 -0.08669755
000010 b4 ad 78 bc 6b e3 95 bd 61 9c a1 bd 5f 77 95 bd
       -0.015178133 -0.07318767 -0.07891155 -0.07298159
000020 4e 38 a2 bd 6c 59 3e bc dc ee 5d 3d 68 50 50 bd
       -0.079208955 -0.0116179995 0.054182872 -0.05085793
000030 db 6c 9b 3d 85 12 22 bd d0 55 18 3d 46 fb ab 3c
       0.07589122 -0.039568443 0.037191212 0.02099384
000040 96 d9 dd bc 94 d5 87 3d 32 4a 47 3d 55 0a cc bd
       -0.027081292 0.06632534 0.048654743 -0.09962908
000050 22 3b b8 bd 96 2a 88 3c b5 9f 48 bd 99 be 64 bd
       -0.08995654 0.016621869 -0.048980433 -0.05584583
000060 df 19 85 bc d8 24 c9 bd 64 58 ac bc 56 44 3c 3b
       -0.016247688 -0.098214805 -0.021038242 0.0028727255
000070 90 69 02 bd b4 35 76 bd ba 7f fe bd d6 4f ad bd
       -0.031838953 -0.06010981 -0.12426706 -0.08462493
000080 3e 6c 9c bd bb 53 9b 3d 30 f5 ee bd 1d 83 f1 bd
       -0.07637833 0.0758433 -0.116678596 -0.11792586
000090 6c fe 42 bc 5b f8 ba bd f2 2f 39 bd 0b 2b c4 3c
       -0.011901479 -0.09129401 -0.04521174 0.023946306
0000a0 10 ba 64 3d 1c 02 0e be dc 2e a9 bd c6 76 cf 3b
       0.055841506 -0.13867992 -0.08260891 0.0063312976
0000b0 97 c2 fb bd 6e b3 23 bd b5 7c f2 bd 98 d4 09 ba
       -0.122929744 -0.03996604 -0.11840192 -0.0005257814
0000c0 68 57 93 3d 67 51 a9 3d 32 28 0d bd 29 49 03 bd
       0.07194406 0.082674794 -0.03446216 -0.032052193
0000d0 d7 13 14 3d 66 1b 4e 3d 79 50 ef 3c 8e 64 af bd
       0.036151733 0.050319098 0.029213177 -0.08564101
0000e0 21 b4 97 bd 42 9b b0 bb c6 f6 70 bd 60 de 12 3e
       -0.07407404 -0.005389602 -0.05882909 0.14342642
0000f0 5c b3 8c bd 92 12 63 3d 03 d6 16 bd 4e 41 dc bd
       -0.068701476 0.055437632 -0.03682519 -0.107546434
000100 3b d2 4a bd c8 c8 fe bc 2e 7f 08 3d 8d 53 9b bd
       -0.049516898 -0.0311016 0.033324413 -0.075842954
000110 e0 df 82 3b 45 7e 50 3c d0 c4 84 bd 04 61 96 3c
       0.003993973 0.0127254175 -0.064828515 0.018356808
000120 6a 83 a4 bc 9e e3 4b 3d fa 47 f0 b9 d6 c0 db bd
       -0.020082194 0.04977762 -0.00045829994 -0.1073014
000130 4e ce f3 bc 49 63 00 bd 8c e8 b4 bd d3 c4 01 bd
       -0.02976146 -0.031344686 -0.08833417 -0.031681847
000140 08 4f 0a 3c aa 49 97 3c ef 3b 1a be 79 d3 62 3d
       0.008441694 0.018467743 -0.15061925 0.055377457
000150 17 e0 3d 3b 9a 65 6d bd 74 fe 19 bd 5a 65 20 3d
       0.002897268 -0.057958223 -0.03759618 0.039159156
000160 6c 7d 1b be 02 da 6d bd 82 fd 0a 3e 5c 9a e0 bc
       -0.15184563 -0.058069237 0.13573268 -0.027417354
000170 1a dc 07 be 3e 35 c8 bd 2c f9 e2 ba 92 35 0f be
       -0.13267556 -0.0977578 -0.0017316691 -0.13985279
000180 36 8c 93 bd f1 74 cb 3b de 47 c6 bd 62 20 8a bd
       -0.072044775 0.006209009 -0.09681676 -0.06744458
000190 a3 5d 11 bd 3a 91 ce bc 8c a2 6f bd 8c be 1f bd
       -0.03548969 -0.025215734 -0.058504626 -0.03900008
0001a0 50 16 b7 bd bc 23 34 3d d6 ee 41 bc 15 51 08 3e
       -0.08939803 0.04397939 -0.011836728 0.1331218
0001b0 4d c8 8b bd 82 ee d1 bd a0 92 8e 3a d6 11 eb 3c
       -0.06825314 -0.1025057 0.0010877438 0.028695028
0001c0 09 94 11 be fa 1a 30 3d 79 60 96 bd 02 37 dd bd
       -0.14216627 0.042994477 -0.073426194 -0.108015075
0001d0 8a 0b a0 bb 06 73 28 bd 55 ee 75 3d 64 05 d8 bc
       -0.004884188 -0.04112532 0.060041744 -0.026369758
0001e0 1b c8 b1 3c 7a 98 c7 bc 50 36 9d bd 12 b8 71 bd
       0.021701863 -0.024364699 -0.07676375 -0.059013434
0001f0 dd 54 61 bd a9 de 4f bd 8c b8 f7 bd cb 0b e3 bd
       -0.055012573 -0.050749455 -0.120957464 -0.11086234
000200 48 91 9f bc b6 67 44 bd 92 59 ce bd e6 5b c4 bd
       -0.019478455 -0.04795047 -0.10075678 -0.09587841
000210 cf 03 1a 3d 39 31 17 be df 77 1d bc 30 06 fa b9
       0.03760129 -0.1476487 -0.009611099 -0.00047688326
000220 be 91 21 bd 10 3a 0e bd 02 6b f1 3c 33 5a 10 3d
       -0.03944563 -0.03472334 0.02946997 0.03524227
000230 ee 48 09 3d 26 7f a7 bd c4 07 80 3d c6 11 ac bc
       0.033516817 -0.081785485 0.06251481 -0.021004569
000240 a0 fb 76 bd 23 35 6d bd 00 31 af bd 30 ce b6 bd
       -0.060298562 -0.057912003 -0.08554268 -0.08926046
000250 68 40 7a bd b0 9c 13 be c6 76 3a 3c 8b 67 2b bd
       -0.06109658 -0.1441524 0.011380857 -0.041846793
000260 c8 f1 80 bc 06 b5 d5 3c 55 30 a5 3c fb 41 c4 bd
       -0.01574029 0.026087295 0.020164648 -0.09582897
000270 0a c2 67 bb e5 bf 97 3d 1a 62 88 bb aa bc 77 bc
       -0.003536346 0.07409648 -0.0041620852 -0.015120665
000280 0d 27 c0 bd 7d d1 c1 bc a6 0f 20 3c bf 93 85 3c
       -0.09382448 -0.023659462 0.009769356 0.016305802
000290 84 6b a0 bd 7a 64 a1 bd 48 58 9e bd 06 87 70 3d
       -0.07833007 -0.078804925 -0.07731682 0.05872252
0002a0 22 b6 b7 3c d7 46 3a 3d 8b 27 3c 3d 43 0c 9c bd
       0.022425715 0.045477714 0.04593615 -0.07619526
0002b0 26 db aa 3c 0f 84 ba 3c 93 c9 69 bd 7d cc c5 3c
       0.020856451 0.022768049 -0.057077 0.02414536
0002c0 ce 29 da bd ea 8e 87 3d 26 31 06 bc 57 de 32 be
       -0.10652505 0.066190556 -0.008190429 -0.17467628
0002d0 ca 5c 00 be d6 8b 33 bd 62 8f 0b be 0a 56 0e bd
       -0.12535396 -0.04383453 -0.13628915 -0.034750022
0002e0 c0 28 90 bd 71 f2 41 3d d0 88 9e bd dc d2 90 bd
       -0.070390224 0.04735035 -0.07740939 -0.07071468
0002f0 f4 20 e7 bd 96 db bc bb 3c 8e 1b bd ee 8f a9 3c
       -0.11285582 -0.0057634814 -0.037977442 0.020698514
000300 e2 2c 69 bd 6d 5e f6 bb da 8b f0 bc 68 fb 85 bb
       -0.05692757 -0.0075185806 -0.029363561 -0.004088808
000310 df 32 61 bd 13 94 4d 3d 4d 81 e9 3c da 02 fd bd
       -0.054980155 0.050190043 0.028504038 -0.123540595
000320 54 72 01 3c d1 c0 1f bd 8d 2e fa bd 1c 74 3c bd
       0.007900793 -0.039002243 -0.1221591 -0.046009168
000330 6a 04 0f bd 3c 4e 00 3d a7 2b e5 3b 58 0c 1b 3d
       -0.03491632 0.03132461 0.006993729 0.03785357
000340 d1 d1 c8 bd ca 40 81 bc ca 09 87 bc 3a 66 b0 bd
       -0.09805644 -0.015777964 -0.01648416 -0.08613248
000350 bc 0b fd bc dc ef 1f be c2 b6 ad bd 28 f0 ae bd
       -0.030889384 -0.15618843 -0.08482124 -0.085419
000360 80 d4 94 bd cd 30 c3 bd 37 3a 8f bd d3 fd 09 bd
       -0.07267094 -0.095307924 -0.069935255 -0.03368933
000370 c4 55 ab bd af da 9c bc 92 60 dd bd ef b9 f5 3c
       -0.08365968 -0.019147245 -0.10809435 0.029995887
000380 ea 02 c5 bd db 2f da 3c e0 6d 08 bd 88 fb 2d bd
       -0.096196964 0.026634147 -0.03330791 -0.042476207
000390 82 87 bc bc 4f 75 06 be 08 d2 35 bd 26 03 0e bd
       -0.023013834 -0.13130687 -0.044389755 -0.03467097
0003a0 7b ea 8d 3d 66 be 59 bb 56 7f 15 be 46 6b 55 bd
       0.06929489 -0.0033225059 -0.14599356 -0.052104257
0003b0 48 33 40 3d ca 1b 18 bc e0 83 40 3c 28 bf 97 bd
       0.046923906 -0.009283969 0.011750191 -0.07409507
0003c0 67 5c 73 3d 44 50 7b 3d 87 51 78 bd 09 21 55 bc
       0.059414294 0.061355844 -0.060624626 -0.0130083645
0003d0 1a bf 5a bd 06 38 e8 3c 71 8d 9d bd f4 0a 0e 3c
       -0.053404905 0.028347027 -0.076929934 0.008669604
0003e0 28 42 95 3c e3 ab d6 bd 06 f3 5b bd 70 a7 91 3a
       0.018220022 -0.104820035 -0.053698562 0.0011112522
0003f0 b3 14 a7 bd dd 2b 0f bd 80 5f 47 ba f8 77 66 bd
       -0.08158245 -0.03495394 -0.0007605478 -0.056266755

fc2.bias f4 [84]
000000 37 e4 24 be 93 53 2f bd 25 0b d3 bc 85 4a 22 be
       -0.16102682 -0.042804312 -0.02576215 -0.1584874
000010 d9 9e c8 bd 70 92 fa bd 40 17 25 be 95 eb bd 3d
       -0.09795923 -0.12234962 -0.1612215 0.09273449
000020 6c 3e 29 be 5e fa c9 bb 62 6f 81 bc a8 20 00 3e
       -0.16527718 -0.0061638793 -0.015800182 0.12512457
000030 04 bd 16 be 71 4a 49 3d 99 18 05 bd 42 f6 9b bd
       -0.14720541 0.04914326 -0.03249416 -0.07615329
000040 86 91 33 3d 1e 77 0a be fd 3e 83 bc a4 8a 0f be
       0.043839954 -0.13522002 -0.016021246 -0.14017731
000050 29 a7 fd 3c a0 e6 b3 bd 94 4b 17 be e4 82 f5 bd
       0.030963497 -0.087842226 -0.14774925 -0.11987856
000060 3b 98 7a 3e 5c 68 f4 bd be 44 80 bd ff c6 86 3e
       0.24472134 -0.119339675 -0.062631115 0.26323697
000070 9b 5f d8 bd 30 de fc 3d 71 16 b9 bd ce e7 5d bd
       -0.1056511 0.123470664 -0.090374835 -0.054176144
000080 00 67 ad bd ee 4c 9c bd 16 64 a6 3e 84 95 3b be
       -0.08466911 -0.07631861 0.32498235 -0.18318754
000090 45 44 44 be 92 38 3f be 66 45 f7 3d 04 24 f5 bd
       -0.19166668 -0.18673924 0.120737836 -0.1196976
0000a0 f8 b3 06 be 00 ed e8 bd dc 4f d1 bd 5c 70 35 3d
       -0.1315459 -0.11373329 -0.1022031 0.044296607
0000b0 5a bf 8f bd 7c 15 fd bd 15 df 16 3f 2e 78 2c bd
       -0.07018919 -0.123576134 0.58934146 -0.0421068
0000c0 33 fa 83 bd f0 7d c6 bc d7 d9 44 be b0 1f 29 be
       -0.06444206 -0.024229974 -0.19223724 -0.16515994
0000d0 b6 36 17 be 35 a0 12 be 8d 7d e8 bd 4f b6 f6 3e
       -0.14766964 -0.14318927 -0.11352072 0.48185965
0000e0 a8 a8 1f be ef ca 75 bd dc d1 3d 3e 76 bf 44 3d
       -0.15591681 -0.060007986 0.18537086 0.048034154
0000f0 a0 22 f6 bc 02 ec 13 bb 42 c9 08 be a5 46 c4 3e
       -0.030045807 -0.0022571092 -0.13358024 0.38335148
000100 23 e9 80 bd c3 2d 3c bd d6 56 8d 3d d4 cb d6 bd
       -0.06294467 -0.04594208 0.06901328 -0.10488096
000110 2e ae 45 3e 31 5d eb bc cc 50 23 be c7 3d 19 3d
       0.19304726 -0.02873096 -0.1594879 0.03741243
000120 9d 41 92 bd 42 55 2b be 0e 99 2f be b7 43 f7 bd
       -0.07141421 -0.16731742 -0.1714823 -0.120734625
000130 44 52 67 be 3e ad 90 3d e7 2a ff 3e e2 a0 1a 3e
       -0.22589976 0.07064293 0.4983742 0.15100434
000140 3c 3a ae bd f1 0b 73 3c b0 76 ea bd 0c 5d ee bb
       -0.08507201 0.01483439 -0.11448419 -0.0072742756

fc3.weight f4 [10, 84]
000000 cf 50 0e bd f6 3b 37 bd a0 a7 a4 3d 8a ba a6 bd
       -0.034745034 -0.044734918 0.080397844 -0.08141048
000010 78 c0 14 bd e8 34 eb bd 08 3d 46 bd d7 6e 84 be
       -0.036316365 -0.114847004 -0.048398048 -0.25865814
000020 9e 2b 28 bd 25 49 fe 3d 6f ae 30 be a2 b4 a8 be
       -0.04105722 0.12416295 -0.17254041 -0.32950312
000030 09 e1 e6 3c 6c 64 a3 be 28 0b 9f 3d 44 54 35 3d
       0.028183477 -0.31912553 0.077658 0.044269815
000040 13 17 42 be fb d9 10 bd 86 ec bb 3d 52 85 8a bd
       -0.18954115 -0.035364132 0.09175973 -0.0676371
000050 c9 08 b3 bd da 33 9b bd f3 be d2 bd d4 09 f2 bd
       -0.0874191 -0.07578249 -0.10290327 -0.11818281
000060 3a 18 8a be 54 c5 c3 bd bf 0f df 3c 3a e7 64 be
       -0.26971608 -0.09559122 0.027229188 -0.22353831
000070 2e bf 3f 3d 04 f4 8a be ee 1d 46 bd a8 0a 15 be
       0.046813183 -0.27139294 -0.048368387 -0.14554846
000080 2e 0a e2 bd 6c 97 27 be 66 c5 d1 be 81 11 99 bd
       -0.11037098 -0.16366357 -0.40970916 -0.07474042
000090 64 95 21 be b7 ed 8f bd 6e 17 3c be a9 d4 6f 3d
       -0.15779644 -0.070277624 -0.18368313 0.058552418
0000a0 2b f7 2a 3d 61 4f cf bd f4 e2 98 bc ee c3 b6 bb
       0.041739624 -0.10122562 -0.018662907 -0.005577556
0000b0 a0 b8 05 bd 66 7f 9c bd 85 71 b5 be 56 a8 50 3c
       -0.032646775 -0.07641487 -0.3543817 0.012735447
0000c0 6e 3b 34 3d 9c 67 9b bc 25 b2 37 be 62 03 ac bc
       0.04400199 -0.018970303 -0.1793905 -0.020997707
0000d0 a9 95 54 3c 06 d7 40 be 1e a7 99 bd 0a 70 90 be
       0.012975135 -0.18832025 -0.07502578 -0.2821048
0000e0 60 18 2d be 7b 75 e9 bc 2a dc 60 be 6a 21 73 be
       -0.1690383 -0.028498402 -0.21958986 -0.23743215
0000f0 d3 e4 1f be 7b b8 6d 3d af 70 5c 3e a6 85 a4 be
       -0.15614633 0.058037262 0.2152736 -0.32133216
000100 42 7d f2 bd 7e 6a 6d bd 51 d2 85 be c4 2f bd bd
       -0.11840297 -0.057962887 -0.2613702 -0.09237626
000110 99 d8 a5 be d0 19 ea 3a 0a 94 93 bd 1a 37 b0 be
       -0.32391813 0.0017860476 -0.072059706 -0.3441704
000120 a5 92 f1 bd 60 fc b6 bd e7 cf 6e 3d af bf 24 be
       -0.11795548 -0.089348555 0.05830374 -0.16088746
000130 9a 50 35 3d a6 9d 6f be 3b 85 bf be d4 54 1a be
       0.04426632 -0.23399982 -0.37406334 -0.15071422
000140 c3 23 8c bd d4 6d 02 bd 00 61 f5 b9 e2 56 50 bc
       -0.068427585 -0.03184302 -0.00046802312 -0.012716027
000150 74 de 81 bd 45 52 a4 3c 09 88 3b bd 2c b3 7a bd
       -0.06341258 0.02005876 -0.04578403 -0.061206028
000160 36 9a 85 bd 94 5c 20 be 98 f6 bd bb dd 3d b2 bd
       -0.06523554 -0.15660316 -0.0057972185 -0.08703206
000170 2b 9d eb bd 65 c6 97 3d 9c f3 44 be 9e 28 52 be
       -0.11504587 0.07410888 -0.19233555 -0.20523307
000180 d3 3b 09 bc 10 7e 73 be 02 78 f7 3b 3e f9 02 3e
       -0.00837608 -0.23778558 0.007552148 0.12790391
000190 a8 d8 a3 be 87 dc c8 bd ae ea 4a bc 55 c1 d6 3c
       -0.32001233 -0.09807687 -0.012385054 0.026215235
0001a0 18 6d 3b be 0e 27 52 be a7 eb a0 bd 7c 9f a6 bc
       -0.18303335 -0.2052271 -0.07857447 -0.02033972
0001b0 1b 1b a6 be 18 cd 13 be 07 61 a3 bd 89 83 94 be
       -0.32442555 -0.14433706 -0.07977491 -0.29006603
0001c0 7c 34 a1 3b fb bc 67 be 31 1d c9 3c f3 70 13 be
       0.0049195867 -0.22630684 0.024550052 -0.14398555
0001d0 9f 00 cb bc 73 77 36 be aa 60 e0 be 31 37 57 be
       -0.02478057 -0.17819004 -0.4382375 -0.21017148
0001e0 30 e8 97 be 0e 3b 86 bd 2d 53 59 be 75 2c 0f 3d
       -0.29669333 -0.065542325 -0.21223135 0.034954507
0001f0 43 80 b1 bd 38 53 6c bd dc 9d 83 be 0f 57 e0 bd
       -0.08667042 -0.05769655 -0.25706375 -0.10954105
000200 22 40 b5 bd 3e a1 7b bd 29 38 b8 be 3f b6 f9 bd
       -0.08850123 -0.06143307 -0.35980347 -0.12192964
000210 80 50 99 39 00 98 04 3a fb cc 7a be e6 11 e3 bd
       0.0002924241 0.000505805 -0.24492256 -0.11087398
000220 90 c0 4c 3c fe 6f 47 bd d7 04 4f 3d 02 5d e0 be
       0.012497082 -0.04869079 0.050541725 -0.4382096
000230 d1 39 a5 bd c0 c8 8c 3a de 90 a3 be 66 12 73 be
       -0.08067668 0.001074098 -0.31946462 -0.23737487
000240 8a 87 3a be 8e 9a 3d bd 41 3d 22 3e 4d 3e a5 be
       -0.18215767 -0.046289973 0.15843679 -0.32274094
000250 15 67 29 be 50 82 5c ba c0 02 25 be ba d4 b6 bd
       -0.16543229 -0.0008411752 -0.1611433 -0.08927293
000260 f0 9b 90 be 4c 60 80 bd c5 4b 65 bd 8a 77 a4 be
       -0.2824397 -0.06268367 -0.055980463 -0.3212245
000270 00 73 3c bd 73 f3 8c bc 50 c1 36 bb 76 bf b7 be
       -0.04600811 -0.01720593 -0.002788622 -0.3588826
000280 28 53 3b 3e ee d6 45 be 8c 13 b1 be 95 42 95 3d
       0.1829344 -0.1932027 -0.34585226 0.0728809
000290 b0 3f 39 be 46 ff 2e be 02 4a 5b bc 8b 72 82 bd
       -0.18090701 -0.17089567 -0.013384344 -0.063695036
0002a0 2d ab b4 3c 39 f7 46 bd 58 69 39 bd 8c c7 cd bc
       0.02205428 -0.048575614 -0.04526648 -0.025119565
0002b0 4c 29 49 be ee 16 f5 bd 45 3f b4 bd fb d6 06 be
       -0.1964466 -0.11967264 -0.0880113 -0.13167946
0002c0 fa 83 3d 3b 2d c7 44 be 90 84 05 be e0 c3 9a ba
       0.0028917775 -0.19216605 -0.1303885 -0.0011807643
0002d0 58 c0 23 bd 83 c8 46 be c6 b3 44 bd ba 03 9d 3d
       -0.039978355 -0.19412427 -0.048023008 0.076667264
0002e0 9a 18 9b be 8d 61 b7 bd bd 4a b6 bc 72 e4 cb bd
       -0.30292207 -0.08954153 -0.022252435 -0.09955682
0002f0 96 86 20 be e5 67 c1 bd 70 c1 66 be bf c6 b5 bd
       -0.1567634 -0.094436444 -0.22534728 -0.088757984
000300 b3 8b 9d 3d 0f a8 10 3c 44 3c c0 bd c9 d8 1e 3d
       0.07692661 0.008829131 -0.09386495 0.03878096
000310 98 c8 78 bd b8 d3 24 3d 4a 71 10 be c2 56 4d bd
       -0.060738176 0.040240973 -0.14105716 -0.050131567
000320 8d 86 c9 bd 52 23 84 bd ea f4 5e 3d 3b 72 de bd
       -0.09840117 -0.06452049 0.054432787 -0.108616315
000330 48 5e 3d bd 48 9c 66 be 61 33 8f be a8 92 14 be
       -0.04623249 -0.22520554 -0.27968886 -0.1450907
000340 3a eb aa bd bc 1a 6d 3d 0e 7e d9 bd ba a4 42 be
       -0.08345647 0.057886824 -0.10619746 -0.1900815
000350 98 95 da bd 20 47 cb bd 23 63 1d 3e ec f1 c6 bd
       -0.10673064 -0.099256754 0.15369849 -0.09714112
000360 37 43 b4 bd e9 fa 1a 3c ab 16 21 be 44 44 c8 bb
       -0.08801883 0.009459236 -0.15731303 -0.0061116535
000370 b6 f3 f6 3c a3 49 6a be 3c 38 36 bd 99 1d c2 bc
       0.030145507 -0.22879653 -0.044487223 -0.023695754
000380 af a3 0d be ce c9 4d be 07 cc 6b 3d 47 7e 4d bd
       -0.13831972 -0.20096514 0.057567623 -0.050169256
000390 c6 48 85 bd 5b 2d 08 3b 31 13 2e be bc ed de 3d
       -0.06508021 0.0020778987 -0.16999508 0.10885188
0003a0 fa f2 08 be c6 de b4 bd 91 16 02 3d 18 64 9f be
       -0.13373938 -0.08831553 0.031759802 -0.31131053
0003b0 ca 2e d5 3d ef d4 80 bc 00 9b d2 3c 32 75 e4 bc
       0.10409315 -0.015726535 0.025708675 -0.027887914
0003c0 da 4f 83 be b0 ea 16 bd ae ff 61 bd 97 e3 a6 bd
       -0.2564686 -0.03684491 -0.055175476 -0.08148878
0003d0 ba ea fc bd 0c c9 ca 3d 9f 00 66 3e 7e c9 04 be
       -0.12349458 0.09901628 0.22461174 -0.12967488
0003e0 ce 13 52 bd db 08 4c bb 03 a8 95 3c 06 a3 ab bd
       -0.05128842 -0.0031133208 0.01826859 -0.08380704
0003f0 3a b5 76 3c 6b 5d 91 bd 91 fb d9 3b 25 c5 de bd
       0.015057856 -0.07097896 0.0066523035 -0.10877446

fc3.bias f4 [10]
000000 c6 98 59 be 85 f9 92 be c0 89 36 3d 02 98 2f 3e
       -0.21249685 -0.28705993 0.044564962 0.1714783
000010 33 85 50 bd 99 f7 38 3e bc 27 10 bd 0a fc 43 3e
       -0.05090828 0.18063201 -0.035194144 0.19139114
000020 be db a1 be f8 b8 b0 3b
       -0.31612962 0.0053931437
