final_model.pt (torch, 251845 bytes, 10 tensors)

conv1.weight f4 [6, 3, 5, 5]
0.06317288 0.034358997 0.060864113 -0.035097353 0.062385455 -0.11410974 0.010765366 -0.1005728
-0.016583271 -0.09288552 -0.26669037 -0.17914969 -0.26952475 -0.11683175 -0.19440824 -0.107435815
-0.16368036 -0.18276915 -0.25157362 -0.1733873 -0.055834457 -0.030369172 0.0048014303 -0.15609816
-0.060994536 0.09821529 0.13521084 -0.027521634 0.14894103 0.12528117 0.12946618 0.071021006
-0.049860176 0.008906057 -0.034297645 -0.11597996 -0.015797906 -0.052807324 -0.12282103 -0.03608885
-0.041078225 -0.06941348 -0.001561549 0.07571429 0.011305148 0.044192225 -0.06867466 0.060164485
-0.09220141 0.028426327 0.27559894 0.31392965 0.3221525 0.2409585 0.2847255 0.21273884
0.16729641 0.17928654 0.23958409 0.18952364 0.15426795 -0.030518267 0.022661744 -0.0042545814
0.17413852 0.09161671 0.19659698 0.1751951 0.23527 0.16273579 0.23831755 0.26644176
0.11613671 0.3303132 0.18786535 0.0491486 0.10497091 0.18567155 0.018929161 0.17488955
0.24519 0.22836782 0.35112286 0.26040515 0.3307793 0.1719502 0.014175057 0.15718782
0.20843962 0.19368747 -0.23837094 -0.20576474 -0.09765697 -0.09392904 -0.06579187 -0.17167526
-0.31695816 -0.108284034 -0.2517307 -0.19661735 0.033975538 -0.17985973 -0.22037059 -0.13363428
-0.11799962 -0.075107604 0.08630266 0.0190476 -0.0032182564 0.037902392 0.0011955325 -0.032882266
0.05495927 -0.07997134 -0.019869583 -0.14807153 -0.20788048 -0.22580168 -0.29868758 -0.20184873
-0.20523995 -0.07262882 -0.120383196 -0.071697935 -0.22976862 -0.032338236 -0.06197643 -0.09401457
-0.06693035 -0.056102276 0.054479036 0.01593437 0.0625087 0.076232195 -0.046189196 0.16703478
0.13727176 -0.02915583 0.009963271 0.032879245 0.026767274 0.17620069 0.08895597 0.10308804
0.027967224 0.129919 0.14648007 -0.015056869 0.08110672 0.105634995 -0.12009277 -0.01808367
-0.23353833 -0.17432946 -0.17596418 -0.18858473 -0.20746331 -0.15741554 -0.17817974 -0.13775659
0.07560563 -0.059603214 0.11085026 0.05807939 -0.037585296 -0.035843227 -0.09660361 0.13181016
-0.013753035 0.04143899 -0.1500798 -0.09414445 -0.13083735 -0.033959057 -0.046754695 -0.002481199
0.036267705 0.038339257 -0.12220114 -0.13976601 0.06764308 -0.05553526 -0.09054959 -0.13359004
-0.11667602 0.16443326 0.14259839 0.022228343 0.12210712 0.09561245 0.090599865 -0.022990158
0.0030622473 -0.029649142 0.17423882 -0.035180613 -0.20923984 -0.15325147 -0.16031371 -0.08396815
0.099121556 0.07642604 0.24013755 0.18120214 0.12637135 0.07708055 0.06160082 0.19160159
0.117438704 0.254892 0.22539374 0.17598785 0.34752882 0.20257854 0.29386795 0.11707504
0.25570238 0.16691226 0.10839998 0.1973879 -0.032558013 0.041635785 0.08004352 -0.0005380283
0.02397061 -0.13689862 0.031180015 0.11711039 -0.0704442 -0.031827293 -0.18805148 0.035114758
0.041675467 0.05394192 -0.13388139 -0.015682273 -0.10433332 0.04015467 0.06321779 -0.08497199
-0.049761932 0.027952164 -0.047899846 -0.019185506 0.026534794 -0.15323341 -0.090418786 0.060525157
0.082770765 -0.080230996 -0.121325806 0.07147816 -0.032580007 0.04281518 0.019641988 -0.18541071
00000000: c860 813d 05bc 0c3d a64c 793d 3ec2 0fbd
00000010: e487 7f3d 5eb2 e9bd 3861 303c 1df9 cdbd
00000020: a4d9 87bc c33a bebd a48b 88be 0473 37be
00000030: 26ff 89be 7c45 efbd f412 47be 4f07 dcbd
00000040: d39b 27be d627 3bbe 42ce 80be 718c 31be
00000050: acb2 64bd c5c8 f8bc 5155 9d3b 32d8 1fbe
00000060: 68d5 79bd 1925 c93d b674 0a3e 0d75 e1bc
00000070: ff83 183e b549 003e c892 043e 7673 913d
00000080: 2f3a 4cbd b6ea 113c b07b 0cbd e786 edbd
00000090: 9c6a 81bc 7e4c 58bd 9889 fbbd e7d1 13bd
000000a0: a441 28bd a828 8ebd e4ac ccba 1810 9b3d
000000b0: 3a39 393c e802 353d 4da5 8cbd 096f 763d
000000c0: 18d4 bcbd 54de e83c 4e1b 8d3e 63bb a03e
000000d0: 2cf1 a43e d3bd 763e 8ac7 913e 36d8 593e
000000e0: c04f 2b3e e496 373e 8855 753e 7c12 423e
000000f0: 6bf8 1d3e 7201 fabc 1fa5 b93c 046a 8bbb
00000100: 5e51 323e 8ba1 bb3d b850 493e 5866 333e
00000110: 9eea 703e 36a4 263e 8409 743e 0e6b 883e
00000120: 15d9 ed3d d01e a93e c65f 403e 0b50 493d
00000130: fdfa d63d af20 3e3e 5411 9b3c 3f16 333e
00000140: 1613 7b3e 41d9 693e 60c6 b33e d353 853e
00000150: e85b a93e b713 303e 803e 683c d8f5 203e
00000160: 3271 553e 0256 463e 8317 74be feb3 52be
00000170: 6100 c8bd de5d c0bd e3bd 86bd a4cb 2fbe
00000180: 5748 a2be 05c4 ddbd d9e2 80be 0f56 49be
00000190: ef29 0b3d 262d 38be d4a8 61be 6dd7 08be
000001a0: c9a9 f1bd 04d2 99bd 73bf b03d b609 9c3c
000001b0: 62e9 52bb 8a3f 1b3d 6ab3 9c3a 8eaf 06bd
000001c0: f91c 613d 04c8 a3bd 89c5 a2bc 10a0 17be
000001d0: 9fde 54be 8e38 67be 94ed 98be 6fb1 4ebe
000001e0: 6c2a 52be 6bbe 94bd 778b f6bd 5ed6 92bd
000001f0: 7748 6bbe 1975 04bd ffda 7dbd b68a c0bd
00000200: c812 89bd 80cb 65bd 6925 5f3d cc88 823c
00000210: 9004 803d a01f 9c3d e230 3dbd 2a0b 2b3e
00000220: f890 0c3e 35d8 eebc fd3c 233c 63ac 063d
00000230: 0b47 db3c f46d 343e 8c2e b63d d31f d33d
00000240: 851b e53c 7d09 053e dffe 153e 16b1 76bc
00000250: 481b a63d 2957 d83d 33f3 f5bd 3424 94bc
00000260: ac24 6fbe 6c83 32be f42f 34be 5b1c 41be
00000270: 4371 54be 8a31 21be c074 36be 1010 0dbe
00000280: 20d7 9a3d 8022 74bd 7605 e33d a8e4 6d3d
00000290: 0af3 19bd 59d0 12bd 1dd8 c5bd 3ef9 063e
000002a0: 6954 61bc eebb 293d 85ae 19be cece c0bd
000002b0: 3afa 05be a718 0bbd da81 3fbd 9d9b 22bb
000002c0: 728d 143d a009 1d3d 9744 fabd d21e 0fbe
000002d0: 7588 8a3d f178 63bd 1072 b9bd d4cb 08be
000002e0: d6f3 eebd 3161 283e 5005 123e 3718 b63c
000002f0: 4c13 fa3d 76d0 c33d 6c8c b93d db55 bcbc
00000300: fcaf 483b c2e2 f2bc a96b 323e 8c19 10bd
00000310: f842 56be f4ed 1cbe 4729 24be 7ef7 abbd
00000320: 3e00 cb3d 4185 9c3d 9ee6 753e 0e8d 393e
00000330: 7e67 013e 68dc 9d3d 2451 7c3d 3533 443e
00000340: b483 f03d 3481 823e 9ecd 663e 2936 343e
00000350: 4cef b13e c070 4f3e dc75 963e 0ac5 ef3d
00000360: 6ceb 823e 0ceb 2a3e cf00 de3d 0e20 4a3e
00000370: 8d5b 05bd 498a 2a3d dbed a33d 780a 0dba
00000380: 035e c43c 272f 0cbe 3b6d ff3c 92d7 ef3d
00000390: 0c45 90bd 565d 02bd 9190 40be 7ed4 0f3d
000003a0: e5b3 2a3d 34f2 5c3d 3418 09be 1c78 80bc
000003b0: b5ac d5bd 3979 243d 5478 813d cb05 aebd
000003c0: 2bd3 4bbd f0fb e43c a132 44bd ec2a 9dbc
000003d0: 7f5f d93c 38e9 1cbe 7c2d b9bd 3ae9 773d
000003e0: b883 a93d 2650 a4bd aa79 f8bd 2463 923d
000003f0: 9d72 05bd f85e 2f3d 3ce8 a03c 4edc 3dbe

conv1.bias f4 [6]
-0.26809555 -0.6360667 -0.37278146 -0.11896621 -0.58285016 -0.22918215
00000000: d243 89be 44d5 22bf 36dd bebe 8ea4 f3bd
00000010: ab35 15bf baae 6abe

conv2.weight f4 [16, 6, 5, 5]
-0.054749656 -0.08248967 -0.04447592 -0.0826723 -0.10604496 0.0025014393 0.0010767132 -0.12780564
-0.034940217 0.030092288 -0.18875894 -0.015228565 0.010725533 -0.07080464 -0.13266042 -0.08770408
-0.055187263 0.00145692 -0.027266882 0.06429191 0.003518805 -0.15653977 -0.1349138 0.015568387
-0.13894412 0.031658053 0.019220546 -0.0016868189 -0.16049533 -0.21629341 0.044262998 -0.11599896
-0.27726775 -0.0922133 -0.17792103 -0.1736194 -0.11805193 -0.093189865 -0.07352838 -0.006274469
-0.13495779 -0.17938143 -0.29025388 -0.14184979 0.07084237 -0.26745218 -0.39279932 -0.32654274
-0.18443185 -0.06506519 -0.06584838 0.049133155 -0.21507221 -0.07230934 -0.14450458 0.02206099
0.11673531 -0.1383535 -0.12097688 -0.020859573 0.0030829683 -0.051537246 -0.08325179 -0.24246524
-0.035662923 0.00069581065 -0.2053029 -0.17527162 -0.20757943 -0.18998343 -0.07930373 -0.09071149
-0.0016027614 -0.19850242 -0.14137317 -0.1159891 -0.081447646 -0.18558885 0.101754844 -0.06581223
-0.19321175 -0.14060014 -0.19170724 0.0024076663 -0.046862673 -0.1395457 -0.20536175 -0.040940244
-0.15550594 -0.044566836 -0.2801436 -0.10604422 -0.10122322 -0.18420483 -0.034673635 -0.14329079
-0.1626222 -0.117848836 -0.115633555 -0.2366755 -0.037367515 -0.056629185 -0.046698317 -0.0077547855
-0.10454926 -0.018994559 0.027409336 0.08810235 -0.1316478 -0.19668105 -0.059473984 -0.106780484
-0.121621355 -0.09250595 -0.061105423 -0.18079048 -0.1925406 -0.14990875 -0.071733244 0.110075906
-0.0716906 -0.06715393 -0.10751091 -0.032589756 0.19194569 -0.05245343 -0.11892646 -0.059128225
-0.259014 -0.1440124 0.044450253 -0.20947346 -0.11758394 -0.06775576 0.018471891 -0.07476011
-0.026667528 -0.13162258 -0.017842403 -0.06459611 -0.22615564 -0.20429137 -0.050884873 -0.24381311
-0.18352894 -0.120177925 -0.10903655 -0.07976346 -0.21762279 -0.11641766 -0.03960365 -0.17159472
-0.035611473 -0.11654454 -0.13560699 -0.027016558 -0.088180274 -0.09231984 -0.15476651 -0.22878946
0.04136834 -0.099080615 -0.13934088 -0.12650931 -0.1865604 -0.0838036 -0.12158093 -0.06336598
-0.18235004 -0.11919532 -0.0057475353 0.0011066161 -0.07628892 -0.2213715 -0.09569095 -0.03285477
-0.014475146 -0.22089723 -0.1736299 -0.16751352 -0.24205938 -0.21742094 -0.19783685 -0.057508193
-0.13495965 -0.08970823 -0.23176248 -0.15866567 -0.16821094 -0.065447815 -0.19010516 -0.20386404
-0.256834 -0.11437285 -0.2600285 -0.20506409 -0.24478403 -0.11522404 -0.14136809 -0.19689496
-0.19432454 -0.09584941 -0.21307756 -0.22758989 -0.15695676 -0.13254121 -0.19212966 -0.043724846
-0.17401952 -0.049352534 0.060511805 -0.12716964 -0.10845352 -0.08856272 -0.20169783 -0.28351253
-0.2331405 -0.17360638 -0.07620639 -0.19789967 -0.24242017 -0.1903169 -0.18256763 -0.07378167
-0.22818924 -0.17782211 0.0066738348 -0.037056334 -0.14509356 0.10980873 -0.08407612 -0.14198801
0.12922986 0.06918411 -0.15210032 -0.09573668 -0.21438414 -0.14395146 0.029574702 -0.05557265
-0.23451681 -0.034584764 -0.12590468 0.06419659 -0.04844042 -0.19141436 -0.22983444 -0.03205728
-0.2272949 -0.21631181 -0.12684245 0.03516093 0.08897743 -0.09668978 -0.26557463 -0.1156659
00000000: 2d41 60bd 58f0 a8bd 622c 36bd 1850 a9bd
00000010: 1a2e d9bd 30ef 233b 8020 8d3a 7bdf 02be
00000020: 791d 0fbd 1a84 f63c 064a 41be 3b81 79bc
00000030: 25ba 2f3c 0602 91bd 22d8 07be 329e b3bd
00000040: 0a0c 62bd 20f6 be3a cc5e dfbc 7aab 833d
00000050: c09b 663b f64b 20be d826 0abe 8c12 7f3c
00000060: 5e47 0ebe e0ab 013d 6874 9d3c 4018 ddba
00000070: e358 24be 057c 5dbe 1e4d 353d dd90 edbd
00000080: 0af6 8dbe 54da bcbd ee30 36be 49c9 31be
00000090: 36c5 f1bd 54da bebd 0c96 96bd 109a cdbb
000000a0: 6032 0abe c4af 37be 289c 94be 1241 11be
000000b0: ce15 913d 7eef 88be fe1c c9be 9c30 a7be
000000c0: b4db 3cbe e640 85bd 84db 86bd d93f 493d
000000d0: e43b 5cbe eb16 94bd 02f9 13be 40b9 b43c
000000e0: ec12 ef3d 8aac 0dbe bac2 f7bd b2e1 aabc
000000f0: a00b 4a3b b818 53bd ea7f aabd cf48 78be
00000100: 4913 12bd 1067 363a ec3a 52be 677a 33be
00000110: b48f 54be 048b 42be fe69 a2bd f2c6 b9bd
00000120: c013 d2ba 3844 4bbe 21c4 10be b18b edbd
00000130: 06ce a6bd 010b 3ebe d864 d03d 90c8 86bd
00000140: 4dd9 45be 7cf9 0fbe e74e 44be f0c9 1d3b
00000150: 13f3 3fbd 11e5 0ebe 5a4a 52be f5b0 27bd
00000160: f33c 1fbe b78b 36bd fb6e 8fbe b62d d9bd
00000170: 1f4e cfbd 31a0 3cbe f105 0ebd d2ba 12be
00000180: 6f86 26be bb5a f1bd 49d1 ecbd 105b 72be
00000190: ae0e 19bd 01f4 67bd bc46 3fbd db1b febb
000001a0: ec1d d6bd 7a9a 9bbc 8b89 e03c 016f b43d
000001b0: aece 06be c266 49be fe9a 73bd baaf dabd
000001c0: 9e14 f9bd c273 bdbd ae49 7abd 2421 39be
000001d0: 5d29 45be ae81 19be e1e8 92bd 7a6f e13d
000001e0: 85d2 92bd 0088 89bd ae2e dcbd d67c 05bd
000001f0: 698d 443e 68d9 56bd b78f f3bd 7030 72bd
00000200: 7c9d 84be fd77 13be 7811 363d 3680 56be
00000210: d9cf f0bd 88c3 8abd 5d52 973c d41b 99bd
00000220: dc75 dabc 12c8 06be 3b2a 92bc f74a 84bd
00000230: 5895 67be c231 51be a86c 50bd 25aa 79be
00000240: 03ef 3bbe d81f f6bd 8e4e dfbd 065b a3bd
00000250: 82d8 5ebe 626c eebd 7037 22bd 87b6 2fbe
00000260: 56dd 11bd e7ae eebd 8fdc 0abe d451 ddbc
00000270: dc97 b4bd 2f12 bdbd 1d7b 1ebe c947 6abe
00000280: d971 293d c7ea cabd 60af 0ebe a88b 01be
00000290: b109 3fbe 39a1 abbd 6cff f8bd 06c6 81bd
000002a0: f8b9 3abe ad1c f4bd d255 bcbb e00b 913a
000002b0: 5e3d 9cbd 36af 62be 9ef9 c3bd b992 06bd
000002c0: 2a29 6dbc e232 62be 09cc 31be aa88 2bbe
000002d0: 6ade 77be 98a3 5ebe be95 4abe b68d 6bbd
000002e0: dd32 0abe f3b8 b7bd 2553 6dbe 4179 22be
000002f0: 7d3f 2cbe 8109 86bd edaa 42be bcc1 50be
00000300: bf7f 83be 503c eabd 7522 85be 52fc 51be
00000310: aaa8 7abe 95fa ebbd ccc2 10be d59e 49be
00000320: 03fd 46be b24c c4bd 0131 5abe 530d 69be
00000330: 46b9 20be e2b8 07be a3bd 44be d318 33bd
00000340: 2c32 32be e225 4abd 3adb 773d c238 02be
00000350: e11c debd 5f60 b5bd e089 4ebe 8e28 91be
00000360: 62bc 6ebe dfc5 31be 1912 9cbd 36a6 4abe
00000370: fe3c 78be 6fe2 42be 02f3 3abe d81a 97bd
00000380: 71aa 69be 0017 36be 2fb0 da3b 62c8 17bd
00000390: 6893 14be 66e3 e03d 1a30 acbd 4e65 11be
000003a0: d554 043e 66b0 8d3d 30c0 1bbe 9811 c4bd
000003b0: 8487 5bbe 0368 13be a546 f23c 26a0 63bd
000003c0: 2d25 70be c1a8 0dbd 28ed 00be 8079 833d
000003d0: 7669 46bd 2002 44be b859 6bbe 7f4e 03bd
000003e0: ffbf 68be d880 5dbe fde2 01be e804 103d
000003f0: cc39 b63d 4b05 c6bd 66f9 87be 3ee2 ecbd

conv2.bias f4 [16]
0.11075004 0.11431962 0.42106652 0.29177922 -0.09484259 -0.15727377 -0.07484034 0.28309733
0.28238696 -0.098707646 -0.13728933 -0.08849493 -0.1330036 0.2014871 -0.12676746 -0.075703554
00000000: ebd0 e23d 6820 ea3d 0896 d73e 1664 953e
00000010: d53c c2bd 600c 21be e445 99bd 22f2 903e
00000020: 0695 903e 3c27 cabd 9395 0cbe d43c b5bd
00000030: 1932 08be a252 4e3e 54cf 01be 770a 9bbd

fc1.weight f4 [120, 400]
0.2018511 0.12019935 -0.061825957 -0.097822115 0.19641119 0.14148779 0.04329621 -0.010494866
0.08801257 0.20154612 -0.20215192 -0.10152125 -0.2376931 -0.22114223 0.031354066 -0.09535965
-0.056519493 -0.08110091 -0.0086641535 0.044738594 0.15616113 0.2697991 0.2649535 0.090196304
0.13852708 0.04856084 0.054557316 0.057603158 0.0015218544 -0.02794217 0.0980123 0.0712331
-0.12055139 -0.06402484 0.032192938 -0.057923764 -0.099401824 -0.15236625 -0.1589374 -0.19738096
-0.29290068 -0.095544524 -0.23326582 -0.3799679 -0.3262577 -0.040155645 -0.025664628 0.051053725
-0.045458883 -0.043739635 0.23982784 0.19116952 0.17061763 0.14166382 0.114130914 0.042552643
-0.06381717 -0.13730091 -0.08521101 0.070374876 -0.29609513 -0.074733235 -0.15748033 -0.20801327
-0.13738763 -0.18610801 -0.16062899 -0.11566747 -0.24456835 -0.27966517 0.08883467 0.04902777
0.024916582 0.06304029 -0.051764566 0.050979722 0.18105203 0.10723846 0.1786066 0.14088398
0.07442348 0.11450143 -0.12972286 -0.007578104 -0.032685876 -0.27159637 -0.13778095 -0.17389537
-0.25223064 -0.17601961 -0.39440203 -0.19224595 -0.21667367 -0.32833683 -0.40496722 0.015893303
-0.032760773 -0.020599207 -0.049076468 0.036862887 0.038743675 -0.024295889 -0.05823302 0.037443243
0.015149503 -0.046161786 0.05010404 0.038908854 -0.024382606 0.0046312045 -0.022848012 -0.063975066
-0.0008294722 0.022016611 -0.005206839 -0.03464667 0.01944651 -0.049205046 0.048397873 -0.054551966
-0.066167995 -0.015693085 -0.05840239 -0.056174286 -0.044588983 -0.007481778 0.0264544 0.0069485204
0.004523294 0.0403772 0.057491153 0.03545502 -0.02213183 -0.031813234 0.038548842 0.07604675
-0.002186887 -0.00968595 -0.034607224 0.03529439 0.02822973 -0.007832041 0.045592383 -0.038916375
-0.02206966 -0.022392929 0.028178351 0.08265685 0.08716683 0.08731827 0.06375997 0.12619814
0.12568001 0.055264432 0.11667999 0.06989828 0.14385702 0.011398062 0.12853245 0.083386764
0.07573453 0.107092634 0.10823125 0.02770823 0.039359745 0.020272847 0.016347067 0.0052542593
0.044874053 0.017809516 0.0034736833 0.023677766 0.029066533 0.07542274 0.015100615 0.15370752
0.14184122 0.05607657 0.05721456 0.17001826 0.0021500122 -0.104683354 -0.028468402 -0.053434275
0.12160175 -0.24188074 -0.1506424 -0.14486742 -0.15352222 -0.14764653 -0.24643597 -0.2316125
-0.25044972 -0.14751571 -0.31852442 -0.09994371 -0.19497599 -0.13728201 -0.0087306965 -0.09642025
0.039536856 0.077882715 -0.054463923 0.23631024 0.19823852 0.026266828 0.06469397 -0.03337103
-0.1404037 -0.04398379 -0.20302802 -0.26456532 -0.1763092 -0.33833027 -0.26583254 -0.30509454
-0.2762233 -0.36312416 -0.33346063 -0.14242172 -0.11106685 -0.046025574 -0.067501485 -0.024937999
0.20607716 -0.028777301 0.042080685 -0.0043543065 0.044503413 0.012246033 0.0058397623 0.045653693
-0.0302569 0.041643463 0.011404361 -0.025109094 0.027171263 0.022182148 -0.022748873 0.011948567
0.018275898 0.035185903 -0.040636107 -0.058955118 -0.019318003 -0.023104165 -0.004589746 -0.0053100972
0.04791893 0.02615041 0.018818386 -0.0068298625 -0.02177989 -0.041502893 0.0005827396 -0.0059318934
00000000: 0eb2 4e3e 142b f63d 373d 7dbd f656 c8bd
00000010: 0420 493e 2de2 103e 5e57 313d a9f2 2bbc
00000020: ef3f b43d 1b62 4e3e ea00 4fbe 60ea cfbd
00000030: d265 73be 1c73 62be 1f6d 003d ec4b c3bd
00000040: fc80 67bd 3c18 a6bd 18f4 0dbc d13f 373d
00000050: b4e8 1f3e 1c23 8a3e fca7 873e d7b8 b83d
00000060: 0bda 0d3e bbe7 463d 7e77 5f3d 4af1 6b3d
00000070: f678 c73a fae6 e4bc acba c83d a9e2 913d
00000080: a6e3 f6bd 751f 83bd bedc 033d 7841 6dbd
00000090: 2f93 cbbd e605 1cbe 7cc0 22be 3c1e 4abe
000000a0: 14f7 95be d9ac c3bd 3cdd 6ebe 278b c2be
000000b0: 400b a7be 3f7a 24bd a03e d2bc b61d 513d
000000c0: 1833 3abd 5528 33bd 6e95 753e f1c1 433e
000000d0: 63b6 2e3e 5210 113e 78bd e93d ae4b 2e3d
000000e0: 94b2 82bd 9c98 0cbe 1c83 aebd b420 903d
000000f0: c899 97be bd0d 99bd 8642 21be 6e01 55be
00000100: 58af 0cbe 1993 3ebe ed7b 24be 11e3 ecbd
00000110: 2070 7abe 4630 8fbe f4ee b53d 58d1 483d
00000120: dc1d cc3c 441b 813d 1507 54bd 1dd0 503d
00000130: b465 393e d69f db3d a6e4 363e e443 103e
00000140: 566b 983d ba7f ea3d 12d6 04be be51 f8bb
00000150: a0e1 05bd ae0e 8bbe 7316 0dbe a111 32be
00000160: 6024 81be 7c3e 34be 10ef c9be 1fdc 44be
00000170: b4df 5dbe c41b a8be dd57 cfbe ac32 823c
00000180: 2930 06bd abbf a8bc 6804 49bd 8afd 163d
00000190: b0b1 1e3d 2c08 c7bc bf85 6ebd 165e 193d
000001a0: 9f35 783c 2414 3dbd e539 4d3d e45e 1f3d
000001b0: 08be c7bc 5cc1 973b c12b bbbc 5c05 83bd
000001c0: f070 59ba 2e5c b43c 229e aabb abe9 0dbd
000001d0: 4a4e 9f3c 3b8b 49bd d93c 463d e271 5fbd
000001e0: 1683 87bd c98e 80bc 5837 6fbd 0217 66bd
000001f0: f0a2 36bd b429 f5bb e6b6 d83c 6ab0 e33b
00000200: 2438 943b 9062 253d d87b 6b3d 4839 113d
00000210: d04d b5bc 984e 02bd 64e5 1d3d 66be 9b3d
00000220: e051 0fbb d2b1 1ebc 4ec0 0dbd da90 103d
00000230: 0942 e73c f651 00bc 14bf 3a3d c766 1fbd
00000240: 6ecb b4bc 6071 b7bc 49d6 e63c ff47 a93d
00000250: 8684 b23d ecd3 b23d 9694 823d 163a 013e
00000260: 43b2 003e f55c 623d ebf5 ee3d d426 8f3d
00000270: 414f 133e f0be 3a3c 039e 033e aec6 aa3d
00000280: b51a 9b3d 6253 db3d 58a8 dd3d 5ffc e23c
00000290: af37 213d 3e13 a63c 49ea 853c ec2b ac3b
000002a0: dbcd 373d 43e5 913c bca6 633b e0f7 c13c
000002b0: f01c ee3c 3d77 9a3d 9268 773c 8165 1d3e
000002c0: d33e 113e 8cb0 653d d159 6a3d 4419 2e3e
000002d0: 38e7 0c3b 3a64 d6bd 9136 e9bc e6dd 5abd
000002e0: 570a f93d 96af 77be 0042 1abe 2058 14be
000002f0: ee34 1dbe a730 17be b659 7cbe d42b 6dbe
00000300: f23a 80be 5c0e 17be a215 a3be 4aaf ccbd
00000310: c9a7 47be a893 0cbe 320b 0fbc fb77 c5bd
00000320: 66f1 213d f980 9f3d 9015 5fbd 50fb 713e
00000330: 0aff 4a3e 882d d73c 467e 843d 10b0 08bd
00000340: fdc5 0fbe 5928 34bd 94e6 4fbe 1b75 87be
00000350: 668a 34be a039 adbe 341b 88be 5a35 9cbe
00000360: 246d 8dbe 69eb b9be 5abb aabe 00d7 11be
00000370: 0477 e3bd 5085 3cbd 383e 8abd c64a ccbc
00000380: e405 533e 60be ebbc cc5c 2c3d 92ae 8ebb
00000390: 3649 363d 96a3 483c 7a5b bf3b 5eff 3a3d
000003a0: 51dd f7bc 5692 2a3d 5bd9 3a3c 96b1 cdbc
000003b0: 4596 de3c 56b7 b53c d85b babc ecc3 433c
000003c0: 56b7 953c 181f 103d 0c72 26bd ec7a 71bd
000003d0: ca40 9ebc f244 bdbc 9465 96bb 5300 aebb
000003e0: a446 443d 6239 d63c 0429 9a3c 0acd dfbb
000003f0: bd6b b2bc f0fe 29bd fec2 183a 5460 c2bb

fc1.bias f4 [120]
0.37845436 -0.10690607 -0.26612198 -0.029275429 -0.06353907 0.040554564 -0.19243345 -0.13920379
-0.17393678 0.04152979 -0.13436179 -0.098487064 -0.09873321 0.19572994 -0.15736616 0.3062243
-0.19519217 -0.09550816 -0.040466484 -0.13950416 -0.1633547 -0.17437544 -0.08627078 -0.22985975
-0.16308379 -0.18968865 -0.1635879 -0.18755381 -0.17643699 -0.13896966 0.09478942 -0.16813667
-0.1701211 -0.17056677 -0.044242933 0.00303498 -0.16382283 -0.1353619 -0.16582647 0.18414664
-0.19922702 0.18982232 -0.07818538 -0.063687235 -0.18584073 -0.2762757 -0.08892334 0.26772115
-0.15519358 -0.0886461 -0.10474603 0.26823062 -0.074664295 -0.027062153 -0.10154693 -0.25175536
-0.009984041 -0.105069436 -0.17732058 -0.1247163 0.22365312 -0.18699113 -0.06051206 -0.029634064
-0.16085963 -0.094545454 -0.13409132 -0.19639957 -0.010434963 -0.10642708 -0.18068214 -0.08266804
-0.08532254 -0.13080996 -0.15006942 -0.06446831 -0.23518232 -0.10873948 -0.19762297 -0.17630422
-0.18442619 -0.060512744 -0.2429749 -0.09761402 -0.13471085 -0.19094221 0.12139827 -0.17149875
-0.109029755 -0.10549967 -0.15379205 -0.17225009 -0.11906816 -0.109899916 -0.10914229 -0.097970724
-0.21667309 -0.16729617 -0.14776203 -0.1513756 -0.20392519 0.062454417 -0.12611398 -0.10668421
-0.10905233 0.37467936 -0.12242441 -0.08244005 0.01402007 -0.09940057 -0.14650518 0.15561233
-0.18917587 -0.32584023 0.15599367 -0.15341322 -0.069227025 -0.061979577 -0.05615199 -0.041254327
00000000: c5c4 c13e 92f1 dabd 2441 88be 06d3 efbc
00000010: c620 82bd 8b1c 263d 460d 45be 708b 0ebe
00000020: 7c1c 32be 241b 2a3d 2396 09be 96b3 c9bd
00000030: a334 cabd 6e6d 483e 9824 21be 6ec9 9c3e
00000040: 75e0 47be c899 c3bd 2fc0 25bd 2eda 0ebe
00000050: 7446 27be 7a8f 32be bcae b0bd 5b60 6bbe
00000060: 70ff 26be be3d 42be 9683 27be 1b0e 40be
00000070: e6ab 34be 104e 0ebe f520 c23d 052c 2cbe
00000080: 3a34 2ebe 0ea9 2ebe 1438 35bd 84e6 463b
00000090: 2cc1 27be 4f9c 0abe 6ace 29be f090 3c3e
000000a0: 2b02 4cbe c860 423e a81f a0bd 746e 82bd
000000b0: 084d 3ebe 0274 8dbe 711d b6bd bf12 893e
000000c0: 11eb 1ebe 168c b5bd 1685 d6bd 8655 893e
000000d0: 98e9 98bd 73b1 ddbc d6f7 cfbd 14e6 80be
000000e0: 1a94 23bc a52e d7bd 8793 35be 426b ffbd
000000f0: 5305 653e 9a7a 3fbe 7edb 77bd 23c3 f2bc
00000100: 63b8 24be 0ca1 c1bd 3c4f 09be f81c 49be
00000110: 68f7 2abc 71f6 d9bd bd04 39be dd4d a9bd
00000120: 95bd aebd 0cf3 05be ccab 19be f607 84bd
00000130: a2d3 70be ceb2 debd ad5d 4abe 1889 34be
00000140: 38da 3cbe 36dc 77bd 6ace 78be dce9 c7bd
00000150: a4f1 09be 5b86 43be a89f f83d 5e9d 2fbe
00000160: fe4a dfbd 3610 d8bd aa7b 1dbe 5462 30be
00000170: 02da f3bd 3513 e1bd fe85 dfbd e0a4 c8bd
00000180: 8ddf 5dbe b04f 2bbe ee4e 17be 3502 1bbe
00000190: c4d1 50be 34d0 7f3d 0624 01be 407d dabd
000001a0: d456 dfbd f9d5 bf3e a6b9 fabd 54d6 a8bd
000001b0: 70b4 653c 8792 cbbd 7405 16be d758 1f3e
000001c0: 52b7 41be 88d4 a6be cebc 1f3e 5b18 1dbe
000001d0: e6c6 8dbd 4cde 7dbd a1ff 65bd 4cfa 28bd

fc2.weight f4 [84, 120]
-0.36398923 0.023732185 0.119288966 -0.06954086 -0.068106756 -0.1283886 -0.12513801 -0.15076679
0.016962 -0.15047455 0.012783166 -0.18456078 0.026967872 -0.2587824 0.08551251 -0.14922243
0.005359119 0.06750738 0.37037766 -0.019605834 0.05713702 0.09282827 -0.051651437 -0.037263736
0.008904255 0.10355153 0.008537957 0.020944957 -0.04021285 -0.024850488 -0.20715797 -0.080500394
-0.106548734 -0.037065234 0.028837534 0.08079109 -0.07485974 -0.112229414 -0.17425178 -0.16611165
-0.06850049 0.08541804 -0.06965461 -0.011650179 -0.05188795 0.10267439 -0.052190866 -0.01594848
-0.13698237 -0.115471885 -0.06828045 -0.15031363 -0.018548679 -0.09381755 -0.14931169 0.0007142918
-0.15572262 -0.018468985 0.045341603 0.04041431 0.058675274 -0.07834473 -0.0367111 -0.2256563
-0.12540673 0.10739373 0.20993102 -0.24990593 -0.15367799 -0.123249486 -0.030756831 -0.038281903
-0.07405606 -0.043984864 -0.0580621 -0.17300618 -0.012412684 -0.16618174 -0.06914533 -0.012629384
-0.019030087 -0.32355106 0.12041175 -0.07974611 0.2292004 0.0029924205 -0.11885244 -0.024241205
-0.0055822753 -0.0205803 -0.013817139 -0.0045736684 -0.08170083 -0.05115357 0.02153739 0.097957775
-0.0749792 0.01077052 -0.12775199 -0.031097712 0.03702655 -0.1814374 -0.19397701 -0.07218418
-0.12681574 -0.28991193 -0.11793099 -0.019574521 -0.14400567 0.008569263 -0.03333474 -0.28389323
-0.09794663 0.040187914 -0.14531247 -0.20202534 -0.029994693 -0.19224867 -0.0037683246 0.30036646
0.118747875 -0.07569913 0.026162017 -0.3852615 0.0045007244 -0.03698482 -0.27293712 -0.1198137
-0.16865999 -0.023432229 -0.111808926 -0.041651543 -0.10867675 0.3455398 -0.29407546 0.094004326
-0.0017353464 -0.020485759 -0.3547542 -0.06887456 -0.055760384 -0.14290646 -0.11914872 -0.0376685
-0.06582506 -0.07168673 -0.08971303 0.06372249 -0.08777387 -0.0530651 0.17553224 -0.062643364
-0.10443288 -0.054211307 -0.04846161 -0.13416927 -0.085392855 -0.013695171 0.006275337 0.19285408
-0.1297676 0.1630646 0.015051352 -0.073704295 0.033726417 -0.15162534 0.077940084 0.07429727
2.3198314e-05 0.03030012 -0.12805729 0.25240615 -0.12842914 0.1557247 -0.18858048 -0.11203144
-0.25152883 -0.024127115 0.027946752 -0.1039148 0.18197139 -0.012549587 -0.00596323 -0.25311172
-0.25542086 -0.2270393 -0.18077785 0.031577274 -0.37059224 -0.24300781 -0.17045999 0.05294893
0.060786694 0.08289922 -0.055261597 0.036387287 0.044704534 -0.067825854 -0.121638514 -0.05478049
-0.03675399 -0.18996546 -0.024708536 -0.025665052 0.07748727 -0.021004647 0.17248416 -0.045063492
0.031602025 -0.047739737 0.06526577 -0.051735427 -0.51918703 0.0015528065 -0.37606907 -0.14530736
-0.002908409 -0.032944933 -0.10864709 -0.13705541 -0.005805541 0.077546224 -0.30268514 -0.20132242
-0.08735651 0.25908464 -0.08947942 -0.012310415 -0.01594037 0.081071295 0.034604136 0.19483447
-0.0007325765 -0.14637825 0.325881 0.011051887 0.029853698 -0.19061512 -0.026975755 -0.33509654
-0.10744245 -0.065368555 0.029308558 0.09205439 0.014533342 -0.04232053 -0.041186728 -0.07465734
0.061517432 -0.03259698 -0.05166462 0.03332284 -0.07417206 -0.061329324 -0.20916069 -0.07338484
00000000: cc5c babe 006a c23c c64d f43d 706b 8ebd
00000010: 8e7b 8bbd 4d78 03be 2e24 00be 9c62 1abe
00000020: e4f3 8a3c 0016 1abe 7c70 513c 80fd 3cbe
00000030: baeb dc3c 207f 84be 2f21 af3d c4cd 18be
00000040: 8c9b af3b 4f41 8a3d 24a2 bd3e 6a9c a0bc
00000050: 8208 6a3d bf1c be3d 7590 53bd dca1 18bd
00000060: 27e3 113c d312 d43d cae2 0b3c c294 ab3c
00000070: 3bb6 24bd 4093 cbbc 3821 54be 64dd a4bd
00000080: 3936 dabd b7d1 17bd b13c ec3c cd75 a53d
00000090: 1050 99bd 89d8 e5bd 0f6f 32be 2c19 2abe
000000a0: fc49 8cbd a7ef ae3d 13a7 8ebd 64e0 3ebc
000000b0: 7688 54bd f346 d23d 17c6 55bd 63a6 82bc
000000c0: 1b45 0cbe 867c ecbd 9fd6 8bbd d1eb 19be
000000d0: 66f3 97bc 6a23 c0bd 2ae5 18be 503f 3b3a
000000e0: c075 1fbe 454c 97bc 1eb8 393d 7a89 253d
000000f0: 7c55 703d 3473 a0bd 615e 16bd 7212 67be
00000100: 9f6a 00be 3ef1 db3d 28f8 563e 57e7 7fbe
00000110: c35d 1dbe 3a6a fcbd c0f5 fbbc 7ccd 1cbd
00000120: b4aa 97bd 7929 34bd 86d2 6dbd 8828 31be
00000130: 925e 4bbc 8c2b 2abe 119c 8dbd 7aeb 4ebc
00000140: fce4 9bbc 7ca8 a5be 709a f63d ee51 a3bd
00000150: 82b3 6a3e 7c1c 443b e868 f3bd 7e95 c6bc
00000160: 85eb b6bb 0498 a8bc 4861 62bc b6de 95bb
00000170: c452 a7bd 6886 51bd 2e6f b03c 169e c83d
00000180: b28e 99bd d676 303c 6bd1 02be a1c0 febc
00000190: 27a9 173d baca 39be e9a1 46be 4dd5 93bd
000001a0: fcdb 01be 566f 94be ce85 f1bd bf5a a0bc
000001b0: 3976 13be 1866 0c3c 028a 08bd 745a 91be
000001c0: 3e98 c8bd 159c 243d cbcc 14be bbdf 4ebe
000001d0: 6eb7 f5bc d6dc 44be fff5 76bb a2c9 993e
000001e0: 1632 f33d 2508 9bbd ba51 d63c ff40 c5be
000001f0: d07a 933b 657d 17bd 6abe 8bbe e360 f5bd
00000200: 34b5 2cbe f2f4 bfbc 14fc e4bd cf9a 2abd
00000210: ea91 debd 98ea b03e 0f91 96be 5785 c03d
00000220: 9074 e3ba c0d1 a7bc 58a2 b5be 1b0e 8dbd
00000230: 0065 64bd 1256 12be 3e04 f4bd 494a 1abd
00000240: 4acf 86bd 7ed0 92bd 77bb b7bd f080 823d
00000250: c9c2 b3bd ca5a 59bd b9be 333e 2a4b 80bd
00000260: e8e0 d5bd ad0c 5ebd ae7f 46bd ab63 09be
00000270: 73e2 aebd b661 60bc 58a1 cd3b 8a7b 453e
00000280: cce1 04be 68fa 263e f299 763c 47f2 96bd
00000290: b624 0a3d ac43 1bbe 0d9f 9f3d 2b29 983d
000002a0: 009a c237 f537 f83c 7321 03be 613b 813e
000002b0: ee82 03be 4c76 1f3e 3e1b 41be bd70 e5bd
000002c0: 63c8 80be 3aa6 c5bc 96f0 e43c 48d1 d4bd
000002d0: b556 3a3e c89c 4dbc 3367 c3bb dc97 81be
000002e0: 86c6 82be fe7c 68be d41d 39be 2c57 013d
000002f0: 44be bdbe 0ad7 78be 108d 2ebe fae0 583d
00000300: 78fb 783d 11c7 a93d fc59 62bd d60a 153d
00000310: 1a1c 373d 48e8 8abd 9d1d f9bd 8261 60bd
00000320: 5a8b 16bd 4e86 42be 8e69 cabc 843f d2bc
00000330: a5b1 9e3d f011 acbc b09f 303e 7f94 38bd
00000340: 2071 013d be8a 43bd 0faa 853d 87e8 53bd
00000350: 71e9 04bf 8a87 cb3a 208c c0be 74cb 14be
00000360: 029b 3ebb 44f1 06bd 5e82 debd 4158 0cbe
00000370: 683c bebb 8ed0 9e3d 8cf9 9abe 7727 4ebe
00000380: f8e7 b2bd bea6 843e fc40 b7bd 9fb1 49bc
00000390: 6195 82bc b508 a63d 11bd 0d3d b082 473e
000003a0: 600a 40ba 2ee4 15be e0d9 a63e f912 353c
000003b0: be8f f43c 9c30 43be 42fc dcbc c691 abbe
000003c0: ca0a dcbd f3df 85bd 8018 f03c 0387 bc3d
000003d0: 411d 6e3c 4b58 2dbd 6ab3 28bd f3e5 98bd
000003e0: b4f9 7b3d 6984 05bd 489e 53bd 887d 083d
000003f0: 85e7 97bd 7534 7bbd 382e 56be ca4a 96bd

fc2.bias f4 [84]
0.03653784 0.10576239 -0.15315777 -0.09909455 -0.053136867 0.12796795 -0.026283396 -0.1956814
-0.12429115 -0.1262304 0.2313243 0.019252902 -0.01676676 -0.1656553 0.015105784 -0.11060547
-0.07873637 -0.12213379 0.27484038 -0.12129991 -0.18319029 -0.100644216 -0.040429063 0.00971371
-0.015538292 -0.0021791407 -0.06455614 -0.114493966 -0.1095641 -0.035081007 -0.02702814 -0.05461092
-0.13994123 -0.18271117 -0.10501297 -0.09574797 -0.08342204 -0.08207728 -0.0018342584 -0.13089126
-0.012750568 -0.103826396 -0.072854236 -0.078112826 -0.056385584 -0.14398876 0.3377254 0.40389046
0.059946537 -0.09535396 -0.08519969 -0.09457454 -0.06170736 0.007866239 -0.12241967 0.355178
0.037333775 -0.1730288 -0.076916866 -0.10077512 -0.08064136 -0.17159969 -0.064850554 -0.055334695
-0.11260086 -0.11227783 -0.14848742 -0.07452762 -0.14999615 -0.058828555 -0.024347514 -0.1406998
-0.13519488 -0.04540494 -0.11848182 -0.04710616 -0.13798085 -0.045987695 0.40759382 -0.10832392
-0.03512086 -0.105210066 -0.16517763 0.018426683
00000000: b4a8 153d f499 d83d 64d5 1cbe 15f2 cabd
00000010: 0ba6 59bd 080a 033e 4750 d7bc b460 48be
00000020: 5c8c febd 8b42 01be 47e0 6c3e 43b8 9d3c
00000030: 725a 89bc 8ba1 29be 407e 773c 1f85 e2bd
00000040: 8940 a1bd 4821 fabd e1b7 8c3e 166c f8bd
00000050: 3c96 3bbe 8e1e cebd f298 25bd 4126 1f3c
00000060: 5294 7ebc eacf 0ebb 0236 84bd d07b eabd
00000070: 2563 e0bd 1ab1 0fbd 1e6a ddbc b3af 5fbd
00000080: c14c 0fbe a318 3bbe 0a11 d7bd 8317 c4bd
00000090: 2dd9 aabd 2218 a8bd 806b f0ba 5c08 06be
000000a0: c2e7 50bc efa2 d4bd 9a34 95bd 9ef9 9fbd
000000b0: 92f4 66bd ca71 13be 58ea ac3e bbca ce3e
000000c0: 808a 753d f048 c3bd 2d7d aebd 4cb0 c1bd
000000d0: dbc0 7cbd 66e1 003c 2ab7 fabd e4d9 b53e
000000e0: 4deb 183d 762e 31be 9786 9dbd 3063 cebd
000000f0: 4c27 a5bd d4b7 2fbe 5ed0 84bd a2a6 62bd
00000100: 489b e6bd ebf1 e5bd 160d 18be f0a1 98bd
00000110: 9798 19be 36f6 70bd 7074 c7bc 9c13 10be
00000120: 8770 0abe 88fa 39bd 99a6 f2bd 64f2 40bd
00000130: da4a 0dbe 985d 3cbd 23b0 d03e eed8 ddbd
00000140: e4da 0fbd 6078 d7bd 5324 29be 8ef3 963c

fc3.weight f4 [10, 84]
-0.16895065 0.2707661 -0.06931617 -0.31829572 -0.043851502 0.24820116 -0.09191231 -0.15067735
0.02073982 -0.121271074 0.19085687 0.0686754 0.048057176 0.0184929 -0.051559985 0.04012441
-0.03620601 -0.013025764 0.16416521 -0.07147159 -0.059493903 -0.066728316 -0.16678184 -0.045741357
-0.03232222 0.016097602 -0.060814444 -0.10639042 -0.105821475 -0.07198419 0.04649489 0.011682946
-0.27401423 -0.18238911 -0.021574602 0.0045658783 -0.06562896 -0.17981133 0.10008324 -0.0943747
-0.0990078 -0.17265892 -0.033650536 -0.010032906 -0.076157585 -0.07289332 0.2052483 0.40084407
0.008373221 -0.39682806 -0.02306802 -0.13449788 -0.2478182 -0.19206847 -0.005229787 -0.013024654
0.19812997 -0.052201856 0.038849033 -0.17136002 -0.015132017 -0.18673757 -0.15663177 0.039009828
0.066265866 -0.11456728 -0.032968614 -0.15426898 -0.10651554 -0.005060016 0.03354182 -0.20249036
-0.08050156 -0.13692011 -0.09750262 -0.1014898 0.07040722 -0.06700716 0.14900358 -0.24131618
0.050180588 -0.040694315 -0.06046243 -0.16598737 -0.43448168 -0.11829093 0.028508369 -0.45358026
-0.07742276 -0.064364195 -0.142506 -0.10257044 -0.13964815 -0.01919438 0.07414948 0.06236816
0.044148255 0.058088213 -0.012964557 -0.07076034 0.00011069642 -0.017017385 0.10820271 -0.057221957
-0.06683468 -0.15833418 -0.2166562 0.0554042 -0.21654792 -0.029530669 -0.050177924 -0.22707212
-0.11446505 0.07469054 0.074987054 0.09509684 -0.33096665 -0.21536413 0.08338243 -0.21622121
-0.30785248 -0.10421075 -0.09421882 -0.02366328 -0.03132688 -0.06150391 0.06521647 -0.05606676
-0.035209954 -0.09598542 0.27175486 0.011375265 -0.074152686 -0.03425964 0.014134226 0.010100629
-0.30467832 -0.09875195 0.015155578 0.27011046 -0.18525586 -0.05715245 0.03483981 -0.10662869
0.008625187 0.0054505244 -0.041285254 0.0061441865 0.0606042 -0.22606756 -0.13055071 -0.116370276
-0.093435384 -0.008413753 0.09677745 -0.054359313 -0.062413983 -0.17294733 -0.094621636 -0.13537829
0.0008150643 -0.05109313 0.3095648 -0.38840723 0.018335838 -0.2036328 -0.049440853 -0.12626547
0.024077218 0.04877823 0.016691294 0.13541707 -0.074697025 0.04872402 -0.16155306 -0.058237277
-0.07790969 -0.16922519 -0.09566817 -0.051852893 -0.054033354 0.05802168 -0.09938842 0.017719435
-0.01788912 -0.08126895 -0.23133528 -0.08440154 -0.07197973 0.02745422 0.11386128 -0.057730325
-0.17545673 -0.17242987 -0.008026946 -0.1611883 -0.057011895 -0.07467908 0.008792785 -0.10543858
-0.044234477 -0.041377604 -0.042750325 -0.10550976 0.14256999 -0.079907 0.038015008 -0.09485217
0.047948524 -0.03023732 -0.030092102 -0.0049724057 -0.019439695 -0.12946852 -0.13565563 -0.13783006
-0.09771925 -0.2744831 -0.07010695 -0.18059003 0.07903349 0.039894413 0.027487744 -0.25651932
0.009520787 -0.011708239 0.03715527 -0.2442319 -0.2037458 -0.27265456 -0.07647561 -0.012991505
-0.09053995 -0.04173441 -0.16195834 -0.042888448 -0.07935834 -0.11232095 -0.07221677 -0.1450342
-0.13153303 0.04117503 -0.034857985 0.046887442 0.031274617 -0.04481132 -0.16287877 -0.15119183
-0.11626694 -0.10458375 0.026831975 0.015656065 -0.10644446 -0.2993335 -0.06872303 0.21348637
00000000: 6601 2dbe dba1 8a3e a3f5 8dbd a8f7 a2be
00000010: a29d 33bd 7228 7e3e 853c bcbd 2a4b 1abe
00000020: 8ee6 a93c f85c f8bd fc6f 433e b0a5 8c3d
00000030: 9ad7 443d 6c7e 973c 9030 53bd 7e59 243d
00000040: c14c 14bd 046a 55bc ed1a 283e b25f 92bd
00000050: e1af 73bd dba8 88bd dcc8 2abe 4a5b 3bbd
00000060: 4e64 04bd 1edf 833c 9118 79bd 38e3 d9bd
00000070: eeb8 d8bd 726c 93bd 6d71 3e3d d469 3f3c
00000080: 984b 8cbe 36c4 3abe 38bd b0bc 5d9d 953b
00000090: 7a68 86bd 7620 38be 71f8 cc3d 8647 c1bd
000000a0: 9ac4 cabd 80cd 30be 25d5 09bd 0f61 24bc
000000b0: 82f8 9bbd 1849 95bd 9c2c 523e 6f3b cd3e
000000c0: d62f 093c 0c2d cbbe 25f9 bcbc d0b9 09be
000000d0: 0ec4 7dbe 99ad 44be a25e abbb 5c65 55bc
000000e0: 95e2 4a3e 9dd1 55bd 2a20 1f3d 0079 2fbe
000000f0: 48ec 77bc 2238 3fbe 1464 20be c5c8 1f3d
00000100: 66b6 873d 40a2 eabd 190a 07bd b0f8 1dbe
00000110: d224 dabd 7ece a5bb 2663 093d a259 4fbe
00000120: 00de a4bd c934 0cbe 74af c7bd e2d9 cfbd
00000130: a931 903d 0d3b 89bd 6594 183e 971b 77be
00000140: 298a 4d3d 15af 26bd 74a7 77bd 98f8 29be
00000150: 6274 debe 8442 f2bd 628a e93c ac3b e8be
00000160: d38f 9ebd 60d1 83bd 18ed 11be 7310 d2bd
00000170: edff 0ebe 883d 9dbc afdb 973d c175 7f3d
00000180: cdd4 343d e8ed 6d3d 4b69 54bc ccea 90bd
00000190: b025 e838 0b68 8bbc 6299 dd3d 9261 6abd
000001a0: 9fe0 88bd 5b22 22be 1fdb 5dbe 84ef 623d
000001b0: bdbe 5dbe 4dea f1bc 5e87 4dbd 9885 68be
000001c0: a76c eabd 5bf7 983d d092 993d 22c2 c23d
000001d0: 7674 a9be 6a88 5cbe 68c4 aa3d 1869 5dbe
000001e0: d79e 9dbe 726c d5bd ccf5 c0bd 7fd9 c1bc
000001f0: 9d50 00bd 86eb 7bbd 3690 853d 42a6 65bd
00000200: 5038 10bd 0194 c4bd 7423 8b3e 525f 3a3c
00000210: 5ddd 97bd d653 0cbd 3e93 673c 1c7d 253c
00000220: ccfe 9bbe 763e cabd 1a4f 783c eb4b 8a3e
00000230: b6b3 3dbe b018 6abd 30b4 0e3d 2560 dabd
00000240: a850 0d3c 509a b23b ba1a 29bd 2c55 c93b
00000250: 1c3c 783d 417e 67be 16af 05be 8a53 eebd
00000260: 0d5b bfbd d6d9 09bc 4133 c63d dfa7 5ebd
00000270: cea5 7fbd 1b19 31be fdc8 c1bd 9ba0 0abe
00000280: 0aaa 553a 0847 51bd 477f 9e3e 50dd c6be
00000290: 0a35 963c 1e85 50be 7e82 4abd bc4b 01be
000002a0: 963d c53c aecb 473d 2ebc 883c c6aa 0a3e
000002b0: c1fa 98bd d792 473d 2a6e 25be 368a 6ebd
000002c0: 1e8f 9fbd 5e49 2dbe aced c3bd b363 54bd
000002d0: 1452 5dbd 24a8 6d3d 288c cbbd 5928 913c
000002e0: 348c 92bc 5670 a6bd 28e3 6cbe b7da acbd
000002f0: 1c6a 93bd ace7 e03c 1a30 e93d a276 6cbd
00000300: eeaa 33be 7591 30be 7483 03bc 8c0e 25be
00000310: 4e85 69bd 58f1 98bd 9d0f 103c 2ff0 d7bd
00000320: 362f 35bd 907b 29bd f71a 2fbd 8015 d8bd
00000330: defd 113e 48a6 a3bd a0b5 1b3d db41 c2bd
00000340: ac65 443d 42b4 f7bc b683 f6bc 90ef a2bb
00000350: ff3f 9fbc 6593 04be 4fe9 0abe 5323 0dbe
00000360: 0821 c8bd 0d89 8cbe 3c94 8fbd 98ec 38be
00000370: 4fdc a13d 5368 233d fa2d e13c 8056 83be
00000380: 13fd 1b3c ead3 3fbc 2030 183d ed17 7abe
00000390: bda2 50be 6199 8bbe 3f9f 9cbd 52da 54bc
000003a0: 026d b9bd b3f1 2abd 68d8 25be ccab 2fbd
000003b0: a086 a2bd 8708 e6bd 63e6 93bd d883 14be
000003c0: 98b0 06be 26a7 283d 3fc7 0ebd 0c0d 403d
000003d0: d019 003d 138c 37bd b1c9 26be 08d2 1abe
000003e0: 5d1d eebd 0130 d6bd bbce db3c 2641 803c
000003f0: 8eff d9bd 3e42 99be a9be 8cbd 2c9c 5a3e

fc3.bias f4 [10]
-0.031722963 0.17000474 -0.13849524 -0.07041454 -0.09257257 -0.09994663 -0.099309504 0.23819971
-0.0706475 0.33046246
00000000: f0ef 01bd b915 2e3e b2d1 0dbe 8035 90bd
00000010: b096 bdbd d2b0 ccbd c862 cbbd a0ea 733e
00000020: a3af 90bd 6032 a93e
