final_model.pt (torch, 251845 bytes, 10 tensors)

conv1.weight f4 [6, 3, 5, 5]
0	0x3ca857a2	0.0205496
1	0x3e60b37d	0.2194347
2	0x3df764ce	0.12079774
3	0xbdea2824	-0.114334375
4	0xbe15f24d	-0.14643212
5	0x3dec609c	0.11541864
6	0x3d53a6ee	0.05167287
7	0xbbf1a69c	-0.0073745977
8	0x3c898234	0.016785719
9	0xbe624268	-0.22095644
10	0x3e071a2d	0.13193579
11	0xbd65f7cc	-0.05614452
12	0x3d886b8e	0.066611394
13	0xbce60176	-0.028076869
14	0xbde3b994	-0.111193806
15	0xbaa97f10	-0.0012931544
16	0x3d488920	0.048958898
17	0xbd13b85b	-0.036064487
18	0xbdb31c18	-0.08745593
19	0xbdfc0a07	-0.123066
20	0x3d117df9	0.035520528
21	0x3d5d71ca	0.054063596
22	0x3d591262	0.052996047
23	0xbdbbf0d2	-0.09176792
24	0xbe0f0db4	-0.13970071
25	0x3b808d5c	0.0039231014
26	0x3c271d0a	0.010199795
27	0xbdf7315b	-0.12069961
28	0xbe669a49	-0.22519793
29	0xbe9ee8c8	-0.31036973
30	0x3dbd6d2a	0.09249337
31	0xbd792054	-0.060821846
32	0x3d9a6f6c	0.07540783
33	0xbe840c0e	-0.25790447
34	0xbe1fd364	-0.15607983
35	0x3daf8d13	0.0857183
36	0x3da19396	0.07889478
37	0xbcedd710	-0.029033214
38	0xbe16b8fe	-0.14719006
39	0xbdd7afb4	-0.105315596
40	0x3ca93a3f	0.020657657
41	0x3d568272	0.052370496
42	0x3dad2248	0.08453804
43	0xbdaeeafd	-0.08540914
44	0xbe1de4ca	-0.15419307
45	0x3da7652c	0.08173594
46	0x3d979e9f	0.074033014
47	0x3d0074f7	0.031361546
48	0xbe365765	-0.17806776
49	0xbcc35992	-0.023846421
50	0x3e4d65ab	0.20058315
51	0x3e101227	0.14069425
52	0x3d00ec0a	0.031475104
53	0x3b504f60	0.0031785592
54	0xbbd44991	-0.0064784964
55	0x3e6bc7b2	0.23025396
56	0x3dc95a5e	0.09831689
57	0x3e7f1926	0.24911937
58	0xbd47957e	-0.04872655
59	0xbd0fe46f	-0.03512996
60	0x3e291c61	0.16514732
61	0x3e917222	0.2840739
62	0x3dcee6d8	0.10102624
63	0xbd88c3fd	-0.06678007
64	0xbde63864	-0.112412244
65	0x3e6f3266	0.23359069
66	0x3e7d2763	0.24722056
67	0x3e375312	0.17902783
68	0xbd714fd2	-0.058914013
69	0xbd83f8a7	-0.06443911
70	0x3e696d52	0.22795609
71	0x3e860d36	0.26181954
72	0x3e24e909	0.16104521
73	0xbd012c00	-0.031536102
74	0x3db8e215	0.09027497
75	0x3d6c321b	0.05766497
76	0xbdde94b4	-0.108682066
77	0xbe222552	-0.15834549
78	0xbe31e5d5	-0.1737283
79	0xbe2c1996	-0.16806635
80	0x3da041f6	0.07825081
81	0xbd334169	-0.04376355
82	0xbdd3805a	-0.103272155
83	0xbd983e31	-0.07433737
84	0xbdf36ff6	-0.11886589
85	0xbdb7b090	-0.089692235
86	0xbd784249	-0.06061009
87	0xbd6b15df	-0.057393905
88	0xbd94eda8	-0.07271892
89	0xbe897255	-0.2684504
90	0xbe8b457f	-0.2720146
91	0xbe8df5b1	-0.2772651
92	0xbeabd18d	-0.33558312
93	0xbe6706d4	-0.22561198
94	0xbea9e3ea	-0.33181697
95	0x3bf5a9ee	0.007497064
96	0xbd63018c	-0.055421397
97	0xbd9b6464	-0.07587507
98	0xbd915242	-0.070957676
99	0xbe76c5af	-0.24098848
100	0x3d214722	0.03937448
101	0xb9aee780	-0.00033360347
102	0x3d9a42f8	0.075323045
103	0xbae204c8	-0.0017243857
104	0xbd30b503	-0.043141376
105	0x3d6afff3	0.057373
106	0x3d4a195c	0.04934059
107	0x3d336e23	0.043806206
108	0x3e046ea6	0.12932834
109	0x3e257f1a	0.16161767
110	0xbcced471	-0.025247784
111	0xbdeca0b3	-0.115540884
112	0x3d5470ef	0.051865514
113	0xbcd473b5	-0.02593408
114	0xbc1d7d7c	-0.009612437
115	0xbe07bbed	-0.13255282
116	0xbe20526e	-0.15656444
117	0xbe5050bc	-0.20343298
118	0xbe748334	-0.23878175
119	0xbd3286be	-0.04358553
120	0xbc314b50	-0.010821179
121	0xbc72e820	-0.014825851
122	0xbe4936cb	-0.19649808
123	0xbd3b97aa	-0.045798935
124	0xbde33a20	-0.11095071
125	0x3e845f2f	0.2585387
126	0x3df8acb9	0.12142319
127	0x3e3ea553	0.18617754
128	0x3e5faf36	0.21844181
129	0x3e8720c0	0.26392174
130	0x3ed60c3e	0.41806215
131	0x3ea7b7a5	0.32757297
132	0x3ec21ec8	0.3791411
133	0x3e94b32a	0.2904294
134	0x3ea3b76e	0.31975883
135	0x3e63450d	0.2219431
136	0x3e713086	0.23553666
137	0x3dac0308	0.08399016
138	0x3e2f357c	0.17110246
139	0x3e670186	0.22559175
140	0x3e40cc58	0.18827951
141	0x3e183431	0.1486366
142	0x3dcecd44	0.10097745
143	0x3dc799d8	0.0974614
144	0x3d3b62dc	0.045748577
145	0x3df7b7e2	0.1209562
146	0x3da01075	0.07815639
147	0x3e09fd27	0.13475476
148	0x3e1fb3af	0.15595888
149	0x3e0c4332	0.13697508
150	0x3bcadfc7	0.006191227
151	0xbdd9b5ab	-0.106303535
152	0xbe12a0e2	-0.14319184
153	0xbddf561a	-0.109050944
154	0xbdc0d47b	-0.094155274
155	0xbdcda377	-0.10040944
156	0xbc60f296	-0.013729712
157	0xbd3200ce	-0.0434578
158	0xbe624cd6	-0.22099623
159	0xbd820d07	-0.06350141
160	0xbd12bdcc	-0.035825536
161	0xbca018b4	-0.01954303
162	0xbde970e7	-0.113984875
163	0xbabee010	-0.0014562625
164	0xbdbbb4fe	-0.09165381
165	0xbda68e1c	-0.08132574
166	0xbd2c43da	-0.042056896
167	0xbd4e7bb5	-0.050410945
168	0xbe286c5f	-0.1644759
169	0xbd82d62c	-0.06388506
170	0xbdd5e2c6	-0.10443644
171	0xbcb2763d	-0.021784896
172	0xbd12dd2a	-0.03585545
173	0x3c837bfe	0.016050335
174	0xbd4f7d9b	-0.050656896
175	0xbce2e8c5	-0.027698884
176	0x3d80c1fc	0.062869996
177	0xbd0d53d1	-0.03450376
178	0xbd9da37a	-0.07697196
179	0xbe17cc63	-0.14824061
180	0x3d811ce0	0.063043356
181	0xbe1ba8eb	-0.15201156
182	0x3bfe8ec4	0.007768484
183	0xbd07a5c6	-0.03311708
184	0xbe0794f0	-0.13240409
185	0x3cf4d360	0.029885948
186	0x3b99c982	0.004693211
187	0xbc8724cb	-0.016497036
188	0xbdef2a76	-0.11678021
189	0xbd9071c0	-0.07052946
190	0xbde95a54	-0.11394182
191	0x3d38a308	0.045077354
192	0x3c2974ce	0.01034279
193	0xbdb7765f	-0.08958124
194	0xbdd8a5c2	-0.10578491
195	0x3d2f1e06	0.042753242
196	0xbdd2c26c	-0.10290989
197	0x3d668294	0.056276873
198	0xbdd016c8	-0.10160595
199	0x3d6cab3c	0.05778049
200	0x3e802777	0.2503011
201	0x3eafdc9e	0.34348005
202	0x3e8e553a	0.27799398
203	0x3e5551f0	0.20832038
204	0x3dda2212	0.1065103
205	0x3e278de2	0.16362718
206	0x3e59ebee	0.21281406
207	0x3e5bbf4b	0.21459691
208	0x3e8fd226	0.28090018
209	0x3de9658e	0.11396323
210	0x3e4d6a4a	0.20060077
211	0x3e55e8e8	0.20889628
212	0x3db4feae	0.08837639
213	0x3e801664	0.25017083
214	0x3d686439	0.056736205
215	0x3e8a13dd	0.2696828
216	0x3de269ed	0.1105536
217	0x3e245bce	0.16050646
218	0x3e9a308c	0.30115163
219	0x3e90c234	0.28273165
220	0x3e8debc8	0.2771895
221	0x3e02bc00	0.12767029
222	0x3e0f7974	0.14011174
223	0x3e9e5386	0.30923098
224	0x3d629d21	0.05532563
225	0xbe594071	-0.21215989
226	0xbe68c5de	-0.2273173
227	0xbe6c68d2	-0.23086861
228	0xbe7a6a2e	-0.24454567
229	0xbe81fffb	-0.2539061
230	0x3c15c159	0.009140336
231	0x3c49a27a	0.012306804
232	0xbdbe67a1	-0.092971094
233	0xbe068603	-0.13137059
234	0xbe248b62	-0.16068795
235	0x3c6cef0c	0.01446129
236	0x3dbbf32a	0.09177239
237	0x3e36a0a6	0.1783472
238	0x3e145e85	0.14489181
239	0xbc98f61e	-0.018672045
240	0xbd583af0	-0.052790582
241	0x3d484ddc	0.048902377
242	0x3d45cb44	0.048289552
243	0x3d2c9476	0.04213377
244	0xbdb5bb75	-0.08873645
245	0xbe5753a2	-0.21027997
246	0xbdc95268	-0.09830171
247	0xbe9af9c4	-0.3026868
248	0xbe69b6d2	-0.22823647
249	0xbe570fa0	-0.21002054
250	0xbd998258	-0.07495564
251	0xbe33982a	-0.17538515
252	0xbe26e828	-0.16299498
253	0xbd9ef1a6	-0.077609345
254	0xbe56cad3	-0.20975809
255	0xbd4aec82	-0.049541958

conv1.bias f4 [6]
0	0xbdc32cb4	-0.09530011
1	0xbe1a11d4	-0.15045863
2	0xbe660f87	-0.2246686
3	0xbee4077f	-0.4453697
4	0xbef2ee18	-0.47447276
5	0xbefa1403	-0.48843393

conv2.weight f4 [16, 6, 5, 5]
0	0xbe5471b8	-0.20746505
1	0xbdc124e1	-0.09430862
2	0xbe2e3f10	-0.17016244
3	0xbe01d472	-0.12678698
4	0xbca50355	-0.02014319
5	0xbe32948c	-0.17439479
6	0xbe1da921	-0.15396549
7	0xbd5e9da6	-0.054349564
8	0xbe08631c	-0.13319057
9	0x3c938b47	0.018010749
10	0xbc3115b0	-0.010808393
11	0xbdb3616e	-0.087588176
12	0xbd1f78dc	-0.03893362
13	0xbe19c521	-0.15016605
14	0x3bb418fc	0.0054961424
15	0xbe1c5e0f	-0.15270256
16	0xbe2a50fd	-0.16632457
17	0xbddcd03a	-0.107819036
18	0xbe12e4c0	-0.14345074
19	0x3c92b0fc	0.017906658
20	0xbe4a1174	-0.1973322
21	0xbe7ad06b	-0.24493568
22	0xbd8c848c	-0.06861219
23	0x3d0de4c9	0.034642015
24	0xbe1d32a6	-0.15351352
25	0x3cc4d50e	0.024027374
26	0xbdf3ea6e	-0.11909948
27	0xbe6845c4	-0.22682863
28	0xbd8d95ee	-0.069133624
29	0xbde22ae1	-0.11043335
30	0xbe00e1a4	-0.12586075
31	0xbdb8547b	-0.09000488
32	0xbd57030e	-0.052493148
33	0xbd4bff35	-0.04980393
34	0xbcacd988	-0.02109982
35	0xbe89d684	-0.26921475
36	0xbd78b73b	-0.060721617
37	0xbaf7fd05	-0.001892001
38	0xbd736e75	-0.059431512
39	0xbe0b8557	-0.13625084
40	0xbe78b378	-0.24287212
41	0x3b9e855c	0.004837675
42	0xbc9a8f70	-0.018867224
43	0xbdf54256	-0.11975543
44	0xbe497f98	-0.1967758
45	0x3cbf30a8	0.02333863
46	0xbdd0dbe4	-0.10198191
47	0xbdb5e884	-0.088822395
48	0xbb348460	-0.0027544722
49	0xbd5099e5	-0.050928015
50	0xbdc4d4f9	-0.09610934
51	0xbe2e8698	-0.17043531
52	0xbe0d6564	-0.13808209
53	0xbdb06afe	-0.08614157
54	0xbd85f581	-0.06540967
55	0xbde7d1ef	-0.113193385
56	0xbd3f7610	-0.046743453
57	0xbe072545	-0.13197811
58	0xbe5e04b6	-0.21681485
59	0xbdd7ef96	-0.10543744
60	0xbe23fdc8	-0.16014779
61	0xbd9391dc	-0.07205555
62	0xbca30cc2	-0.019903544
63	0xbda0aec4	-0.07845834
64	0xbe2c9b35	-0.16856082
65	0xbda15f80	-0.07879543
66	0xbcaf67a4	-0.021411724
67	0x3c0a2349	0.008431264
68	0x3c0233a1	0.00794688
69	0xbe3f9b3f	-0.18711565
70	0xbcd6aeb8	-0.02620636
71	0xbe1c29fe	-0.15250394
72	0xbd33f60c	-0.04393582
73	0xbd20ba4a	-0.03924016
74	0xbe79e906	-0.24405298
75	0xbd40962a	-0.047018208
76	0xbcd9e358	-0.026597664
77	0xbdb77971	-0.0895871
78	0xbe2fba39	-0.17160882
79	0xbdae6ec2	-0.08517219
80	0xbddd3dde	-0.10802816
81	0xbc22c63f	-0.009934961
82	0x3d142c4a	0.03617505
83	0xbd70d2b8	-0.058794707
84	0xbd1c82eb	-0.03821079
85	0xba9ab2e0	-0.0011802576
86	0xbbc42288	-0.0059855618
87	0xbd70e0a4	-0.058807984
88	0xbce5b420	-0.028039992
89	0xbd930ed9	-0.07180566
90	0xbe32a286	-0.1744481
91	0xbe01372e	-0.12618706
92	0xbd93199a	-0.071826175
93	0xbd8fee0e	-0.07027827
94	0xbd98d155	-0.07461802
95	0xbcb45c94	-0.022016801
96	0xbd8a81dc	-0.0676305
97	0xbd85467b	-0.06507584
98	0xbe12b4c0	-0.14326763
99	0xbe0905f5	-0.13381179
100	0xbdf8a9f6	-0.121417925
101	0xbd7b7ae1	-0.061396483
102	0xbdc1f782	-0.094710365
103	0xbe3b0b95	-0.18266137
104	0xbd5c8137	-0.053834166
105	0xbe52a8ad	-0.20572157
106	0xbe3d3755	-0.18478139
107	0xbde80ef7	-0.11330979
108	0xbe1b669c	-0.15175861
109	0xbc6ecb80	-0.014574885
110	0xbe654fb0	-0.2239368
111	0xbe929a9f	-0.28633592
112	0xbe5e3603	-0.21700291
113	0xbe0edbef	-0.13951086
114	0xbe3a59ba	-0.1819829
115	0xbe00c65b	-0.12575667
116	0xbe5797ae	-0.21053955
117	0xbe748a38	-0.23880851
118	0xbe26e9d9	-0.16300143
119	0xbd5e228c	-0.054232165
120	0xbe0eaa4b	-0.13932149
121	0xbdec801b	-0.11547872
122	0xbc263568	-0.010144569
123	0xbdd7cee6	-0.105375096
124	0x3ccbf3c8	0.024896517
125	0xbd85a280	-0.06525135
126	0xbb174638	-0.0023082625
127	0xbe1588dc	-0.14602989
128	0xbdd1f237	-0.10251277
129	0xbd0b8303	-0.03406049
130	0xbdb82b36	-0.08992617
131	0xbd13ca86	-0.036081813
132	0xbe2be926	-0.16788158
133	0xbe5036db	-0.20333426
134	0xbe189322	-0.14899877
135	0x3cf5dfe5	0.030013988
136	0xbd78fde4	-0.060789004
137	0xbe09345a	-0.13398877
138	0xbe1eb3fc	-0.15498346
139	0xbdb4238c	-0.087958425
140	0xbd28ba49	-0.04119328
141	0xbd1bcc8b	-0.038036864
142	0xbe17eb19	-0.14835776
143	0xbd0b93e4	-0.034076586
144	0xbd697b16	-0.05700215
145	0xbe16430a	-0.14674011
146	0xbdf73ad4	-0.120717674
147	0xbe9fbb97	-0.31197807
148	0xbe48a4c2	-0.195941
149	0xbd840972	-0.06447114
150	0xbe086b2e	-0.13322136
151	0xbddb139d	-0.106971
152	0xbd86c0e1	-0.065797575
153	0xbd689e0b	-0.056791347
154	0xbd87d5f2	-0.06632604
155	0xbd8c92a4	-0.06863907
156	0xbddec29c	-0.108769625
157	0xbdf58852	-0.11988892
158	0xbc7e45e8	-0.015519597
159	0xbc9b8dbe	-0.018988486
160	0x3c0cd2bc	0.008595165
161	0xbda864f2	-0.08222379
162	0xbdc095e1	-0.09403587
163	0x3a4dbe3d	0.0007848477
164	0xbe067ee6	-0.13134345
165	0xbda119f1	-0.07866276
166	0xbc9157a7	-0.017741991
167	0x3c24bdf1	0.010055051
168	0x3bc3831a	0.0059665563
169	0xbdbc83c4	-0.0920482
170	0xbe015a41	-0.12632085
171	0xbda868f5	-0.08223144
172	0xbdd2a6ae	-0.10285698
173	0xbc7c4606	-0.015397554
174	0xbe0312db	-0.12800162
175	0xbd11eb75	-0.03562494
176	0xbc9a4e62	-0.018836204
177	0x3c512e74	0.012767423
178	0xbd68ef20	-0.056868672
179	0xbd115b8a	-0.03548769
180	0xbde8f580	-0.113749504
181	0xbc965c70	-0.018354625
182	0xbc62f6d1	-0.013852791
183	0xbd959e51	-0.07305587
184	0xbda6ff73	-0.08154192
185	0xbb8af14c	-0.0042401906
186	0xbaa5b6ae	-0.0012642944
187	0xbc0c00e0	-0.0085451305
188	0xba84aa3e	-0.0010121537
189	0xbd38c5c3	-0.045110475
190	0xbd92aee4	-0.07162264
191	0xbdd5a148	-0.104311526
192	0xbb1af84e	-0.0023646536
193	0xbe1172bc	-0.14203924
194	0xbdcda57c	-0.10041329
195	0xbe0add80	-0.13561058
196	0x3bd900d1	0.006622412
197	0xbd70a816	-0.05875405
198	0x3c0fbc12	0.008772867
199	0xbd1719dc	-0.036889896
200	0xbd9f3b99	-0.07775039
201	0xbda8fac8	-0.08250958
202	0xbdc672ec	-0.09689888
203	0xbccf02d8	-0.02526991
204	0xbd70c280	-0.05877924
205	0xbc1ae778	-0.0094546005
206	0x3c6d764b	0.014493535
207	0xbd8766ac	-0.0661138
208	0xbd36f00a	-0.044662513
209	0xbdd7d7c4	-0.10539201
210	0xbdb33162	-0.087496534
211	0x3ce497cc	0.027904414
212	0xbe04c1b4	-0.12964517
213	0xbdcbbf7c	-0.09948632
214	0xbdc6ba61	-0.09703518
215	0x3cfb67db	0.03068917
216	0xbc6c0f21	-0.014407904
217	0x3b6639d6	0.0035129688
218	0xbde9a1a6	-0.11407785
219	0xbdd043cc	-0.10169181
220	0xbd99af52	-0.07504143
221	0xbca3b850	-0.019985348
222	0xbcd1583c	-0.025554769
223	0xbce44b0c	-0.027867816
224	0xbdfc0ce0	-0.12307143
225	0xbdad6dbe	-0.08468197
226	0xbd85cf11	-0.065336354
227	0xbdfbdd10	-0.12298024
228	0xbde7fb59	-0.11327238
229	0xbd15c2f2	-0.036562867
230	0xbe092b06	-0.13395318
231	0xbd874b76	-0.0660619
232	0xbdc492e6	-0.09598331
233	0xbde93ebc	-0.11388919
234	0xbda20355	-0.07910792
235	0xbe09f3d3	-0.13471918
236	0xbd665884	-0.05623676
237	0xbd75e91a	-0.060036756
238	0xbd37fcf3	-0.044918966
239	0xbd850880	-0.06495762
240	0xbe0d3aa9	-0.13791908
241	0xbd878d42	-0.0661874
242	0xbdb66a67	-0.089070134
243	0xbd10f5fc	-0.03539084
244	0xbcdb2626	-0.026751589
245	0xbb326a54	-0.002722402
246	0x3c70de08	0.014701374
247	0xbd9578d4	-0.07298437
248	0xbdef60cb	-0.11688384
249	0x3ba6cc87	0.0050902995
250	0xbc73452f	-0.014848038
251	0xbc9252ca	-0.017861743
252	0xbda5da4b	-0.08098277
253	0xbd894935	-0.06703416
254	0xbdd07331	-0.10178221
255	0x3b42656e	0.0029662508

conv2.bias f4 [16]
0	0xbd3315ec	-0.04372208
1	0xbe276a6f	-0.16349195
2	0xbda21f53	-0.07916131
3	0x3ee0bdb5	0.43894735
4	0xbe006c94	-0.1254142
5	0xbd41b0ee	-0.047287874
6	0xbdc5a933	-0.09651413
7	0x3ef89e96	0.4855849
8	0x3e977a56	0.29585522
9	0x3dccd736	0.10001986
10	0xbd949d80	-0.07256603
11	0xbe10a723	-0.14126258
12	0x3da31e0b	0.079647146
13	0xbe14df91	-0.14538409
14	0x3eddee1e	0.43345731
15	0x3d5240fe	0.051331513

fc1.weight f4 [120, 400]
0	0xbe1f790a	-0.15573516
1	0x3cb6e4b1	0.022325845
2	0xbd96bb6e	-0.07359968
3	0xbd0b5347	-0.034014966
4	0x3d828b84	0.06374267
5	0xbc95deeb	-0.018294772
6	0x3dc035a2	0.0938523
7	0x3be43da0	0.006965354
8	0xbc8245c4	-0.015902407
9	0x3d75a7c1	0.059974436
10	0xbcde6e82	-0.027152304
11	0x3c871087	0.016487373
12	0xbdc4280d	-0.095779516
13	0xbdcbe589	-0.0995589
14	0xbbf5e89b	-0.0075045354
15	0x3c2eae94	0.01066174
16	0x3e01be3d	0.12670226
17	0x3e03c728	0.12868941
18	0xbc685f16	-0.0141828265
19	0x3d02f386	0.031970523
20	0xbcb0cc10	-0.02158168
21	0x3d3d49ac	0.046212837
22	0x3d038e95	0.0321184
23	0x3cd93720	0.026515543
24	0x3d4772cb	0.04869346
25	0x3d26bd25	0.040707726
26	0x3d29b1de	0.041429393
27	0x3dbea4f6	0.093088076
28	0x3ba8fb94	0.0051569436
29	0xbd0922b3	-0.033480357
30	0x3cdbed7e	0.026846644
31	0x3dab32a5	0.08359269
32	0x3ce884ff	0.02838373
33	0xbc3906be	-0.011293111
34	0x3d9b164e	0.07572614
35	0x3d4fa2ab	0.05069224
36	0x3b27915c	0.0025568819
37	0xbb8277de	-0.0039815744
38	0x3cb9de0e	0.022688892
39	0x3d0fe7e0	0.035133243
40	0xbcfeaf73	-0.03108952
41	0xbd03d3d2	-0.03218443
42	0x3d4a06ea	0.049323
43	0xbcacb164	-0.02108068
44	0xbc568ede	-0.013095586
45	0x3cdef7fd	0.02721786
46	0xbcedc90c	-0.02902653
47	0x3c5582a4	0.013031635
48	0x3d48ed81	0.049054626
49	0xbccb1164	-0.024788566
50	0xbd3b0fe9	-0.04566947
51	0xbd94e5c4	-0.07270387
52	0x3ca67d52	0.02032343
53	0xbd076681	-0.03305674
54	0xbd1026a1	-0.03519309
55	0xbbc473e4	-0.0059952606
56	0xbd1dbfd2	-0.038513012
57	0xbb8f8d77	-0.0043808776
58	0xbca84ad6	-0.020543497
59	0xbda1e77d	-0.07905481
60	0x3c986297	0.018601699
61	0xbc6b11e6	-0.014347529
62	0xbbe24858	-0.0069055967
63	0x3c58209d	0.013191369
64	0xbd9ea2ab	-0.0774587
65	0xbd4768d4	-0.048683956
66	0x3d2bd267	0.041948702
67	0x3c276c7e	0.010218738
68	0x3d11ec96	0.035626017
69	0xbb33dc8a	-0.0027444684
70	0x3ca9db76	0.02073453
71	0x3d6b0afd	0.057383526
72	0x3ccefd02	0.025267128
73	0xbb1f9e0c	-0.0024355678
74	0x3cf18f20	0.029487193
75	0xbd1a5769	-0.037681017
76	0xbc46de7c	-0.012138005
77	0xbe3d80e9	-0.18506207
78	0xb98d2700	-0.00026922673
79	0xbd884d44	-0.06655362
80	0xbdfec861	-0.12440563
81	0xbe1cfa24	-0.15329796
82	0xbe897bf0	-0.2685237
83	0xbe088b9d	-0.13334508
84	0x3dfb060c	0.12257013
85	0x3dce816e	0.100832805
86	0x3bc95940	0.0061446726
87	0xbdbcf251	-0.09225906
88	0x3c677886	0.014127856
89	0x3d24b688	0.040213138
90	0x3e3948d6	0.18094191
91	0x3e0c98e4	0.13730198
92	0x3ddfd8c6	0.10930018
93	0x3dc7f16b	0.09762844
94	0x3e03fb7e	0.12888905
95	0x3e51e28a	0.20496574
96	0x3e0fa3e8	0.14027369
97	0x3e341ecc	0.17589873
98	0x3dd829df	0.10554861
99	0x3e873760	0.26409435
100	0xbc0732e8	-0.008251883
101	0x3d23b86a	0.039970793
102	0xba6a7410	-0.0008943686
103	0x3d756504	0.05991079
104	0x3c62d280	0.013844132
105	0x3d1b3992	0.0378967
106	0xbc489ee6	-0.012244916
107	0x3d96d3f2	0.07364644
108	0x3cb3167f	0.021861313
109	0xbcb6c969	-0.022312837
110	0x3d4ac477	0.04950377
111	0xbcbbe23d	-0.022935027
112	0x3c2dd6aa	0.010610262
113	0x3d8005c0	0.06251097
114	0x3d38dfa8	0.04513517
115	0x3d66b92c	0.056328937
116	0xbc371a2a	-0.011175672
117	0xbc085252	-0.008320408
118	0x3d9ca120	0.0764792
119	0x3c200a2f	0.009768053
120	0x3c4ec38b	0.012619863
121	0x3a7df3b8	0.0009687501
122	0x3d58ed54	0.05296071
123	0x3d5678ba	0.052361228
124	0x3cf1b126	0.029503416
125	0xbd0006f4	-0.03125663
126	0x3c988d18	0.018621966
127	0x3c989308	0.018624797
128	0x3c337ff3	0.010955798
129	0xbba309c1	-0.004975528
130	0x3ca53b53	0.02016989
131	0x3b65a1e8	0.003503913
132	0x3d68a1d8	0.05679497
133	0xbd0099e8	-0.031396776
134	0x3d0e9c43	0.03481699
135	0xbcab5fee	-0.020919766
136	0xbcdc22a4	-0.026871987
137	0xbc858070	-0.016296595
138	0x3d3ad1b2	0.045610137
139	0xbcab3a08	-0.020901695
140	0x3ca08136	0.019592863
141	0x3d63a3c7	0.055576112
142	0xbc9c7fdd	-0.019103939
143	0x3d4120dd	0.04715048
144	0x3d08cc22	0.0333978
145	0x3d00f88a	0.031487025
146	0x3d0115f5	0.03151508
147	0x3cc08026	0.023498606
148	0x3caca652	0.021075401
149	0xbbc16c74	-0.005902821
150	0xbd2ac278	-0.041689366
151	0xbd935ed0	-0.071958184
152	0xbd80e644	-0.0629392
153	0x3da4650a	0.08027084
154	0x3d0a8ef0	0.033827722
155	0xbdc4042a	-0.09571107
156	0x3de8e288	0.113713324
157	0x3dd1b34c	0.10239276
158	0x3d8ee370	0.06976974
159	0x3d2d7d54	0.04235585
160	0xbddf7a4d	-0.10911999
161	0x3c1beed0	0.009517387
162	0x3dc18dbc	0.09450862
163	0x3dc4b533	0.096048735
164	0xbcfebce6	-0.031095933
165	0xbda05cfa	-0.07830234
166	0x3d101023	0.03517164
167	0x3bc2c1e4	0.0059435237
168	0xbde61565	-0.112345494
169	0xbdf537ce	-0.119735345
170	0xbdfeaf89	-0.124358244
171	0xbdda25c5	-0.10651735
172	0x3b3016f4	0.002686915
173	0xbc909011	-0.017646821
174	0xbdcc0cc6	-0.09963374
175	0xbd3ff55f	-0.046864863
176	0xbd8f933c	-0.070105046
177	0xbd9aabfa	-0.07552333
178	0xbdd92ec4	-0.10604623
179	0xbe29b076	-0.16571221
180	0xbd1188a1	-0.03553069
181	0xbe1b0ced	-0.1514165
182	0xbeb0b435	-0.34512487
183	0xbea133b6	-0.31484765
184	0xbe01bfb3	-0.12670784
185	0x3e793437	0.24336325
186	0x3ccc4f48	0.024940148
187	0xbe9b218a	-0.30299026
188	0xbe55432e	-0.20826408
189	0xbd85f585	-0.0654097
190	0x3e6bd6f6	0.2303122
191	0x3e1d43b1	0.15357853
192	0xbd6e57d4	-0.05818923
193	0xbd8154bb	-0.06314989
194	0x3e39ec78	0.18156612
195	0x3e7704ca	0.2412292
196	0x3e607f92	0.21923664
197	0x3e59b3f4	0.21260053
198	0x3e5a6bdc	0.21330208
199	0x3e7cc87c	0.24685854
200	0xb994e3c0	-0.00028398447
201	0xbd748daa	-0.059705414
202	0xbcf1e518	-0.029528186
203	0xbd084812	-0.033271857
204	0x39da0400	0.0004158318
205	0xbcaa541b	-0.020792058
206	0xbd90aa1b	-0.07063695
207	0xbe20cc76	-0.15702996
208	0xbd566776	-0.05234476
209	0x3e0dc368	0.13844073
210	0x3e0b59f2	0.1360853
211	0xbc9381a3	-0.018006152
212	0xbe38c7d2	-0.18044975
213	0xbe385088	-0.1799947
214	0x3de6d1ec	0.11270508
215	0x3cd05120	0.025429308
216	0xbd86a50a	-0.065744475
217	0xbc47ff5f	-0.012206881
218	0x3cf5a654	0.029986538
219	0x3e5fb9ed	0.21848269
220	0xbbd68972	-0.0065471465
221	0xbde1d7fe	-0.11027525
222	0xbdb50f24	-0.088407785
223	0x3d51ec31	0.05125064
224	0x3d8a328d	0.06747923
225	0xbd591a38	-0.05300352
226	0xbd147735	-0.036246497
227	0x3bd6b08e	0.0065518087
228	0xbc9843c0	-0.018586993
229	0xbe0b0964	-0.13577801
230	0x3d0eb16f	0.034837183
231	0x3c970643	0.018435603
232	0xbe37827e	-0.17920873
233	0xbc879f9d	-0.016555602
234	0xbd684468	-0.056705862
235	0x3d56a83e	0.052406542
236	0xbd2b2cf0	-0.041790903
237	0xbda0f3da	-0.07859011
238	0x3d9aef62	0.0756519
239	0x3d5365c1	0.051610712
240	0xbda78c4e	-0.08181058
241	0x3a9d44f0	0.0011998694
242	0xbd85a960	-0.06526446
243	0x3db68150	0.08911383
244	0xbd3fb016	-0.046798788
245	0xbcef6256	-0.029221695
246	0x3d2d8802	0.042366035
247	0xbd799eda	-0.06094251
248	0xbd6e4f5f	-0.058181163
249	0xbdd346e8	-0.10316259
250	0xbd2483a6	-0.040164612
251	0xbce285ba	-0.027651656
252	0xbbb62a3e	-0.005559235
253	0x3d38ec22	0.04514707
254	0xbcca3b86	-0.024686586
255	0xbd2be1a6	-0.041963242

fc1.bias f4 [120]
0	0xbe791706	-0.24325189
1	0xbe030cd0	-0.12797856
2	0xbe3ce1f8	-0.18445575
3	0xbc1163bc	-0.008873876
4	0xbde5ed92	-0.112269536
5	0x3ea491f2	0.32142597
6	0xbddef482	-0.1088648
7	0x3e3f8d31	0.18706204
8	0x3e7685fa	0.24074546
9	0xbe2db6e8	-0.16964304
10	0xbdd91adb	-0.106008254
11	0xbe0e3567	-0.13887559
12	0xbdd6baad	-0.10484824
13	0xbd88124e	-0.06644116
14	0x3e378297	0.1792091
15	0x3d3655c1	0.044515375
16	0xbe1d0842	-0.15335181
17	0xbe9c30a9	-0.30505875
18	0xbe482a42	-0.1954737
19	0x3d2def92	0.0424648
20	0x3e544b74	0.20731908
21	0xbdd2deaa	-0.10296376
22	0xbdb62a00	-0.088947296
23	0xbcafcf1e	-0.021461066
24	0xbd149a12	-0.036279745
25	0xbde68959	-0.11256666
26	0xbddb2f72	-0.10702409
27	0xbe216492	-0.15761021
28	0xbe1004a8	-0.14064276
29	0xbc5850c8	-0.0132028535
30	0xbde8d00c	-0.11367807
31	0xbda6fb85	-0.08153442
32	0xbdf53c48	-0.11974388
33	0xbdb6ff7e	-0.0893545
34	0xbda899c4	-0.082324535
35	0xbcc99efa	-0.024611939
36	0xbdcfa9a8	-0.10139781
37	0xbdd7d0d4	-0.10537878
38	0xbc1e63bc	-0.009667333
39	0xbdd1d3d9	-0.10245485
40	0x3c4d1f2e	0.012519641
41	0xbe15c816	-0.14627108
42	0xbe357986	-0.17722139
43	0xbe18e146	-0.14929685
44	0xbd9d4364	-0.07678869
45	0xbe02dd8a	-0.12779823
46	0xbdd410d0	-0.10354769
47	0x3bf0cad8	0.0073483996
48	0xbe005f69	-0.12536396
49	0x3dc3b214	0.0955545
50	0xbde3ffb1	-0.11132754
51	0xbe09f1e9	-0.13471188
52	0x3dc6a170	0.096987605
53	0xbde376cf	-0.11106645
54	0xbdc959a4	-0.09831551
55	0xbdfdd9ce	-0.123950586
56	0xbd6ffcdc	-0.058590755
57	0x3e709c69	0.23497166
58	0xbe418b6a	-0.18900838
59	0xbda32382	-0.07965757
60	0xbc98b5ca	-0.018641371
61	0xbdf7655b	-0.12079879
62	0x3dfc7fd2	0.12329067
63	0x3e8db420	0.27676487
64	0xbe88881f	-0.26666352
65	0xbe131100	-0.14361954
66	0xbe11730a	-0.1420404
67	0xbdc801ed	-0.09765992
68	0xbdd18cde	-0.102319464
69	0xbe92bb4c	-0.2865852
70	0xbe40157b	-0.18758194
71	0xbdcad674	-0.09904185
72	0xbe285f2f	-0.1644256
73	0xbd51f152	-0.05125553
74	0xbdfd4c98	-0.12368125
75	0xbe3381ea	-0.17530027
76	0xbcea207b	-0.028579941
77	0xbe780544	-0.24220759
78	0x3e9da36e	0.3078875
79	0xbd2a664c	-0.041601464
80	0xbd496a47	-0.04917362
81	0xbdbcf2b2	-0.09225978
82	0xbdc77eab	-0.09740957
83	0xbe43fde7	-0.19139825
84	0x3cf6559e	0.030070122
85	0xbe43efe8	-0.19134486
86	0xbd1f4164	-0.03888072
87	0xbdb91027	-0.09036284
88	0xbd433b44	-0.047663942
89	0x3e069117	0.13141285
90	0xbc7f8f04	-0.015598062
91	0xbe2b2205	-0.16712196
92	0xbddd8079	-0.1081552
93	0xbd76a3f5	-0.060214955
94	0xbe24dccd	-0.16099854
95	0xbcbcc12c	-0.02304133
96	0xbe23aef8	-0.15984714
97	0xbe450a9c	-0.19242328
98	0xbdc103df	-0.094245665
99	0xbdfde43e	-0.12397049
100	0xbd140b93	-0.03614385
101	0xbe190bde	-0.14945933
102	0xbe46db3e	-0.19419572
103	0xbda66466	-0.08124618
104	0x3e79e353	0.24403124
105	0x3dd99acd	0.10625229
106	0xbdaa6d88	-0.08321673
107	0xbda9a20c	-0.08282861
108	0xbcb284f4	-0.021791913
109	0xbe04649f	-0.12929009
110	0xbd82ab17	-0.06380289
111	0xbe85d128	-0.26136136
112	0xbe0b3277	-0.1359347
113	0x3e4c9568	0.19978869
114	0x3d95a65c	0.07307121
115	0xbe08b101	-0.13348772
116	0x3e787582	0.24263576
117	0xbe22b1b0	-0.15888095
118	0xbde1ec2a	-0.11031373
119	0xbe0711d8	-0.131904

fc2.weight f4 [84, 120]
0	0x3e4dfea2	0.20116666
1	0xbb5e90e0	-0.0033960864
2	0xbcfa2798	-0.030536458
3	0xbe31bf94	-0.17358238
4	0xbd39a287	-0.045321014
5	0xbeffde95	-0.49974504
6	0xbd520092	-0.051270075
7	0xbeeb5d52	-0.45969635
8	0xbea704fa	-0.32620984
9	0xbcd1b6af	-0.025599806
10	0x3d07d033	0.03315754
11	0x3d037f68	0.032103926
12	0xbcf56776	-0.02995656
13	0xbcf6975f	-0.030101476
14	0xbe7fb9f2	-0.24973276
15	0xbdf9e5ba	-0.1220202
16	0xbcba969e	-0.022776898
17	0x3d14e5e0	0.03635204
18	0x3e060721	0.13088657
19	0xbe3ee9ba	-0.18643847
20	0xbe8fbcf0	-0.28073835
21	0xbd4db458	-0.050220817
22	0x3b3e1875	0.0029006277
23	0xbcb19d11	-0.02168134
24	0xbdaa7788	-0.0832358
25	0xbdfd1394	-0.1235725
26	0xbdc7b744	-0.09751752
27	0xbaac05a0	-0.0013124235
28	0xbd46b423	-0.048511636
29	0xbe279432	-0.16365126
30	0xbc6585d5	-0.014008959
31	0xbdb971a2	-0.09054877
32	0xbd782bea	-0.060588755
33	0x3c15d16c	0.009144168
34	0xbd5ad017	-0.053421106
35	0xbe6191f6	-0.22028336
36	0xbd08a4ab	-0.033360165
37	0xbd49d615	-0.04927643
38	0x3ba1acc8	0.004933927
39	0xbd088b14	-0.03333576
40	0xbd94a7f0	-0.07258594
41	0x3e58092b	0.21097247
42	0xbd85cb5a	-0.06532927
43	0xbda915cb	-0.0825611
44	0xbe07845c	-0.13234085
45	0x3d1ae9b7	0.037820544
46	0xbe1f9d2c	-0.155873
47	0xbdf40cf9	-0.11916537
48	0x3d7208b2	0.059090324
49	0xbe1fc228	-0.15601408
50	0xbdd1c808	-0.10243231
51	0x3da95078	0.08267301
52	0xbe6d7436	-0.23188862
53	0xbe2ec2fd	-0.1706657
54	0xbd0617ae	-0.032737426
55	0xbe172a16	-0.14762148
56	0x3bada2fa	0.0052989693
57	0xbf06bf8e	-0.5263604
58	0x3d530f8e	0.051528506
59	0x3defcf87	0.117095046
60	0x3e5dc34a	0.21656528
61	0x3da46d66	0.080286786
62	0xbe393232	-0.18085554
63	0xbe16ffb5	-0.14745982
64	0x3ddf7eb9	0.10912842
65	0xbdc1b2fd	-0.094579674
66	0x3c4a601d	0.012352017
67	0x3d302744	0.043006197
68	0x3c4eabbd	0.012614188
69	0xbcaf69df	-0.021412788
70	0xbdeda0be	-0.11602925
71	0xbde3d973	-0.111254595
72	0x3ca02f36	0.019553762
73	0xbe0753dc	-0.13215584
74	0x3e1f6d46	0.15569028
75	0xbdb3c234	-0.08777276
76	0x3cd25e98	0.025679871
77	0x3de6a114	0.11261192
78	0xbee3a581	-0.44462207
79	0xbe293b85	-0.16526611
80	0x3cd39f3e	0.025832769
81	0x3b423440	0.0029633194
82	0xbd81367f	-0.063092224
83	0xbc1f5108	-0.009723909
84	0xbdfefeaf	-0.12450921
85	0x3e6c615c	0.23084015
86	0xbdfdc8a6	-0.12391786
87	0xbdb55704	-0.088544875
88	0xbde8ffd6	-0.11376922
89	0xbe914381	-0.28371814
90	0xbdfa44b4	-0.12220135
91	0xbb4b94cc	-0.0031064032
92	0x3d1c2fa7	0.038131382
93	0x3d92ca67	0.071675114
94	0xba91e34c	-0.0011130362
95	0x3ca7c45c	0.020479374
96	0x3dcc03bb	0.09961649
97	0x3dafe743	0.085890315
98	0x3ec17f9e	0.37792677
99	0xbc58e165	-0.013237332
100	0xbde49ef2	-0.11163129
101	0x3e1f61aa	0.155646
102	0x3e29d68c	0.1658575
103	0xbc80b244	-0.015710004
104	0xbf0995bc	-0.537441
105	0xbe4ec7c6	-0.20193395
106	0x3d3866d0	0.045019925
107	0x3c4bbc31	0.012435005
108	0x3dc51998	0.09624022
109	0x3d309b44	0.043116823
110	0xbc704eac	-0.014667194
111	0x3d631ab6	0.055445395
112	0xbdbb1f07	-0.09136777
113	0xbe1a9ab6	-0.1509808
114	0xbe59194f	-0.2120106
115	0xbc34765c	-0.011014547
116	0xbed1ca80	-0.40974808
117	0x3d9d7b27	0.07689505
118	0xbd04d23c	-0.032427058
119	0x3c3cde2d	0.01152758
120	0xbe4e4582	-0.20143703
121	0xbe005e1f	-0.12535904
122	0xbc5c486d	-0.013445002
123	0xbde82391	-0.11334909
124	0x3b8b64d0	0.004253961
125	0xbe4d1d56	-0.20030722
126	0xbb2d1948	-0.0026412774
127	0xbdb5b06f	-0.08871543
128	0xbcfc30cd	-0.030784989
129	0xbcf9c8f6	-0.030491333
130	0x3d48f4e1	0.04906166
131	0xbc259085	-0.010105257
132	0x3d30d2a1	0.04316962
133	0x3c7db058	0.015483938
134	0xbe20e026	-0.15710506
135	0xbe733a12	-0.23752621
136	0xbd3a3ef5	-0.045470197
137	0xbdefb692	-0.117047444
138	0xbb89ed1e	-0.004209175
139	0xbe4cb7ac	-0.1999194
140	0xbdcaa38a	-0.09894474
141	0x3d326f26	0.04356303
142	0x3d156962	0.036477454
143	0x3d80b41e	0.062843546
144	0xbd9e5f7e	-0.077330574
145	0x3c85f54d	0.01635232
146	0xbe44e579	-0.19228162
147	0x3d23a655	0.03995355
148	0xbda50da8	-0.08059245
149	0xbdfa461a	-0.12220402
150	0xbd6f71c6	-0.058458112
151	0xbe576bfa	-0.21037284
152	0xbe52d6a6	-0.20589694
153	0xbe8af802	-0.2714234
154	0x3b0c95ec	0.0021451665
155	0xbdd9c19b	-0.106326304
156	0xbdb0a7a6	-0.086257264
157	0x3db58e48	0.088650286
158	0x3de87283	0.113499664
159	0xbd15457e	-0.036443226
160	0xbcbe304c	-0.02321639
161	0xbe000492	-0.12501743
162	0xbe3e968f	-0.18612121
163	0x3d956143	0.07293942
164	0x3cefaa60	0.029256046
165	0xbd0d4bb7	-0.034496035
166	0xbda01557	-0.0781657
167	0xbd809d91	-0.062800534
168	0xbdf8a756	-0.12141292
169	0xbe34fa34	-0.1767357
170	0xbc28cd25	-0.0103028165
171	0xbe11a4a4	-0.14222962
172	0xbe2eea5d	-0.1708159
173	0x3c89c3de	0.01681703
174	0x3dab30a7	0.08358889
175	0x3cac4e32	0.02103338
176	0xbc9cccac	-0.019140564
177	0xbd80db15	-0.062917866
178	0xbd7e8984	-0.062142864
179	0x3d92692b	0.071489654
180	0xbe0b41e1	-0.1359935
181	0x3dbc6aa1	0.09200025
182	0x3c859ab8	0.016309127
183	0xbe4b86f0	-0.19875693
184	0xbdafd538	-0.0858559
185	0xbd1e56cf	-0.038657006
186	0xbde38a9b	-0.11110421
187	0x3b89a5d6	0.0042006774
188	0xbdc06451	-0.09394134
189	0x3c3c36f8	0.011487715
190	0x3e2be70a	0.16787353
191	0xbd0de206	-0.03463938
192	0xbd114924	-0.035470143
193	0xbd808085	-0.06274513
194	0xbe9b7e55	-0.3036982
195	0x3c8cd2ab	0.017190298
196	0x3d6e331e	0.058154218
197	0xbe03ff5e	-0.12890384
198	0x3d2fc58c	0.042913005
199	0x3e2d206b	0.16906898
200	0xbc2a0cb6	-0.010379007
201	0xbdd22893	-0.10261645
202	0xbe4cf1cc	-0.20014113
203	0x3e16f4a2	0.14741758
204	0xbd87d232	-0.066318884
205	0xbdeeb1ca	-0.11655004
206	0xbe06a98d	-0.13150616
207	0x3d3295da	0.04359994
208	0x3daf1002	0.08547975
209	0xbdca0b46	-0.098654315
210	0xbe8afce7	-0.27146074
211	0x3daa2eb4	0.08309689
212	0xbd89160b	-0.066936575
213	0x3d56b242	0.052416094
214	0xbd895480	-0.0670557
215	0xbd5e560e	-0.054281287
216	0xbdbe03de	-0.09278081
217	0xbd93e7c7	-0.072219424
218	0xbe82ec60	-0.25570965
219	0xbd62acee	-0.0553407
220	0xbe58db58	-0.21177423
221	0xbecab386	-0.3959009
222	0xbd9d8073	-0.07690515
223	0xbde5d776	-0.112227365
224	0xbe2ebacc	-0.17063445
225	0xbe8f67d8	-0.28008914
226	0xbc91eb58	-0.017812416
227	0xbccec164	-0.0252387
228	0xbe5198f8	-0.20468509
229	0x3d3b1349	0.04567269
230	0x3db22275	0.086979784
231	0xbe50a68c	-0.20376033
232	0xbd4798e7	-0.048729803
233	0xbe683fb4	-0.22680551
234	0x3c34e1fe	0.011040209
235	0xbdbad14a	-0.0912195
236	0x3e0a3c26	0.13499507
237	0x3d2c09b3	0.042001437
238	0xbe3c52e4	-0.18390995
239	0xbdaa4faf	-0.0831598
240	0xbdf6e3ea	-0.1205519
241	0x3debbf1c	0.115110606
242	0xbd8c3eed	-0.0684794
243	0xbd071010	-0.032974303
244	0xbcbbfc7c	-0.022947542
245	0xbe8115fe	-0.2521209
246	0xbd04376a	-0.03227941
247	0xbb587a68	-0.0033031944
248	0xbdb625e8	-0.08893949
249	0xbdef2908	-0.11677748
250	0xbc5633f9	-0.013073915
251	0x3cfc7a80	0.030820131
252	0x3d3d87bf	0.046272036
253	0x3d621298	0.055193514
254	0x3d84476c	0.06458935
255	0x3db20c81	0.08693791

fc2.bias f4 [84]
0	0xbcffa7de	-0.031207975
1	0x3d3fe85b	0.04685245
2	0xbc46c322	-0.012131484
3	0x3d16fc02	0.036861427
4	0xbe184368	-0.14869463
5	0xbe2950ba	-0.16534701
6	0xbc54041e	-0.012940435
7	0xbdc5e62c	-0.096630424
8	0x3cb62983	0.022236591
9	0xbe293ba6	-0.1652666
10	0xbdb46235	-0.08807794
11	0xbe7d538a	-0.24738899
12	0xbe49cb76	-0.1970652
13	0xbd979903	-0.074022315
14	0xbe2ecc36	-0.17070088
15	0xbca6270c	-0.02028229
16	0xbe345f4d	-0.1761448
17	0xbdcdec94	-0.10054889
18	0xbd73474a	-0.05939416
19	0xbd08d65d	-0.033407558
20	0xbe4182d3	-0.18897562
21	0x3ea587c8	0.32330155
22	0xbda66348	-0.08124405
23	0xbe25a132	-0.16174772
24	0x3ecf8acd	0.40535584
25	0xbe5fa330	-0.21839595
26	0xbdc88824	-0.09791592
27	0xbd20aa36	-0.039224826
28	0xbe280653	-0.16408662
29	0x3e31639f	0.17323159
30	0x3dccede5	0.10006312
31	0xbd1a6edc	-0.03770338
32	0xbde94f61	-0.113920934
33	0xbdace08b	-0.08441266
34	0xbdc6c236	-0.097050115
35	0xbe1cd4a6	-0.15315494
36	0xbdd6ff42	-0.10497905
37	0xbd63e5cd	-0.055639077
38	0x3df427ec	0.11921677
39	0xbda178ef	-0.078843944
40	0xbd45af0b	-0.048262637
41	0x3c8c30f1	0.01711318
42	0xbe605834	-0.21908647
43	0xbe15e0c6	-0.14636526
44	0xbde6093d	-0.11232231
45	0x3e97114c	0.29505384
46	0xbe3ce514	-0.18446761
47	0x3dfb9aeb	0.12285408
48	0x3d8b3d60	0.06798816
49	0xbcf65a2d	-0.030072296
50	0x3e43b3a6	0.19111499
51	0xbe7c4e51	-0.2463925
52	0xbe4d1300	-0.20026779
53	0xba0f1084	-0.0005457478
54	0xbe100305	-0.14063652
55	0xbcd8ae15	-0.026450196
56	0xbd738e7e	-0.059462063
57	0xbdcdc0fc	-0.100465745
58	0xbd385c5a	-0.04500995
59	0xbdc1203a	-0.09429975
60	0xbddbe0e4	-0.10736254
61	0x3d3714ec	0.044697687
62	0xbd89531a	-0.067053035
63	0xbdeec1cd	-0.11658058
64	0xbda51f35	-0.08062593
65	0xbd016c71	-0.03159756
66	0x3f0f3ff2	0.5595695
67	0x3d59a722	0.053137906
68	0xbdc5c8a4	-0.0965741
69	0xbd69f48d	-0.057117987
70	0x3c540599	0.012940788
71	0xbd88648e	-0.06659804
72	0xbe6d80dc	-0.23193687
73	0xbd87256a	-0.06598933
74	0xbe124d59	-0.14287318
75	0xbde85ebf	-0.113461964
76	0xbd37dea3	-0.044890057
77	0xbd3d1d6f	-0.04617065
78	0xbd66d0ee	-0.056351595
79	0xbe2ac7a8	-0.16677725
80	0xbe05d20a	-0.13068405
81	0x3e6fb0c6	0.23407277
82	0xbdcd4ca8	-0.10024387
83	0x3d8d9aea	0.06914313

fc3.weight f4 [10, 84]
0	0xbe99c149	-0.30030277
1	0xbebd1cd6	-0.36936063
2	0xbdac6186	-0.084170386
3	0x3dfcf073	0.123505495
4	0x3cab6d0e	0.020926025
5	0xbe058478	-0.13038814
6	0xbe06f5dc	-0.13179725
7	0xbdd85ee2	-0.105649725
8	0xbe9985ef	-0.29984996
9	0xbe02e9f2	-0.12784556
10	0x3d43af20	0.047774434
11	0xbe49a1b0	-0.19690585
12	0xbe4cbb62	-0.19993356
13	0x3d9bb139	0.07602162
14	0xbd5f0360	-0.054446578
15	0xbe88214c	-0.26587903
16	0xbe052588	-0.13002598
17	0xbe0bf4ce	-0.13667604
18	0x3d79d15e	0.060990684
19	0xbe50de48	-0.20397294
20	0xbea58292	-0.3232618
21	0x3ca8beb6	0.02059875
22	0xbdb33124	-0.08749607
23	0xbe558438	-0.20851219
24	0x3e6efe7a	0.23339263
25	0xbddb961e	-0.10721992
26	0xbd11e7ba	-0.035621382
27	0xbe6a50c2	-0.22882369
28	0x3ca9de79	0.020735966
29	0x3e8ac74b	0.27105173
30	0x3d886289	0.06659419
31	0xbd85c6e4	-0.06532076
32	0xbdf5b921	-0.11998201
33	0xbe388d80	-0.18022728
34	0xbe28cc78	-0.16484249
35	0xbe09e4c1	-0.13466169
36	0xbe2e45f6	-0.17018875
37	0xbc82300b	-0.01589205
38	0x3e84c399	0.2593048
39	0xbe3a747a	-0.18208495
40	0xba025480	-0.0004971698
41	0xbde28a9e	-0.110615954
42	0xbe7fa5f6	-0.24965653
43	0xbe7fb20e	-0.24970266
44	0xbdaf3604	-0.085552245
45	0x3e46c6ea	0.19411817
46	0xbde2bc22	-0.1107104
47	0xbeb87562	-0.36027056
48	0x3e78d4fe	0.243
49	0xbeadccbd	-0.33945265
50	0x3ec92b10	0.39290667
51	0xbdc2412d	-0.094850875
52	0xbdd01bc6	-0.10161547
53	0xbcb8fdaf	-0.022581903
54	0xbe648162	-0.2231498
55	0x3d9c732f	0.07639157
56	0xbde257cc	-0.11051902
57	0x3d03f250	0.03221351
58	0xbe7a48ac	-0.24441785
59	0x3da907c0	0.08253431
60	0x3d8ccacc	0.06874618
61	0xbe863a01	-0.26216128
62	0xbdd8344e	-0.10556851
63	0xbe43d27d	-0.19123264
64	0xbc6fecb0	-0.014643833
65	0xbe51aa5d	-0.20475145
66	0x3de75a57	0.11296528
67	0x3d30c475	0.043156106
68	0x3cf1c246	0.029511582
69	0xbe370b6d	-0.17875452
70	0xbc6bc198	-0.014389418
71	0xbe5cb2b6	-0.21552548
72	0xbd5913f3	-0.05299754
73	0x3db6e575	0.08930484
74	0xbdbdd1bd	-0.0926852
75	0xbd07665e	-0.03305661
76	0xbd74bf82	-0.05975295
77	0x3d83a0a5	0.06427125
78	0xbd0b33d6	-0.03398498
79	0xbe06042f	-0.13087533
80	0xbd348580	-0.044072628
81	0x3cd41b3c	0.025891893
82	0xbddad9ba	-0.10686059
83	0xbeaf877d	-0.34283057
84	0xbee9fc7f	-0.45700452
85	0xbda17b48	-0.07884842
86	0xbe17a304	-0.1480828
87	0xb9fce880	-0.00048238412
88	0xbdc01bb4	-0.09380284
89	0xbe57c72d	-0.21072073
90	0xbe29c33c	-0.16578382
91	0xbc95244a	-0.01820578
92	0xbe8de745	-0.27715507
93	0xbcf75332	-0.030191038
94	0xbde3949e	-0.11112331
95	0xbe9aab85	-0.30208984
96	0xbe42e3b9	-0.19032182
97	0x3d0b1814	0.03395851
98	0xbe096d76	-0.13420662
99	0xbe7aeba0	-0.24503946
100	0xbe5cedcb	-0.21575086
101	0xbd4c45d7	-0.049871292
102	0xbdd91eeb	-0.106016
103	0xbe59a52b	-0.21254413
104	0xbe222967	-0.15836106
105	0x3e75fd8b	0.240225
106	0xbcce591b	-0.025188973
107	0xbd61b642	-0.055105455
108	0x3dddf8b2	0.108384505
109	0x3b0abf58	0.0021171179
110	0xbd74b5be	-0.059743635
111	0xbe24a4fd	-0.16078563
112	0xbe248172	-0.16065004
113	0xbd23482e	-0.039863758
114	0xbdb17122	-0.086641565
115	0x3ce5f88b	0.028072616
116	0xbdc7f487	-0.09763437
117	0xbe20ddd2	-0.15709618
118	0xbe092734	-0.13393861
119	0xbe50bc94	-0.20384437
120	0xbe46997a	-0.19394484
121	0xbe5d1fd8	-0.21594179
122	0xbd999597	-0.07499235
123	0xbe21f9e1	-0.15817977
124	0xbe289668	-0.16463625
125	0xbdbaf05b	-0.091278754
126	0xbe510f9e	-0.20416114
127	0xbd7eddf2	-0.062223382
128	0xbe0441ee	-0.12915775
129	0x3dfa4ae0	0.122213125
130	0xbe286649	-0.16445269
131	0xbe7bd627	-0.24593411
132	0xbd7105ce	-0.058843426
133	0xbdd77112	-0.10519613
134	0xbe3b8cd6	-0.18315443
135	0xbe54769a	-0.20748368
136	0xbd9e28fe	-0.077226624
137	0xbd631567	-0.055440333
138	0xbd5277d7	-0.05138382
139	0x3b5973bc	0.0033180555
140	0xbd6f7948	-0.058465272
141	0x3ae22f24	0.0017256481
142	0xbcbb271f	-0.022845803
143	0xbd471a84	-0.04860927
144	0x3d58c7a7	0.05292478
145	0xbe9cd079	-0.30627802
146	0xbccd6d28	-0.025076464
147	0xbe6c68df	-0.2308688
148	0x3d06fb2c	0.03295438
149	0xbe08101a	-0.13287392
150	0x3e966012	0.2937017
151	0x3cbe64b8	0.023241386
152	0x3cd4f67a	0.025996435
153	0xbe06d961	-0.13168861
154	0x3d173f00	0.036925316
155	0xbe824662	-0.25444323
156	0xbd3ab1c6	-0.045579694
157	0xbdcddb6c	-0.10051617
158	0xbde0a04f	-0.109680764
159	0x3cb3717f	0.021904705
160	0xbd9692cb	-0.07352217
161	0xbd81d1e6	-0.06338863
162	0xbd885c39	-0.06658215
163	0xbd1de490	-0.038548052
164	0xbce05ff8	-0.027389511
165	0x3e6e65d9	0.2328104
166	0x3c178f0e	0.0092504155
167	0xbe8aa3ba	-0.27078038
168	0x3d877da8	0.06615764
169	0xbe2b9f4e	-0.16759989
170	0xbdd0ea4a	-0.10200937
171	0xbd49f068	-0.049301535
172	0xbd254e06	-0.040357612
173	0xbdd27b38	-0.10277408
174	0xbd5b2298	-0.053499788
175	0xbde69330	-0.112585425
176	0xbd01d84b	-0.031700414
177	0xbe5002d1	-0.20313574
178	0x3c55a638	0.013040118
179	0xbe4eb502	-0.20186237
180	0xbeb2fd60	-0.34958935
181	0xbde9e0c0	-0.11419821
182	0xbcd4935e	-0.025949176
183	0xbcbe3d02	-0.02322245
184	0xbe239220	-0.15973711
185	0xbd496c0e	-0.049175315
186	0xbd5be5a0	-0.053685784
187	0xbd7ba8e1	-0.061440352
188	0xbdad83c5	-0.08472399
189	0xbe42b2ca	-0.19013515
190	0xbcdb1810	-0.026744872
191	0xbddc0479	-0.107430406
192	0xbdd0a889	-0.101883955
193	0xbde69af8	-0.11260027
194	0xbdc0e902	-0.09419443
195	0x3dbbb286	0.0916491
196	0xbd170978	-0.036874264
197	0x3da0c9dc	0.078510016
198	0x3e07da88	0.13266957
199	0xbd8ff70b	-0.070295416
200	0xbe8252e3	-0.25453863
201	0xbd590909	-0.052987132
202	0x3d9757ba	0.073897794
203	0xbc83c2eb	-0.016084155
204	0xbd864d56	-0.065577194
205	0x3cd692be	0.026193019
206	0xbd29ad66	-0.04142513
207	0xbd532cbc	-0.051556334
208	0xbdf1da10	-0.1180917
209	0xbdcafac5	-0.09911112
210	0xbd5e031a	-0.054202177
211	0xbd27368c	-0.040823504
212	0xbcd6210b	-0.026138803
213	0xbd5968bc	-0.053078398
214	0xbd8d7a61	-0.069081075
215	0x3d2dbf89	0.04241899
216	0x3d868f1a	0.06570263
217	0xbd6ab414	-0.057300642
218	0x3d2fac83	0.04288913
219	0x3d8e6a7e	0.069539055
220	0xbddc85f2	-0.107677355
221	0xbd9aeb36	-0.07564394
222	0xbea5cc37	-0.32382366
223	0x3be7ec06	0.0070776967
224	0xbcf51e2b	-0.029921612
225	0xbdf150cb	-0.11782988
226	0xbeb8405c	-0.35986602
227	0xbc8620b0	-0.016373008
228	0xbcee824f	-0.02911487
229	0x3ddd135f	0.1079471
230	0xbd8e6664	-0.06953123
231	0x3d5dad0b	0.054120105
232	0x3db466bb	0.08808657
233	0xbea427d0	-0.32061625
234	0xbe46cbb7	-0.19413649
235	0xbde88f1c	-0.11355421
236	0x39f51120	0.000467428
237	0xbe14ac53	-0.14518861
238	0xbdb068f0	-0.08613765
239	0x3c0879f7	0.00832986
240	0xbd80e3d0	-0.06293452
241	0xbdded9d6	-0.10881393
242	0xbe2591ba	-0.16168872
243	0xbd8f60f8	-0.07000917
244	0x3d1eff36	0.038817607
245	0x3dc9a1a6	0.09845285
246	0xbda5ed57	-0.081019096
247	0xbe06c748	-0.13161957
248	0x3a340880	0.00068677217
249	0xbdab71a6	-0.08371286
250	0xbd6865b2	-0.05673761
251	0x3d045724	0.032309666
252	0x3c3e58a1	0.01161781
253	0x3c87ed63	0.016592687
254	0xbe6aacea	-0.22917524
255	0xbe33e155	-0.17566426

fc3.bias f4 [10]
0	0xbdd51c53	-0.10405793
1	0x3dbd1a3b	0.09233519
2	0xbe1db56a	-0.15401235
3	0x3c29a945	0.010355298
4	0xbe35e04e	-0.17761347
5	0xbe3bf351	-0.18354537
6	0xbc694cf9	-0.014239543
7	0xbe20fb9e	-0.15720984
8	0xbd270ddb	-0.040784698
9	0x3ea1dbcb	0.31613
