final_model.pt (torch, 251845 bytes, 10 tensors)

conv1.weight f4 [6, 3, 5, 5]
-0.13901901 -0.24842776 -0.22539204 -0.28171733 -0.3149418 -0.10112202 -0.13005151 -0.0150306905
-0.1324561 -0.054828245 0.042998493 0.0046555363 0.16634518 0.17847213 0.116290316 -0.050564542
-0.099309966 -0.13584925 -0.023981158 -0.1282678 -0.3315211 -0.20923528 -0.32439744 -0.18282598
-0.15645255 -0.21139163 -0.10097109 -0.15389948 -0.17231481 0.0022673416 0.10321689 0.033682045
0.0022176136 0.022751654 0.13170975 0.11463718 0.27378625 0.25689846 0.13160247 0.17786454
0.049410228 -0.0064369724 0.11827385 0.016567457 -0.06434582 -0.16217308 -0.2231853 -0.08172584
-0.26121026 -0.09302902 -0.017106717 -0.035466906 0.05583003 0.04298347 0.01900509 0.12162084
0.15505531 0.10228905 0.23089805 0.2611006 0.37248987 0.2303446 0.36408335 0.18585464
0.29807273 0.1805536 0.18032013 0.18067148 0.11112332 0.18042822 -0.012216391 -0.058825616
-0.11133587 0.026557326 -0.07077735 -0.095889315 0.023383606 -0.08798714 -0.06232144 -0.09406483
-0.020595709 -0.107177064 -0.1944271 -0.08572127 -0.17351869 -0.104420364 -0.08253376 -0.16855365
-0.12251065 -0.20519546 -0.11550535 -0.048833095 0.012465389 -0.124861516 0.04258684 -0.06724579
0.03186775 -0.07904226 0.0015724972 -0.039419554 0.034715988 -0.054338463 -0.100588605 0.031562656
-0.09823638 0.004392445 0.04285592 -0.045219418 -0.08277637 0.04581058 -0.14927363 -0.10813167
-0.08348986 0.02369362 -0.076846436 0.011782374 0.13591892 0.16204873 0.15045717 0.15979515
0.15070584 0.049637895 0.022042373 -0.013815883 0.168847 0.014176497 0.15987144 -0.043552198
0.06047058 0.055091303 -0.017581206 -0.05320482 0.04507683 0.07667393 0.07784696 0.14615723
0.049652666 0.0009310087 -0.04248213 0.13352674 0.14871211 0.11598522 0.16497958 0.09170017
0.0932678 0.069038026 0.14593542 0.12556064 0.25704104 0.07248338 -0.24274668 -0.278308
0.050788257 0.26012772 0.004557154 -0.22637239 -0.13786128 0.0726246 0.12518033 0.08995503
-0.0947715 -0.27207077 -0.22309613 0.095596835 0.26137522 -0.05814603 -0.06322205 -0.15889128
0.021868367 0.1651887 -0.0471486 -0.082993835 -0.124269344 -0.11298177 -0.029079627 -0.107992575
-0.17553005 0.14200366 0.19572888 0.21127976 -0.021861067 -0.13855027 0.20362212 0.23882258
0.14390816 0.07141003 -0.053513616 -0.052426144 0.34207368 0.30312273 0.052506473 0.1381391
0.040960364 0.075372145 0.3184823 0.040931933 0.15837924 0.12995656 0.15010394 0.17765021
-0.4110304 -0.32228887 -0.084327936 0.027874153 -0.07500451 -0.14826778 -0.31337672 -0.13296509
0.13786708 0.017468937 -0.21272224 -0.19146301 -0.09325425 -0.08340684 0.17991553 -0.2298131
-0.18189123 -0.26114845 -0.046054624 0.13985445 -0.06557974 -0.11150479 -0.1350016 -0.15130553
0.05924198 0.2985202 0.2615679 0.27550745 0.11244272 0.25753787 0.010450288 0.069490254
-0.05571949 0.029592091 0.022587776 -0.17570916 -0.17848012 -0.12261465 -0.25530505 -0.1481356
-0.12673828 -0.10117412 -0.229482 -0.22644615 -0.27220544 -0.15492477 -0.07743398 -0.07486135
-0.20709442 -0.06728866 0.17647469 0.09898811 0.1908444 0.17237489 0.16012383 -0.029011201
00000000: 005b 0ebe d963 7ebe 2ccd 66be 413d 90be
00000010: 0d40 a1be 1019 cfbd 392c 05be 4943 76bc
00000020: 92a2 07be 9593 60bd 301f 303d 788d 983b
00000030: 6456 2a3e 66c1 363e 9e29 ee3d c41c 4fbd
00000040: 0663 cbbd 111c 0bbe 2274 c4bc a258 03be
00000050: 22bd a9be c641 56be 6c17 a6be bc36 3bbe
00000060: 1935 20be 0c77 58be eec9 cebd d397 1dbe
00000070: 4b73 30be ae97 143b 6063 d33d 2ff6 093d
00000080: 6255 113b ad61 ba3c ecde 063e e6c6 ea3d
00000090: b62d 8c3e 3288 833e ccc2 063e 1f22 363e
000000a0: 6162 4a3d 3ded d2bb 8f39 f23d 7ab8 873c
000000b0: bec7 83bd b310 26be b08a 64be e15f a7bd
000000c0: 5abd 85be 0086 bebd 6323 8cbc bf45 11bd
000000d0: 08ae 643d 6f0f 303d 90b0 9b3c 5914 f93d
000000e0: d2c6 1e3e ec7c d13d 8a70 6c3e faae 853e
000000f0: feb6 be3e 74df 6b3e 2269 ba3e ae50 3e3e
00000100: fd9c 983e 0be3 383e d7a5 383e f201 393e
00000110: a094 e33d 2dc2 383e 4227 48bc 21f3 70bd
00000120: 1004 e4bd c08e d93c b7f3 90bd 9e61 c4bd
00000130: fa8e bf3c 9a32 b4bd c444 7fbd 10a5 c0bd
00000140: 55b8 a8bc a67f dbbd e617 47be a28e afbd
00000150: e2ae 31be 58da d5bd 7607 a9bd 5499 2cbe
00000160: dde6 fabd c21e 52be 128e ecbd 3605 48bd
00000170: a23b 4c3c 65b7 ffbd 8a6f 2e3d 29b8 89bd
00000180: c287 023d e9e0 a1bd 401c ce3a 6676 21bd
00000190: 5a32 0e3d 0292 5ebd 6601 cebd d847 013d
000001a0: 2830 c9bd 80ee 8f3b b089 2f3d ff37 39bd
000001b0: a886 a9bd e0a3 3b3d 30db 18be 2374 ddbd
000001c0: bbfc aabd 1f19 c23c aa61 9dbd dc0a 413c
000001d0: 542e 0b3e 1af0 253e 7211 1a3e 57a1 233e
000001e0: a252 1a3e 1b51 4b3d 3592 b43c 035c 62bc
000001f0: 3ae6 2c3e 8a44 683c 57b5 233e ca63 32bd
00000200: 00b0 773d 6ba7 613d 7606 90bc 4ced 59bd
00000210: 7ba2 383d 3907 9d3d 3a6e 9f3d 3eaa 153e
00000220: 9860 4b3d f00e 743a be01 2ebd 3cbb 083e
00000230: fd47 183e a989 ed3d 68f0 283e 4ccd bb3d
00000240: 3003 bf3d cf63 8d3d 1870 153e f892 003e
00000250: e29a 833e 2b72 943d 9692 78be 637e 8ebe
00000260: 5907 503d 762f 853e 2e54 953b 2ace 67be
00000270: 822b 0dbe 35bc 943d 462f 003e 583a b83d
00000280: 8f17 c2bd dc4c 8bbe 5073 64be 46c8 c33d
00000290: f9d2 853e 882a 6ebd 907a 81bd 65b4 22be
000002a0: 4a25 b33c 3a27 293e e41e 41bd acf8 a9bd
000002b0: ed80 febd fc62 e7bd 6638 eebc 362b ddbd
000002c0: 26be 33be 6869 113e 276d 483e b959 583e
000002d0: fb15 b3bc 1fe0 0dbe 5182 503e e88d 743e
000002e0: a95c 133e 6c3f 923d 1831 5bbd ccbc 56bd
000002f0: 4824 af3e e732 9b3e 0711 573d 5674 0d3e
00000300: 0ec6 273d b65c 9a3d 1d10 a33e 3ea8 273d
00000310: 2b2e 223e 5513 053e d9b4 193e f0e9 353e
00000320: 9472 d2be 0c03 a5be 20b4 acbd 5658 e43c
00000330: f79b 99bd 82d3 17be ea72 a0be 0028 08be
00000340: 072d 0d3e 041b 8f3c dcd3 59be e10e 44be
00000350: 16fc bebd 35d1 aabd c73b 383e 2054 6bbe
00000360: b241 3abe 40b5 85be c6a3 3cbd 0136 0f3e
00000370: ac4e 86bd a05c e4bd dc3d 0abe d6ef 1abe
00000380: b8a7 723d a4d7 983e 3aec 853e 500f 8d3e
00000390: 5e48 e63d 01dc 833e af37 2b3c e850 8e3d
000003a0: 1f3a 64bd 1d6b f23c 000a b93c 1aed 33be
000003b0: 7ec3 36be 641d fbbd 58b7 82be dcb0 17be
000003c0: aec7 01be 6134 cfbd 54fd 6abe 80e1 67be
000003d0: 835e 8bbe 99a4 1ebe b595 9ebd e850 99bd
000003e0: 8f10 54be a3ce 89bd c8b5 343e 47ba ca3d
000003f0: b76c 433e 0b83 303e 80f7 233e e6a8 edbc

conv1.bias f4 [6]
-0.23148158 -0.49790138 0.14939632 -0.4318463 -0.1888312 -0.7114616
00000000: 8209 6dbe eeec febe 59fb 183e f51a ddbe
00000010: f75c 41be 5922 36bf

conv2.weight f4 [16, 6, 5, 5]
-0.036621004 0.023412272 -0.12990786 0.03484704 -0.007686261 -0.105654426 -0.0077119065 -0.09091996
-0.046158127 -0.021871412 -0.09702935 -0.01708918 -0.01457116 0.030925239 -0.054042645 -0.052812845
-0.019145273 0.033875637 -0.0921948 -0.09946231 -0.02926656 -0.04260385 -0.13420072 -0.052814428
-0.107174166 0.013668861 -0.14811254 -0.07062375 -0.08265074 -0.14569464 0.0024468617 -0.12180497
-0.0027865376 -0.06777211 -0.09575411 -0.017189015 -0.09206833 -0.02165559 -0.120215096 -0.050996326
-0.14720976 -0.05224487 -0.118088685 -0.07441758 -0.045442797 -0.012575163 -0.07262702 -0.052379705
-0.14797202 -0.042354617 0.041756064 -0.024695259 -0.04578565 -0.1147982 -0.08944613 -0.13079074
0.0061781406 -0.08241008 -0.056822658 -0.0019165317 -0.07770614 -0.10273757 -0.08781745 -0.10369922
-0.15645052 -0.02236005 -0.078601696 -0.037291054 -0.1027156 -0.06029925 -0.15228361 -0.058840744
-0.003183846 -0.09866009 -0.05679763 -0.056877688 0.00086705387 0.061182275 -0.0466246 -0.057344645
-0.022840999 -0.03773945 0.008901706 -0.1396882 0.014932279 -0.04116915 -0.013968931 -0.11424579
-0.09216277 -0.009237479 -0.04987081 -0.033358555 -0.10361725 -0.06468364 -0.0755003 0.047691718
-0.0973197 -0.10805739 -0.11685817 -0.08553054 0.018502029 0.015064776 -0.026126498 0.0032304372
-0.095398806 -0.082911745 0.0025686952 0.013888622 -0.00534283 -0.023443798 -0.1227711 -0.08568028
-0.008843181 -0.051260356 -0.115999356 -0.046081647 -0.087707795 -0.030463869 0.01784971 -0.07350748
-0.09981678 -0.1507786 -0.14765078 -0.055662747 -0.089416035 -0.0290233 0.017462306 -0.075019754
-0.13927707 -0.064374164 0.020193731 -0.013550159 0.0027609929 0.031799585 0.0030718667 -0.11962378
-0.06494855 -0.044840977 0.009712983 -0.036804847 -0.04781993 -0.043199062 -0.07464043 -0.07275159
0.03057145 0.016235258 -0.09076087 -0.009708175 -0.0756263 -0.09898737 -0.06540378 0.017033279
-0.17758703 -0.07185628 0.0036483947 -0.10941966 -0.12009107 -0.03816221 -0.08231762 -0.023150567
-0.01680391 0.005773944 -0.03906461 -0.062208455 -0.14671528 -0.10697925 -0.0075611295 0.0004103412
-0.0031970767 -0.12728973 -0.10306279 -0.009472739 -0.05836887 -0.070147656 0.022019953 -0.06645109
-0.13417621 -0.08843369 -0.019556709 -0.047349844 -0.09037699 -0.023128845 -0.0705062 -0.03184983
-0.006603036 -0.09633914 -0.09814881 -0.022870265 0.0073015313 -0.12571767 -0.085985824 -0.0373669
-0.106424674 -0.049717274 -0.0740896 -0.06170748 -0.034522228 -0.039628025 -0.0547912 -0.035101183
0.006003264 -0.13960263 -0.115123495 0.0034621004 -0.089711085 -0.07694136 -0.17005268 -0.028237358
-0.16143075 -0.00494093 -0.16259092 -0.117307775 -0.07635725 -0.008740575 0.013713318 -0.076127395
-0.12220393 -0.10422172 -0.15049975 -0.07840343 -0.22829823 -0.12375514 -0.19058956 -0.059871744
-0.058425114 -0.079064436 -0.032299116 -0.006538062 -0.106903866 -0.108407356 -0.0725157 -0.033271838
-0.08357526 -0.049746044 -0.13444121 -0.124590926 -0.02818068 0.0024745846 -0.013250089 -0.026175898
-0.098924875 -0.079101935 -0.043036345 -0.013997089 -0.001934161 -0.06267396 -0.12578732 1.3927929e-06
-0.015832443 -0.08765988 -0.05002159 -0.05478439 -0.16891491 -0.1537127 -0.09097652 -0.17871705
00000000: e8ff 15bd 18cb bf3c 9106 05be c5bb 0e3d
00000010: 08dd fbbb 5961 d8bd 29b4 fcbb 3e34 babd
00000020: 4e10 3dbd ad2b b3bc 53b7 c6bd 9cfe 8bbc
00000030: e0bb 6ebc ed56 fd3c d25b 5dbd 4852 58bd
00000040: 8cd6 9cbc 2ec1 0a3d a1d0 bcbd e5b2 cbbd
00000050: 6dc0 efbc 6081 2ebd ea6b 09be f153 58bd
00000060: 217e dbbd 5cf3 5f3c d0aa 17be 2fa3 90bd
00000070: cb44 a9bd fa30 15be 875b 203b e274 f9bd
00000080: 589e 36bb 1bcc 8abd bb1a c4bd facf 8cbc
00000090: 528e bcbd 1067 b1bc 5533 f6bd 86e1 50bd
000000a0: 28be 16be b8fe 55bd 7bd8 f1bd 3f68 98bd
000000b0: 3a22 3abd 0e08 4ebc 7abd 94bd 1a8c 56bd
000000c0: fa85 17be 097c 2dbd 6808 2b3d b64d cabc
000000d0: bc89 3bbd 521b ebbd 882f b7bd 02ee 05be
000000e0: 0072 ca3b 9ec6 a8bd e0be 68bd 2234 fbba
000000f0: 6624 9fbd 1368 d2bd a3d9 b3bd 4260 d4bd
00000100: 9134 20be 6c2c b7bc edf9 a0bd 81be 18bd
00000110: 8e5c d2bd 59fc 76bd 3cf0 1bbe fe02 71bd
00000120: 12a8 50bb 4d0e cabd a2a4 68bd 94f8 68bd
00000130: 004b 633a 449a 7a3d 70f9 3ebd 38e2 6abd
00000140: 0c1d bbbc ae94 1abd 76d8 113c 6c0a 0fbe
00000150: 84a6 743c fca0 28bd f1dd 64bc b2f9 e9bd
00000160: d6bf bcbd cc58 17bc 5645 4cbd fba2 08bd
00000170: 4835 d4bd db78 84bd e79f 9abd 6458 433d
00000180: 8d4f c7bd 314d ddbd 5653 efbd a32a afbd
00000190: 9191 973c 40d2 763c 3d07 d6bc beb5 533b
000001a0: 7360 c3bd a2cd a9bd 8e57 283b 1a8d 633c
000001b0: e812 afbb 350d c0bc 6a6f fbbd 2579 afbd
000001c0: fde2 10bc 61f6 51bd 1291 edbd 1cc0 3cbd
000001d0: 25a0 b3bd 5d8f f9bc 8e39 923c 178b 96bd
000001e0: bd6c ccbd b565 1abe c431 17be 9ffe 63bd
000001f0: c11f b7bd 46c2 edbc 1c0d 8f3c f5a3 99bd
00000200: a69e 0ebe 9ad6 83bd 536d a53c 7c01 5ebc
00000210: c6f1 343b 4840 023d 5f51 493b 50fd f4bd
00000220: bf03 85bd 2cab 37bd 3423 1f3c aec0 16bd
00000230: d5de 43bd 80f1 30bd 15dd 98bd c9fe 94bd
00000240: fa70 fa3c ceff 843c d6e0 b9bd 0a0f 1fbc
00000250: f6e1 9abd e4b9 cabd 6bf2 85bd 6089 8b3c
00000260: 60d9 35be 6329 93bd e819 6f3b 6a17 e0bd
00000270: 4ff2 f5bd fa4f 1cbd 2496 a8bd 42a6 bdbc
00000280: 5aa8 89bc 5a33 bd3b 3602 20bd 4bce 7ebd
00000290: 883c 16be f017 dbbd 5ac3 f7bb 1023 d739
000002a0: 0c86 51bb 3d58 02be 9612 d3bd 8c33 1bbc
000002b0: 3214 6fbd 93a9 8fbd 3063 b43c 8217 88bd
000002c0: 7d65 09be b91c b5bd 6435 a0bc e9f1 41bd
000002d0: 9217 b9bd b478 bdbc 8e65 90bd f874 02bd
000002e0: 485e d8bb 744d c5bd 3e02 c9bd 6c5a bbbc
000002f0: af41 ef3b 22bc 00be 5619 b0bd 090e 19bd
00000300: 2ef5 d9bd 57a4 4bbd 4abc 97bd fcc0 7cbd
00000310: 2e67 0dbd ff50 22bd bd6c 60bd 42c6 0fbd
00000320: 07b7 c43b fef3 0ebe dec5 ebbd 68e4 623b
00000330: 72ba b7bd 6f93 9dbd 4a22 2ebe 0852 e7bc
00000340: 1a4e 25be 86e7 a1bb 3c7e 26be 0f3f f0bd
00000350: 3161 9cbd a134 0fbc d3ad 603c aee8 9bbd
00000360: 0e46 fabd 3272 d5bd 9b1c 1abe fa91 a0bd
00000370: 03c7 69be 5673 fdbd e929 43be 133c 75bd
00000380: 2c4f 6fbd 89ec a1bd 144c 04bd 3d3d d6bb
00000390: 6af0 dabd ad04 debd 1c83 94bd 0d48 08bd
000003a0: 8229 abbd 82c2 4bbd f5aa 09be 8729 ffbd
000003b0: 2bdb e6bc a42c 223b e716 59bc d66e d6bc
000003c0: 2099 cabd 3200 a2bd e146 30bd 0c54 65bc
000003d0: ac83 fdba 355b 80bd 64ce 00be 00f0 ba35
000003e0: 0ab3 81bc 0687 b3bd 70e3 4cbd 9965 60bd
000003f0: 08f8 2cbe dd66 1dbe e651 babd 9a01 37be

conv2.bias f4 [16]
-0.14002678 -0.037867434 -0.12863755 -0.11434541 0.42937353 -0.07462665 -0.00085350126 0.22641142
-0.053385884 -0.15306354 0.15298176 -0.082656205 -0.15978333 -0.071661524 -0.12573116 0.280434
00000000: 2e63 0fbe e21a 1bbd 90b9 03be ed2d eabd
00000010: d9d6 db3e dbd5 98bd 80bd 5fba 65d8 673e
00000020: 28ab 5abd b0bc 1cbe 40a7 1c3e a847 a9bd
00000030: 3e9e 23be 47c3 92bd abbf 00be 0c95 8f3e

fc1.weight f4 [120, 400]
-0.040944815 -0.04082622 -0.013511276 0.017626721 -0.03150461 -0.03984082 -0.01220016 0.017441578
-0.05271653 -0.046797883 -0.028013065 -0.08642673 -0.07202986 -0.030732874 -0.048992872 0.0045817466
-0.06764914 -0.011597738 -0.072535776 -0.046910115 -0.047564514 0.013562172 -0.05647248 -0.0108673535
-0.026783146 -0.04617626 -0.015380288 -0.017432222 0.0010182145 -0.0060133873 -0.021761175 0.006020274
-0.023669891 -0.04367384 -0.04729255 -0.012843979 -0.039639007 -0.0045631644 -0.07276423 0.02105435
0.014900273 0.030711854 0.013823407 -0.010701912 -0.009127033 -0.01036863 -0.07356749 -0.033111133
-0.016233439 0.02253274 -0.01665214 0.016689375 -0.027312167 -0.023721345 0.020985855 -0.043552034
-0.031051712 0.0103938645 -0.007030297 -0.059381947 -0.02019684 -0.043659754 -0.06905855 -0.024670659
-0.043442708 0.014313915 0.017920464 -0.0067332713 -0.04369473 -0.060822487 0.008639712 -0.03686607
-0.038442206 -0.060297012 0.0020724346 -0.044046156 -0.0037245317 -0.06467076 -0.056945767 0.0026865534
-0.028708767 -0.053748015 -0.030401532 -0.021594552 0.006366386 -0.06286542 -0.06635958 -0.05987235
-0.01824168 -0.0030247527 -0.022064473 -0.044902276 -0.0022706974 0.013009709 -0.019033536 -0.0016647845
-0.010248365 0.016162546 0.012785009 -0.0007878258 -0.043603074 -0.0505354 -0.045451403 -0.05325886
-0.0015522724 -0.026757326 -0.06423653 -0.011330796 -0.05744587 0.0036532832 -0.101405874 -0.020432655
-0.04316057 -0.07258471 -0.09111058 -0.044980895 -0.027376078 -0.07922102 -0.057588086 -0.06139856
-0.08314313 -0.09237685 -0.04249767 -0.053049006 -0.05611631 0.019587744 -0.0006290721 -0.06929458
-0.009159537 -0.05746077 -0.024291432 0.022324262 -0.013674634 0.036582462 0.01290567 -0.06647807
-0.035931744 -0.02072025 0.008157533 -0.007953932 -0.07622327 -0.032344166 -0.04027573 0.0056977402
-0.0037686825 -0.0046059014 -0.060123105 -0.05998807 -0.030601807 -0.08076336 -0.04075359 0.037627887
0.016134564 -0.03428842 -0.047446363 -0.020821806 -0.004070894 -0.027000232 0.040099617 -0.003346207
-0.012046168 -0.0010819347 -0.01101246 0.023413055 -0.039891925 -0.050742112 -0.08557654 -0.01707542
0.041613862 -0.019940745 -0.056424122 -0.015500572 -0.050146654 -0.015419866 0.038919933 0.013082173
-0.015707793 -0.043404873 -0.07385499 -0.055408694 -0.01567065 -0.052421413 0.0230798 0.013346023
-0.056584697 -0.041512758 -0.05623451 -0.06224961 -0.07335202 -0.042736724 0.0058635613 0.009324942
0.0008161741 -0.025692903 -0.062204234 -0.0106081925 -0.03253296 0.017646808 0.013548163 -0.06890309
-0.014686025 -0.060590543 0.0074902107 -0.030562384 0.010586343 0.022777094 -0.05295668 -0.0085387025
-0.051550858 0.025217412 0.030525053 -0.04270496 0.03840593 -0.04739268 -0.06584103 -0.0006322184
0.02253808 -0.03966195 -0.017080814 -0.019238409 -0.03413068 -0.07443176 -0.0068782982 -0.07693983
-0.03232314 -0.02596738 -0.1028588 -0.020529838 -0.022984225 -0.016143559 -0.023115395 -0.028591324
-0.06804748 -0.04928222 -0.042115055 -0.06777256 -0.03253957 -0.03019879 -0.061513126 -0.014786165
0.005703368 0.025308114 0.038272243 -0.0725964 -0.017465953 -0.022424474 0.025071282 0.01598131
-0.07153828 -0.007878843 0.017260956 -0.07883445 0.009247979 -0.067682594 -0.03821986 -0.047739133
00000000: c0b5 27bd 6539 27bd 665e 5dbc ea65 903c
00000010: fa0a 01bd 2130 23bd 2ee3 47bc a4e1 8e3c
00000020: 4aed 57bd 23af 3fbd a87b e5bc 7f00 b1bd
00000030: 6484 93bd 82c3 fbbc c0ac 48bd 7a22 963b
00000040: a28b 8abd 7004 3ebc a38d 94bd d224 40bd
00000050: 02d3 42bd df33 5e3c b04f 67bd fc0c 32bc
00000060: 5468 dbbc 5123 3dbd 9afd 7bbc 05ce 8ebc
00000070: 9c75 853a f30b c5bb 7e44 b2bc b845 c53b
00000080: 5ce7 c1bc 57e3 32bd d5b5 41bd 8d6f 52bc
00000090: 835c 22bd 9986 95bb 6a05 95bd 2c7a ac3c
000000a0: 4620 743c 6d97 fb3c 927b 623c 1357 2fbc
000000b0: 8d89 15bc 30e1 29bc 8daa 96bd 8a9f 07bd
000000c0: fdfb 84bc 9596 b83c 126a 88bc 28b8 883c
000000d0: c4bd dfbc 4453 c2bc 87ea ab3c 9e63 32bd
000000e0: 2960 febc 074b 2a3c 685e e6bb 7c3a 73bd
000000f0: d873 a5bc 92d4 32bd 926e 8dbd 1f1a cabc
00000100: fbf0 31bd e984 6a3c f0cd 923c c6a2 dcbb
00000110: 3ff9 32bd 0021 79bd 948d 0d3c e000 17bd
00000120: 9375 1dbd 00fa 76bd afd1 073b be69 34bd
00000130: 4617 74bb 1a72 84bd f73f 69bd e310 303b
00000140: a62e ebbc e126 5cbd a20c f9bc 0fe7 b0bc
00000150: 1e9d d03b 96bf 80bd 88e7 87bd b63c 75bd
00000160: 936f 95bc ee3a 46bb 8ec0 b4bc 73eb 37bd
00000170: fbcf 14bb ad26 553c 38ec 9bbc e634 daba
00000180: c2e8 27bc 5167 843c 3778 513c 1886 4eba
00000190: 2399 32bd 35fe 4ebd 402b 3abd f625 5abd
000001a0: 9e75 cbba 2e32 dbbc 718e 83bd cea4 39bc
000001b0: 5c4c 6bbd ec6b 6f3b e2ad cfbd 6262 a7bc
000001c0: 23c9 30bd 4ba7 94bd 2f98 babd e33d 38bd
000001d0: cc43 e0bc a13e a2bd 7ce1 6bbd 0e7d 7bbd
000001e0: f246 aabd 1330 bdbd 0912 2ebd ea49 59bd
000001f0: 37da 65bd 7a76 a03c 50e8 24ba 51ea 8dbd
00000200: e211 16bc fc5b 6bbd d3fe c6bc 5fe1 b63c
00000210: 920b 60bc 7ed7 153d 4e72 533c a825 88bd
00000220: 2a2d 13bd 84bd a9bc 2ca7 053c 3551 02bc
00000230: f21a 9cbd 517b 04bd 2af8 24bd 1cb4 ba3b
00000240: 00fc 76bb 1aed 96bb a543 76bd 0db6 75bd
00000250: a4b0 fabc 4367 a5bd 3ded 26bd b31f 1a3d
00000260: a22c 843c 0472 0cbd 1e57 42bd 7e92 aabc
00000270: 2265 85bb 972f ddbc 7f3f 243d 0a4c 5bbb
00000280: 4a5d 45bc b4cf 8dba 9b6d 34bc bccc bf3c
00000290: b765 23bd f6d6 4fbd c142 afbd c0e1 8bbc
000002a0: 4c73 2a3d c65a a3bc fb1c 67bd 1cf6 7dbc
000002b0: 9466 4dbd 9ba3 7cbc 826a 1f3d 9c56 563c
000002c0: a1ad 80bc 4fc9 31bd 4941 97bd 3af4 62bd
000002d0: bc5f 80bc d6b7 56bd d911 bd3c 47a9 5a3c
000002e0: 5bc5 67bd 4809 2abd 2856 66bd 72f9 7ebd
000002f0: 9539 96bd b40c 2fbd 1e23 c03b a4c7 183c
00000300: 84f4 553a ec79 d2bc dec9 7ebd fccd 2dbc
00000310: 4841 05bd 0a90 903c 1df9 5d3c 101d 8dbd
00000320: a79d 70bc ca2d 78bd 7170 f53b f75d fabc
00000330: 5772 2d3c 0797 ba3c 1be9 58bd eae5 0bbc
00000340: fe26 53bd bf94 ce3c ad0f fa3c 65eb 2ebd
00000350: 894f 1d3d d41e 42bd a9d7 86bd 75bb 25ba
00000360: c8a1 b83c 9274 22bd 10ed 8bbc de99 9dbc
00000370: 9dcc 0bbd ae6f 98bd 5963 e1bb a192 9dbd
00000380: 4565 04bd 8bb9 d4bc a2a7 d2bd 312e a8bc
00000390: 6a49 bcbc 7f3f 84bc 7f5c bdbc 5a38 eabc
000003a0: 7a5c 8bbd 27dc 49bd d680 2cbd 57cc 8abd
000003b0: 3648 05bd 7463 f7bc 30f5 7bbd ac41 72bc
000003c0: 52e3 ba3b f652 cf3c 5bc3 1c3d 6cad 94bd
000003d0: c214 8fbc 88b3 b7bc 4a62 cd3c 3ceb 823c
000003e0: a982 92bd 4316 01bc d966 8d3c f573 a1bd
000003f0: d684 173c 2c9d 8abd 6e8c 1cbd 1c8a 43bd

fc1.bias f4 [120]
-0.15457998 -0.013894329 -0.13819905 -0.13834858 0.18950167 0.2491581 -0.18210533 -0.09908875
-0.1301391 -0.18001723 0.30872867 -0.046502113 0.1250297 -0.14216033 0.02117981 -0.1976636
-0.027645556 -0.09692768 -0.121322945 -0.1703974 -0.12146769 -0.12745224 -0.0020543635 -0.10926212
0.34894204 -0.18575087 0.33776855 -0.19677052 0.3779841 -0.12767154 -0.07543568 -0.1298548
-0.051975764 -0.12537171 -0.091220915 -0.11968856 -0.2709174 0.34142965 -0.21088308 -0.13102914
-0.031925272 -0.11610864 -0.0050441725 -0.10456199 -0.15862352 -0.10789325 -0.13693413 0.006249101
-0.15628305 -0.21145752 0.40741587 0.048143994 -0.08758067 -0.23238833 -0.1854024 -0.117703155
-0.18156761 -0.010734437 -0.26899332 -0.14198448 -0.021633066 0.42116028 -0.0730918 -0.10622278
-0.019791516 0.1822159 -0.13736172 -0.15521103 0.4230376 -0.15989487 0.34363082 -0.16215107
0.0453142 -0.1604255 0.303212 -0.16055697 -0.13875604 -0.14280942 -0.1447046 -0.022079656
-0.15140784 -0.186969 -0.014638276 0.3604227 -0.12838377 -0.08189368 -0.15473548 -0.13719434
-0.1168757 -0.25540566 -0.13543111 -0.0924593 -0.16935608 -0.085814476 -0.16675706 -0.05769847
-0.061333284 -0.12758869 -0.0768407 0.41507465 -0.07462227 -0.0019069249 -0.13476667 -0.1493397
-0.00032285973 -0.11765131 -0.15366453 -0.09787242 -0.15292338 0.06845122 -0.075228974 -0.18283616
-0.10595786 -0.087444514 0.090867385 -0.1841795 -0.06361928 0.051101364 -0.09128097 -0.21762308
00000000: 374a 1ebe 0aa5 63bc 0d84 0dbe 40ab 0dbe
00000010: ba0c 423e 4d23 7f3e d279 3abe 0bef cabd
00000020: 2f43 05be 7056 38be af11 9e3e 0079 3ebd
00000030: c907 003e 7a92 11be 4881 ad3c 5468 4abe
00000040: ef78 e2bc 0582 c6bd 2a78 f8bd a87c 2ebe
00000050: 0dc4 f8bd d782 02be 80a2 06bb d2c4 dfbd
00000060: 88a8 b23e 7a35 3ebe 00f0 ac3e 367e 49be
00000070: 2287 c13e 54bc 02be 067e 9abd a8f8 04be
00000080: 8ae4 54bd 7161 00be 08d2 babd 471f f5bd
00000090: afb5 8abe decf ae3e bcf1 57be 812c 06be
000000a0: 13c4 02bd 5eca edbd 9649 a5bb 9924 d6bd
000000b0: 346e 22be 23f7 dcbd 7638 0cbe 42c5 cc3b
000000c0: aa08 20be 5288 58be d098 d03e a332 453d
000000d0: 7f5d b3bd 35f7 6dbe 20da 3dbe 5a0e f1bd
000000e0: dcec 39be 7edf 2fbc 7eb9 89be 6164 11be
000000f0: d437 b1bc 52a2 d73e 27b1 95bd 548b d9bd
00000100: d121 a2bc ce96 3a3e 8da8 0cbe a4ef 1ebe
00000110: 6298 d83e 7bbb 23be 61f0 af3e ee0a 26be
00000120: 629b 393d 9546 24be 9a3e 9b3e 0c69 24be
00000130: 1016 0ebe a23c 12be 712d 14be 65e0 b4bc
00000140: a80a 1bbe cd74 3fbe 61d5 6fbc 5389 b83e
00000150: 0977 03be e0b7 a7bd fa72 1ebe ac7c 0cbe
00000160: 875c efbd 88c4 82be 74ae 0abe 4d5b bdbd
00000170: ae6b 2dbe 80bf afbd 5dc2 2abe 3b55 6cbd
00000180: 9c38 7bbd 9ca6 02be a85e 9dbd aa84 d43e
00000190: 90d3 98bd c8f1 f9ba 4600 0abe 82ec 18be
000001a0: 8045 a9b9 2cf3 f0bd 3c5a 1dbe 5671 c8bd
000001b0: f297 1cbe 2730 8c3d a611 9abd 6739 3bbe
000001c0: 6f00 d9bd 1c16 b3bd ae18 ba3d 8d99 3cbe
000001d0: d34a 82bd aa4f 513d 84f1 babd 96d8 5ebe

fc2.weight f4 [84, 120]
0.018342618 -0.11151992 0.115510836 -0.0963374 0.043767355 -0.028942376 0.060778756 -0.022048624
0.03331119 0.0012708837 -0.07875411 -0.022810262 -0.016783703 -0.015274616 -0.08011116 -0.093018085
-0.022557128 -0.042766236 0.037197866 -0.02923099 0.04364514 -0.14929827 0.010954437 -0.079395816
-0.049878553 -0.043277215 -0.021632068 -0.009206116 0.009242857 0.061546706 -0.08419002 -0.15015866
-0.12468393 -0.09105484 -0.014132858 0.059312187 0.07046249 0.005192329 -0.046121165 -0.032571435
-0.008262685 -0.03308026 0.0094903745 0.0106647415 -0.07144113 0.10031037 -0.012280956 0.020458497
-0.06045314 -0.04161854 -0.0054445667 -0.07485211 0.00699845 0.03613496 -0.01626556 -0.09829871
-0.029139766 -0.13263473 -0.0012827152 -0.08164501 -0.07332635 -0.041797265 0.046305403 -0.08648005
-0.094179444 -0.03872686 -0.010323437 -0.12447947 -0.07348693 -0.015569924 -0.022143442 -0.050866716
-0.045589548 -0.04400877 -0.07924248 -0.09190561 0.051747587 -0.0070580887 -0.06468283 -0.06262331
0.050831947 0.03179151 -0.062660344 -0.15388735 -0.046541225 -0.05249841 -0.052465886 -0.081733234
0.11123929 -0.086408585 -0.027460275 0.060158968 -0.036325403 0.061719768 -0.03441549 0.061504938
-0.047345985 0.03586157 0.012346539 0.012608878 -0.09778929 0.0144321695 -0.11142461 -0.08811436
-0.04627381 -0.054737233 -0.026351906 -0.0465582 -0.10087016 -0.05571112 -0.07941711 0.027053744
0.02509764 -0.047342133 0.058359757 0.007151555 -0.064278916 0.0009376649 0.0004924075 0.0015066494
0.05287767 -0.16254501 0.032914728 -0.09907492 -0.14670676 -0.03463689 -0.17491932 -0.023586811
0.05142003 -0.004532811 0.032584626 0.030973895 -0.049550757 -0.014528006 -0.0061882176 -0.08204557
-0.02576295 -0.019986708 -0.027727854 0.015539986 -0.03612661 -0.007924856 -0.06984363 -0.0034320338
-0.03817118 -0.038715545 -0.07509799 -0.02228432 -0.058500182 -0.13361262 -0.0248689 -0.21187988
-0.101136744 -0.049215622 0.041619018 -0.047370113 0.09421465 -0.005990806 0.03687358 -0.10536458
-0.071641505 0.05417642 -0.06915048 -0.11810837 -0.12441497 -0.038112443 -0.02815884 -0.11181542
-0.087854356 -0.06040427 -0.067078725 0.10579087 0.034974787 0.05868488 -0.042496722 -0.12138506
-0.11875568 0.0071708085 -0.06817616 0.058516253 0.028238853 -0.034196064 0.02610981 0.048693582
0.020960942 -0.023389667 0.024762683 0.058424085 -0.035546277 -0.073771454 0.0735145 -0.0016021561
0.034295764 -0.031463828 -0.0047453037 -0.055346042 -0.0952902 -0.09656621 -0.114742994 -0.05608795
-0.13988258 -0.078803755 0.060658313 -0.089732796 -0.032287344 -0.081200205 -0.055181377 -0.0072129834
0.014523974 -0.15739524 0.013030559 0.029582646 -0.05490943 0.045144074 -0.08339051 -0.06780592
0.037741397 0.02427353 0.09179598 -0.1021262 -0.040483363 -0.05843295 -0.117552795 0.08185257
0.0017369827 0.013586494 0.032353483 -0.09054054 -0.056931227 0.015030308 -0.079896495 -0.01340853
-0.054683402 -0.03738691 -0.10751703 -0.083508 -0.044573966 0.014179796 -0.0380327 -0.03782654
0.006975191 -0.08325116 -0.066374704 -0.09585007 0.14879824 -0.017285913 0.013765253 -0.113215
-0.092616595 0.0018620975 0.1080112 0.18691862 -0.26406515 -0.024146337 -0.14672032 0.013416737
00000000: 4243 963c 8e64 e4bd f290 ec3d 8b4c c5bd
00000010: 6645 333d 9018 edbc 25f3 783d 519f b4bc
00000020: 5071 083d c893 a63a d649 a1bd 96dc babc
00000030: fa7d 89bc 6242 7abc 5211 a4bd 4480 bebd
00000040: bac9 b8bc a62b 2fbd ca5c 183d d475 efbc
00000050: 3fc5 323d a5e1 18be 3d7a 333c 469a a2bd
00000060: 744d 4cbd 7343 31bd bc35 b1bc 40d5 16bc
00000070: 5a6f 173c 6618 7c3d d16b acbd 31c3 19be
00000080: 4a5a ffbd f67a babd 818d 67bc 56f1 723d
00000090: a34e 903d 6a24 aa3b 8ce9 3cbd a069 05bd
000000a0: 3660 07bc 2b7f 07bd 847d 1b3c 2bbb 2e3c
000000b0: ba4f 92bd 866f cd3d 1036 49bc 9498 a73c
000000c0: b69d 77bd 3478 2abd 5668 b2bb 104c 99bd
000000d0: 4153 e53b 4002 143d 5a3f 85bc d650 c9bd
000000e0: 85b6 eebc 66d1 07be c820 a8ba 8035 a7bd
000000f0: 202c 96bd 9c33 2bbd bcaa 3d3d 741c b1bd
00000100: 27e1 c0bd 0ea0 1ebd a223 29bc 18ef febd
00000110: 5180 96bd ff18 7fbc 2a66 b5bc 9e59 50bd
00000120: 1bbc 3abd 8a42 34bd e249 a2bd 0239 bcbd
00000130: 47f5 533d 8a47 e7bb 6e78 84bd a640 80bd
00000140: 2935 503d d037 023d 1154 80bd a594 1dbe
00000150: 03a2 3ebd 9308 57bd 78e6 56bd c163 a7bd
00000160: 6dd1 e33d fcf6 b0bd 5ff4 e0bc 4069 763d
00000170: f2c9 14bd decd 7c3d 42f7 0cbd 9aec 7b3d
00000180: dded 41bd 95e3 123d 2349 4a3c 7895 4e3c
00000190: c045 c8bd e874 6c3c 9632 e4bd 4d75 b4bd
000001a0: 9b89 3dbd 2634 60bd f4df d7bc d0b3 3ebd
000001b0: 0495 cebd 5831 64bd 70a5 a2bd d09f dd3c
000001c0: 9199 cd3c d3e9 41bd a40a 6f3d 9757 ea3b
000001d0: aaa4 83bd a0cd 753a e814 013a c47a c53a
000001e0: 4196 583d 3372 26be 98d1 063d cbe7 cabd
000001f0: 4c3a 16be 69df 0dbd 0d1e 33be 2139 c1bc
00000200: cf9d 523d fa87 94bb 7577 053d f7bc fd3c
00000210: bcf5 4abd e006 6ebc 88c6 cabb 8207 a8bd
00000220: d20c d3bc 2abb a3bc 8625 e3bc 6d9b 7e3c
00000230: 7ff9 13bd 41d7 01bc 2d0a 8fbd f9eb 60bb
00000240: 6259 1cbd 3194 1ebd facc 99bd 9b8d b6bc
00000250: e39d 6fbd bfd1 08be ddb9 cbbc 0af7 58be
00000260: c820 cfbd 5296 49bd b478 2a3d 2a07 42bd
00000270: 9cf3 c03d 864e c4bb c008 173d 63c9 d7bd
00000280: c8b8 92bd 18e8 5d3d c49e 8dbd cde2 f1bd
00000290: 47cd febd cb1b 1cbd 5ead e6bc 7cff e4bd
000002a0: fcec b3bd 786a 77bd 9260 89bd e2a8 d83d
000002b0: b941 0f3d 8f5f 703d 0b11 2ebd bb98 f8bd
000002c0: 2e36 f3bd 1af9 ea3b f19f 8bbd bdae 6f3d
000002d0: 2b55 e73c 2c11 0cbd 3ee4 d53c ec72 473d
000002e0: 48b6 ab3c b09b bfbc 1cdb ca3c 184e 6f3d
000002f0: f998 11bd 7d15 97bd c58e 963d 70ff d1ba
00000300: b779 0c3d 37e0 00bd 7e7e 9bbb 88b2 62bd
00000310: 8227 c3bd 81c4 c5bd 60fe eabd 7abc 65bd
00000320: 613d 0fbe dd63 a1bd da74 783d d4c5 b7bd
00000330: bc3f 04bd 4b4c a6bd de05 62bd e45a ecbb
00000340: f6f5 6d3c 382c 21be 207e 553c 4e57 f23c
00000350: b6e8 60bd fee8 383d a5c8 aabd d5dd 8abd
00000360: b996 1a3d 48d9 c63c 88ff bb3d 8b27 d1bd
00000370: e2d1 25bd 6457 6fbd 85bf f0bd 52a2 a73d
00000380: 78ab e33a e399 5e3c 1685 043d 526d b9bd
00000390: b830 69bd ae41 763c c6a0 a3bd 73af 5bbc
000003a0: b4fb 5fbd 0423 19bd e331 dcbd 3e06 abbd
000003b0: 3193 36bd 6052 683c 2dc8 1bbd 01f0 1abd
000003c0: 2590 e43b 967f aabd 76ef 87bd 0b4d c4bd
000003d0: 915e 183e 309b 8dbc a887 613c 44dd e7bd
000003e0: c5ad bdbd a011 f43a fa34 dd3d 9867 3f3e
000003f0: 8c33 87be 8ace c5bc da3d 16be e0d1 5b3c

fc2.bias f4 [84]
-0.11243302 -0.07504543 -0.09698152 -0.13559577 -0.1887314 -0.103245296 -0.012506004 -0.09964305
-0.14926004 -0.11593968 -0.15475115 -0.087168045 -0.122941375 0.1524305 -0.11251907 -0.1615936
0.15392402 0.18471515 0.0010068439 -0.08075482 0.02034395 -0.13714208 0.13488156 0.22792575
-0.25973088 -0.14249286 0.16313203 -0.13228728 -0.1786041 -0.10413073 -0.106227025 -0.077721834
0.189785 -0.10363897 -0.030612562 -0.12501001 -0.13310102 -0.0765615 -0.16502549 -0.03991821
-0.049703486 0.11826612 0.04172247 -0.017825648 -0.121939294 -0.058678005 -0.043341145 -0.070027836
-0.18137185 -0.09689689 -0.04972037 -0.080349326 -0.024347842 -0.10286194 -0.0516202 -0.08973254
-0.021405092 -0.28402084 -0.15133229 -0.048162125 -0.06165082 0.23769489 0.46105152 0.09713948
0.101352744 0.20141974 -0.061062187 -0.10917175 -0.042094775 -0.081738755 0.3966533 -0.03926012
-0.13690218 -0.053167075 -0.009496383 -0.14000519 -0.12187812 0.005211986 -0.15225853 -0.16990553
0.008807929 -0.21692872 -0.0067314142 -0.07359492
00000000: 4843 e6bd 6bb1 99bd 3f9e c6bd 9ed9 0abe
00000010: ce42 41be 4572 d3bd fce5 4cbc a811 ccbd
00000020: a0d7 18be c871 edbd 1677 1ebe 2985 b2bd
00000030: b0c8 fbbd be16 1c3e 6670 e6bd cb78 25be
00000040: 429e 1d3e f825 3d3e 13f8 833a c862 a5bd
00000050: 5ba8 a63c f96e 0cbe 641e 0a3e 5e65 693e
00000060: 72fb 84be a6e9 11be 150c 273e 5176 07be
00000070: fee3 36be 7e42 d5bd 8e8d d9bd a02c 9fbd
00000080: 0057 423e ab40 d4bd 32c7 fabc a002 00be
00000090: a24b 08be 47cc 9cbd 71fc 28be 4781 23bd
000000a0: e295 4bbd 8235 f23d 2ee5 2a3d 1807 92bc
000000b0: 4fbb f9bd 5958 70bd 7c86 31bd c16a 8fbd
000000c0: 8bb9 39be e071 c6bd 96a7 4bbd 308e a4bd
000000d0: 2075 c7bc 48a9 d2bd b46f 53bd b2c5 b7bd
000000e0: bb59 afbc 2e6b 91be daf6 1abe a645 45bd
000000f0: 9285 7cbd 4a66 733e f20e ec3e 10f1 c63d
00000100: 0792 cf3d fa40 4e3e 581c 7abd 7095 dfbd
00000110: 926b 2cbd a666 a7bd 2416 cb3e 38cf 20bd
00000120: 1630 0cbe b8c5 59bd b896 1bbc 855d 0fbe
00000130: 3c9b f9bd 4fc9 aa3b a9e9 1bbe b7fb 2dbe
00000140: 224f 103c 9022 5ebe 3293 dcbb efb8 96bd

fc3.weight f4 [10, 84]
0.0038224198 -0.012295371 0.05092244 -0.013619501 -0.14328247 0.04104098 0.01965104 -0.1882557
-0.111500844 -0.08564006 -0.021100743 -0.08129529 -0.044074956 -0.17068478 -0.09860815 0.007115337
0.10564193 -0.16913041 -0.0177577 -0.059634633 0.044582352 -0.114143565 0.14282858 -0.36061755
-0.19285469 -0.06173748 0.21980049 -0.08916859 0.041931406 0.058360472 -0.082956895 0.029300554
0.090438545 0.01310393 0.05024982 -0.16258544 -0.021456547 -0.047766425 -0.09576916 -0.04621116
-0.113856904 0.099927336 -0.14697605 -0.025687188 0.011873911 0.07132761 -0.0360267 -0.16672365
-0.13963181 0.0031669696 -0.0772101 -0.11032608 -0.100794524 -0.026119234 -0.19567452 0.010593524
-0.041702844 -0.03622235 -0.035414692 -0.033948716 -0.022935577 -0.4623404 0.081023544 -0.36669257
0.1266272 0.16539429 0.029726308 0.09829168 0.04977564 -0.09861421 0.26958287 -0.062126163
0.017589826 -0.056372285 -0.14551812 -0.08851373 -0.089339815 -0.032203652 -0.08522443 -0.04806366
-0.10650502 -0.06032543 -0.10308325 0.04667227 -0.041996386 -0.09811221 -0.03766213 -0.04832039
-0.12035875 -0.018078377 -0.05107999 -0.05542267 -0.07130962 -0.07363659 -0.0044177645 -0.11191986
-0.08355178 -0.40743583 0.015709396 0.12254128 -0.0014333704 -0.35256135 -0.22908154 -0.06843896
-0.28151566 -0.1032103 -0.10778816 -0.14900488 -0.11315448 0.055630423 -0.023930976 -0.1849685
0.015384221 0.07754178 -0.066792905 0.060616855 0.091519095 0.03416774 0.0025703849 -0.08112167
-0.11463921 0.13771531 -0.17522772 -0.052911803 -0.08149014 -0.11059582 -0.2207191 -0.09836846
0.06109234 0.03237056 -0.08326373 -0.12142998 -0.09059971 -0.17399804 -0.2261757 -0.10255591
-0.06614807 0.08020343 -0.20223004 0.020099286 0.018708419 -0.120130986 -0.03853765 0.078624085
-0.024753578 -0.30348465 0.39764783 -0.2938015 0.10194729 -0.17711009 0.05427126 0.0749504
0.0153560005 0.0098203365 0.00018109079 -0.042937756 -0.002482999 -0.004530681 -0.36468774 -0.08906197
-0.07178646 -0.045856148 0.017658915 -0.037697013 -0.08409394 0.016396705 -0.013120697 0.06511898
-0.057830103 -0.1234168 -0.0821701 -0.09634737 -0.0028766496 0.013028292 -0.08839068 0.0006122715
-0.026010592 -0.17091534 0.033128023 -0.14012775 -0.02884169 0.11886191 -0.17348309 -0.059689622
-0.056097772 0.05914881 -0.10590122 -0.11798747 -0.16899338 -0.03850701 0.07446873 0.123834796
-0.10158898 -0.04466435 0.092918225 -0.06742312 -0.012996699 -0.10848297 -0.1337854 -0.087664634
0.0034768097 -0.060835723 -0.096238606 0.0018007867 -0.10902178 -0.011573035 -0.04328052 -0.09180839
-0.022245474 -0.15984392 -0.06966253 0.011499932 0.02175427 -0.08347678 -0.1323541 -0.3194243
0.11940168 -0.08911128 0.0050749397 -0.05602541 0.09239721 0.015246413 -0.068501614 -0.0742961
-0.053267285 -0.015843667 -0.119840994 0.033882648 -0.06635299 -0.051891528 -0.26444826 0.060929768
-0.028505275 0.034480136 -0.028768273 -0.05964578 -0.08533162 0.005140139 -0.12784845 -0.124880135
-0.07538274 -0.039928425 0.008263078 -0.12889156 -0.059069373 -0.02385826 -0.009562427 -0.16721818
0.047355134 0.0012207516 -0.019320654 -0.10411008 -0.056713164 -0.16655639 -0.27448875 -0.019139372
00000000: 9081 7a3b 8672 49bc 0c94 503d 5424 5fbc
00000010: a4b8 12be 961a 283d 38fb a03c 1ac6 40be
00000020: 8e5a e4bd 0e64 afbd 77db acbc 257e a6bd
00000030: f187 34bd fec7 2ebe 12f3 c9bd c627 e93b
00000040: cc5a d83d 8630 2dbe 9978 91bc 7243 74bd
00000050: fc9b 363d 1ac4 e9bd a841 123e dda2 b8be
00000060: b37b 45be 71e0 7cbd 6113 613e 069e b6bd
00000070: 44c0 2b3d 640b 6f3d 4ee5 a9bd b707 f03c
00000080: d837 b93d deb1 563c c1d2 4d3d cc7c 26be
00000090: a4c5 afbc baa6 43bd 9f22 c4bd ea47 3dbd
000000a0: cf2d e9bd b4a6 cc3d e480 16be f06d d2bc
000000b0: cb8a 423c 3614 923d bc90 13bd 9bb9 2abe
000000c0: a4fb 0ebe ef8c 4f3b 5420 9ebd a4f2 e1bd
000000d0: 5c6d cebd 01f8 d5bc e75e 48be 7690 2d3c
000000e0: 9ad0 2abd e35d 14bd ff0e 11bd cf0d 0bbd
000000f0: 64e3 bbbc e2b7 ecbe acef a53d 21bf bbbe
00000100: 90aa 013e 1f5d 293e 9684 f33c 264d c93d
00000110: 8be1 4b3d 3ff6 c9bd c406 8a3e 0178 7ebd
00000120: 8a18 903c a0e6 66bd b402 15be b046 b5bd
00000130: cbf7 b6bd fae7 03bd 258a aebd 66de 44bd
00000140: 4e1f dabd cc17 77bd 501d d3bd 6c2b 3f3d
00000150: 6704 2cbd 0eef c8bd 9b43 1abd 9aeb 45bd
00000160: a67e f6bd 1b19 94bc 4039 51bd e202 63bd
00000170: c70a 92bd c8ce 96bd e5c2 90bb 3d36 e5bd
00000180: 321d abbd 6e9b d0be feb0 803c ecf6 fa3d
00000190: eedf bbba ec82 b4be 5a94 6abe ba29 8cbd
000001a0: d222 90be ec5f d3bd 0ac0 dcbd bc94 18be
000001b0: 89bd e7bd badc 633d e50a c4bc 6268 3dbe
000001c0: 1a0e 7c3c 3ace 9e3d b8ca 88bd 6149 783d
000001d0: 5d6e bb3d 79f3 0b3d e773 283b 1e23 a6bd
000001e0: f6c7 eabd 3e05 0d3e e56e 33be 0cba 58bd
000001f0: 4de4 a6bd 1080 e2bd 3004 62be 6775 c9bd
00000200: f63b 7a3d fe96 043d 2d86 aabd 48b0 f8bd
00000210: 578c b9bd 8b2c 32be 9a9a 67be d508 d2bd
00000220: a478 87bd b241 a43d 6415 4fbe 42a7 a43c
00000230: 6642 993c 3c07 f6bd a8d9 1dbd aa05 a13d
00000240: 04c8 cabc 5762 9bbe 7f98 cb3e 266d 96be
00000250: bec9 d03d 595c 35be 8a4b 5e3d 987f 993d
00000260: bc97 7b3c 7ae5 203c 30e3 3d39 80df 2fbd
00000270: d0b9 22bb 1b76 94bb 5ab8 babe 1f66 b6bd
00000280: c804 93bd a8d3 3bbd 6ea9 903c 2f68 1abd
00000290: 7239 acbd 6252 863c 31f8 56bc 1a5d 853d
000002a0: 42df 6cbd f2c1 fcbd cc48 a8bd c551 c5bd
000002b0: 2c86 3cbb 9e74 553c 2c06 b5bd d880 203a
000002c0: 2a14 d5bc 6e04 2fbe 40b1 073d a67d 0fbe
000002d0: 6845 ecbc e06d f33d 8da5 31be 1b7d 74bd
000002e0: c7c6 65bd 0646 723d bde2 d8bd 6aa3 f1bd
000002f0: 9a0c 2dbe 87b9 1dbd 1083 983d 199d fd3d
00000300: e20d d0bd f7f1 36bd e94b be3d 2215 8abd
00000310: 1bf0 54bc 522c debd 0aff 08be 8489 b3bd
00000320: 30db 633b e12e 79bd bf18 c5bd 6008 ec3a
00000330: d046 dfbd d49c 3dbc ea46 31bd 0a06 bcbd
00000340: 243c b6bc 20ae 23be 3bab 8ebd 366a 3c3c
00000350: 0336 b23c e0f5 aabd d587 07be 958b a3be
00000360: de88 f43d fa7f b6bd ae4b a63b e67a 65bd
00000370: c03a bd3d 17cc 793c 934a 8cbd 8e28 98bd
00000380: cc2e 5abd 94ca 81bc 326f f5bd 88c8 0a3d
00000390: 14e4 87bd 368c 54bd c365 87be 7e91 793d
000003a0: e583 e9bc 0b3b 0d3d 71ab ebbc 224f 74bd
000003b0: 58c2 aebd 9c6e a83b b4ea 02be 28c1 ffbd
000003c0: 4462 9abd fd8b 23bd dc61 073c 26fc 03be
000003d0: baf2 71bd 6672 c3bc baab 1cbc 3e3b 2bbe
000003e0: 75f7 413d a001 a03a 5946 9ebc aa37 d5bd
000003f0: 104c 68bd c28d 2abe ca89 8cbe 2cca 9cbc

fc3.bias f4 [10]
-0.09368022 0.016456194 -0.12286067 0.266812 -0.28500143 0.23390248 -0.17016356 -0.12045039
-0.011226112 0.19501156
00000000: 6adb bfbd 24cf 863c 609e fbbd 959b 883e
00000010: b5eb 91be 2284 6f3e 5b3f 2ebe b2ae f6bd
00000020: baed 37bc 1cb1 473e
