final_model.pt (torch, 251845 bytes, 10 tensors)

conv1.weight f4 [6, 3, 5, 5]
00000000: 481e b23d 930d 043e 4b72 693e 1ced 9ebd
00000010: a206 e4bc cd73 24bd 54d7 2d3e 5185 533e
00000020: 506c 3ebd 3083 8abe 329c 1fbd b80b 163d
00000030: 0c4f 253e 76ae 563c e4d3 46be 300c 823d
00000040: 9fa5 e33d af87 e2bc 5f06 0ebe 59de 56be
00000050: e3ee 443e 9cc2 20bd e890 afbd fded 9fbc
00000060: 33fb 76bc baba 5e3d 3f88 b33e 8190 8a3e
00000070: 2a4c 13be adaf abbc fb4f 9f3d a90d 983e
00000080: cdaf d33e c423 9d3b ab86 cbbd 84fc f23d
00000090: 9dbf 583e b2ef af3e 4ce5 8dbd 06a1 63be
000000a0: 4eea a33e 96e1 2a3e e302 183d 6bbc 153e
000000b0: 76a6 7cbd a6ee d83e 2aa7 2b3e b993 263d
000000c0: 249e 8e3c ea17 0a3e f731 80be efb4 98bd
000000d0: cab0 79bd 7cd3 09be 34dc 28be a47d 5dbe
000000e0: 940e 1ebc 35c6 243e ea4e 3cbe a460 42be
000000f0: efb4 69be e642 e7bc cfe5 273e 44bd 0ebe
00000100: c759 4fbe a7c1 cf3c 6e1d 9cbc 132c 38be
00000110: 0397 8abd 5d65 1bbe 72cb 563d 2e41 ffbd
00000120: 8556 1fbe 5dec 48be 63fd debc 1aae afbe
00000130: 7428 7fbe 00fa c2be dce2 5bbe 806a 66be
00000140: 5fd6 0f3e 0c5a 1f3e 8c90 693e 803c 533e
00000150: 654c 523e 225c c53d 51ae 183e 6559 933e
00000160: 6899 1b3e 5c0d 1e3e 3c47 06be f894 8dbe
00000170: 89e2 79be 5027 85be b2a0 19be 7c05 febd
00000180: 8a7c 10bd daf2 233d 9efd 98bd 76bd 1c3c
00000190: d456 57bd 3062 f0bd 309b 0fbe eb46 81be
000001a0: 4b92 4ebe 64a2 5e3e 68fa 8e3e d674 963e
000001b0: da8d 373e 6c3e 923e 986f b43e 51f2 883e
000001c0: a0dd 673e 064c 9d3e 1cae 903e 48e6 20be
000001d0: 54a2 62be 0427 b0be 6199 38be 1888 93be
000001e0: 50a4 30be d4aa 0cbe 26e6 64be 8fb7 7fbe
000001f0: 2232 96be b8ed 323d f13b 20be 9c75 64be
00000200: 7734 61be d81c 11bd eb38 953e ebe8 263e
00000210: 66b4 be3e 1e1d b53e ec56 7e3e 7bb6 5d3e
00000220: 90a5 c93e a848 b73e 021b a03e 6391 b43e
00000230: 8497 e33d 5642 f3bd 5c50 0cbe 2681 373d
00000240: 3771 1dbe f23c a6bd b8ad 5ebd 42d6 09be
00000250: 3639 a4bd 2c13 e3bc de4e 8dbe 0ce7 fbbd
00000260: a636 87be f397 64be 446c 4cbe 108e debd
00000270: 3011 8fbe 6d07 70be 6986 5fbe 0431 7cbe
00000280: ea7d efbd 6cad fcbd 1cf7 48be 640b 2cbe
00000290: e01d 04be 8e26 3bbd d4c1 c9bd 0be4 96bc
000002a0: 91ef aabd 608c 823d 4646 063e 0954 dd3c
000002b0: 0cbe 153e 6a60 adbd 448d bf3d 4a2f 59bc
000002c0: a17a 893c d87b e53c 6477 c93d 2c4e e5bc
000002d0: fc5d 1fbe 74a0 a1bd 179f fa3d 44f3 37bb
000002e0: 663e 69bd b92f 67bc 6652 79bd fa36 4e3b
000002f0: 5512 2bbc a25d e7bc 928e ae3c 85f8 0b3d
00000300: db02 af3d ff3a ffbc b85b dabc ac5a 083e
00000310: d98e bf3d 609a e13c d08d d03d 32b8 103d
00000320: 9cb9 f73e 64cd d03e da2b b03e 20b3 b33e
00000330: f89e d63e a922 9a3e cca7 cb3e 5650 d83e
00000340: 84aa 9d3e 852b 963e 5a1f 583e 729e db3e
00000350: 5c8c c03e 3ada 953e b7b2 1a3e eebd 0f3e
00000360: b3b4 883e 6c3b 8d3e 826b 4f3e 519d 023e
00000370: a279 233e 56f0 0c3e fbd7 603e 0110 1e3e
00000380: 42d3 1e3e ca28 8bbe 679f b2bd 7aa5 e73d
00000390: 565d 063e 0edf a03d 95bc 34be fe74 80be
000003a0: 32d5 ed3c 4688 e23d cb1a 143e 48b5 73bc
000003b0: 7c00 02bd 9a6d 02be 862a d4bc e8fc f5bb
000003c0: b069 25be cc0c 983d d175 d3bd 29b8 6ebd
000003d0: 062a cbbd 4d51 d93d d27f 1f3e 10d0 013d
000003e0: fe28 fdbd 8535 083e 9a8b c2be 809f 12be
000003f0: 7e5a f8bd 49f9 5c3d 5808 be3d 8ece 92be
0.08697182 0.12895803 0.22797506 -0.07760069 -0.027835194 -0.0401495 0.16976672 0.20656325
-0.046490014 -0.27053213 -0.03896732 0.03663227 0.16143435 0.013103118 -0.19416767 0.06349981
0.11115574 -0.02765259 -0.13869618 -0.20983256 0.19231753 -0.039248094 -0.085725605 -0.019522661
-0.015074539 0.054377295 0.35064885 0.27063373 -0.14384523 -0.020957792 0.07778927 0.29697922
0.41345063 0.0047955234 -0.09937795 0.1186457 0.21166845 0.3436256 -0.069285005 -0.22229394
0.32014698 0.16687617 0.037112128 0.14622657 -0.061682187 0.42369574 0.16762987 0.040668223
0.017409392 0.13485685 -0.2503812 -0.07456385 -0.060959615 -0.13459581 -0.16490251 -0.2162996
-0.00964703 0.16091235 -0.18389478 -0.18982178 -0.22822927 -0.028230142 0.16396259 -0.13939387
-0.20249091 0.025360895 -0.019057002 -0.17985563 -0.067670844 -0.15175386 0.052440114 -0.12463604
-0.15560348 -0.19621415 -0.027220434 -0.34312516 -0.24917775 -0.3808136 -0.21473259 -0.22501564
0.1404662 0.15561694 0.22809047 0.20628548 0.20536955 0.096367136 0.14910246 0.2877914
0.15195239 0.15434784 -0.13113111 -0.27652717 -0.24402823 -0.26006556 -0.15002707 -0.1240339
-0.03527502 0.040026523 -0.07470249 0.009566655 -0.05257304 -0.11737478 -0.14024043 -0.2524942
-0.20172994 0.21741635 0.2792542 0.29386014 0.17925206 0.2856325 0.3524139 0.26747373
0.22643137 0.30722064 0.28257835 -0.15712845 -0.22132236 -0.34404767 -0.1802726 -0.2881477
-0.1725018 -0.13737041 -0.2235342 -0.24972366 -0.29335123 0.043683738 -0.15647866 -0.2231049
-0.2199267 -0.0354279 0.29144987 0.16299789 0.37247008 0.35373777 0.24837846 0.21651642
0.39384127 0.3579762 0.31270605 0.3526717 0.11112884 -0.11877887 -0.1370253 0.0448009
-0.1537522 -0.08117093 -0.05436489 -0.13460639 -0.080187246 -0.027719103 -0.27599233 -0.12299928
-0.2640888 -0.22323589 -0.19963175 -0.1086694 -0.279428 -0.23440333 -0.21828617 -0.24628073
-0.11693938 -0.12337765 -0.19625515 -0.1680122 -0.12902021 -0.045691065 -0.09851423 -0.018419286
-0.08346475 0.06374431 0.13112745 0.02701761 0.14623278 -0.08465655 0.09353116 -0.0132559035
0.016782107 0.028013155 0.09837225 -0.027991377 -0.15563196 -0.07891932 0.12237375 -0.0028068582
-0.056944273 -0.014110499 -0.060869597 0.0031465874 -0.010441382 -0.02824289 0.021308217 0.034172554
0.085454665 -0.031156061 -0.026655063 0.13315839 0.09353418 0.027539432 0.101832986 0.035331912
0.48383796 0.407817 0.34408456 0.350976 0.4191816 0.3010457 0.39776456 0.4224879
0.30794156 0.29330078 0.2110571 0.42894322 0.37607086 0.29268056 0.15107237 0.14037296
0.26700363 0.27584398 0.20255855 0.12755324 0.15964368 0.13763556 0.2195739 0.15435793
0.15510276 -0.27179557 -0.0872181 0.11310859 0.13121542 0.07855044 -0.17650063 -0.25089258
0.029032324 0.11061148 0.14463346 -0.014874764 -0.031738743 -0.12737122 -0.025899183 -0.0075069554
-0.16153598 0.07424316 -0.10325206 -0.058281098 -0.09920125 0.1061121 0.15576103 0.031692564
-0.12361334 0.13301666 -0.37997133 -0.14318657 -0.12126635 0.053948674 0.09278935 -0.28673214

conv1.bias f4 [6]
00000000: 88fc 08bd e04d 0cbf c8be f8bd 648f 2cbf
00000010: 196a 50bf 1e57 9fbe
-0.033443958 -0.5480633 -0.12145764 -0.67406297 -0.8141189 -0.31121153

conv2.weight f4 [16, 6, 5, 5]
00000000: 2249 6abe aff0 4cbd 7fc5 c0bd b22c 8dbd
00000010: 4400 e7bd e88f 8abd f37c 9dbc 7432 14be
00000020: 87e7 00be 5e39 ba3c 6809 1bbd 9ba3 7bbd
00000030: 869f b93c de7d 0bbe 8aeb 2fbc 44bb cdbd
00000040: a449 0ebe 0c4f c6bd 476b c3bd 9e99 e4bd
00000050: 4cd2 e2bd 02ca 32be b515 1bbe 25eb 813d
00000060: 134d d13c c223 cabd ab01 07bb d2f6 0abe
00000070: 69b0 0bbe d3f7 56be 4123 9dbd 3054 bdbd
00000080: a60f 22bc dc9a 0abe 0aec 5bbd 08a7 e1bd
00000090: 72d8 b9bd 8dcb 84bd fe95 03be 5c36 e53c
000000a0: 8a51 c5bd cdb5 32bd 8982 4abd deb4 cbbd
000000b0: 0398 26be 8f01 08be 3c22 3dbd 52f3 48bd
000000c0: 932a 11bd 16f1 b8bd d4b7 d7bc d6a5 8cbc
000000d0: b43e 1cbc 94b9 693c b36a 9cbd ce04 eabc
000000e0: 4dd0 60bc 0ade 0ebd 5dff 97bc 199d b8bd
000000f0: 3dc8 1abd 4ab2 a9bc 3624 96bd ec7d de3a
00000100: f65d 5b3d b6ed a7bc b040 903c 2eca 80bc
00000110: b6de 7cbd ed02 e6bc 5607 60bd a045 e1bd
00000120: 6021 1fbd af81 febd ba53 14be 9fa3 d7bd
00000130: 96d9 b4bd aac4 7e3d 197f f7bc 40e1 87bc
00000140: 4f64 31bd 505b 89bd 2068 3ebe 543d 1cbe
00000150: dca3 f8bc bc43 48be a269 3ebe aeec 17bd
00000160: e0b0 35be fad9 fdbd 2ca6 3cbe f739 d3bc
00000170: 8dcd 60bd 6ca7 0abe f8c3 0cbe 42b9 d9bd
00000180: 69d9 3dbd b034 5fbe e0c0 21be 98d4 0abe
00000190: ca2a f8bd 2fbf 8bbd dc0b dfbd b4f5 81bc
000001a0: 32a6 183d c2ab 16bc 58f3 9fbd 5bc2 1fbe
000001b0: 8199 1bbe 1a2e 86bd 9414 a7bd 2d04 b4bd
000001c0: f693 13be cd2c abbd b4db 62be 2cbd acbd
000001d0: a392 01be 8e25 debd 2464 97bd 3447 71bd
000001e0: 8f78 03be f2dc 84bd 1656 e5bd 136c 01be
000001f0: 564a 69be 2e92 0fbe 3c88 0fbe 9c29 b1bd
00000200: 58fa 6ebe 1ede cabd 82a1 443d a817 f0bb
00000210: 1dd1 29bd 360b 8cbd 06f8 70bd 6025 0fbe
00000220: 4417 29be d962 03be 8ef1 25be db3e d0bd
00000230: 80a4 b8bd 7076 6dbd 62f3 05bd f713 b9bd
00000240: a2f6 8ebd 287d 6dbe 08d8 33be 6c00 20be
00000250: c2d3 b4bc 5f7e b8bd f441 5fbe 46e7 4bbe
00000260: 7cd1 d9bd 129b a9be 84bc 60bd f50f 16bd
00000270: 12cd 2cbb 70a1 84bb 1000 3d3d 26b2 fa3c
00000280: 0ab3 5ebe 1f6b 5abe 589e d9bd a268 b13d
00000290: 7811 3c3c 2201 7abe 54c5 a3be fb61 61be
000002a0: e5cb 503c 1e8e ff3d 8c85 89be 76a3 f8be
000002b0: d42e e6be 4858 62be 528b 333d 8cd8 9dbe
000002c0: 72ad 3bbe 46e7 2cbe b171 90be 7631 0cbe
000002d0: a81c 50be aa66 87be baab a9be 744a adbe
000002e0: 70f8 9fbe 188d f4be c6e8 b5be a2f1 0abe
000002f0: 166f a0be 3e29 8abd 90ff 62be 8846 16be
00000300: a726 91be f123 f8be a4f3 adbe 79e4 b0be
00000310: 3e65 42be fc5c c5be 2617 97be 104c 193b
00000320: defc b0bd d03d fdbd 82dc cbbd d870 0ebe
00000330: fbe1 17be eaa1 abbe 7d9c 1bbe 6a37 b0bd
00000340: ae36 5dbd 2bfc 4ebe 9ac1 28be 8675 89be
00000350: ae8a 2fbe 1053 71be b114 36be 0a24 b4be
00000360: b7cb 82be 7df3 cebd 2826 80be 9e58 5dbe
00000370: 9434 dfbd fcfd d3bd 6e39 54be 6d28 4bbd
00000380: 40ec 3d3b 651e 8abe ce79 fabd 1895 40be
00000390: 2198 babd 7c16 0a3c 2ca4 79be 7a8d d4bc
000003a0: 48d7 2bbe 73b8 36be a802 69be c95c 41be
000003b0: be89 6ebe 4bca 363d bef4 eabd 7b4d 85be
000003c0: 725f babe ca73 b1be 48e8 06be 7f54 8bbd
000003d0: 0e7e a63c caba 17be 3ec2 50be 2726 88bd
000003e0: 0603 6f3d fba5 443e 2bce 68be 86d9 dabe
000003f0: 80e1 9dbe 5708 26be 20bc febc f8f3 6ebe
-0.2287946 -0.05003422 -0.094126694 -0.068932906 -0.112793475 -0.06765729 -0.01922462 -0.14472371
-0.1258832 0.022732433 -0.037850767 -0.061435323 0.022659075 -0.13622233 -0.010737309 -0.10045484
-0.13895279 -0.09683046 -0.09541946 -0.11162113 -0.11075267 -0.17459872 -0.15145 0.063436784
0.025549447 -0.098701015 -0.002060036 -0.13570717 -0.13641514 -0.20992975 -0.0767274 -0.09244573
-0.009891426 -0.13535637 -0.0536919 -0.11018187 -0.09074487 -0.06484137 -0.12850186 0.027980022
-0.09634693 -0.04363041 -0.049440894 -0.09946607 -0.16268925 -0.13281845 -0.046175227 -0.049060173
-0.035440993 -0.090303585 -0.026332773 -0.01716892 -0.009536434 0.014265437 -0.07637539 -0.028566744
-0.013721538 -0.03487972 -0.018554384 -0.09014339 -0.03778862 -0.020714898 -0.073311254 0.0016974784
0.053556405 -0.020499092 0.01760897 -0.015721407 -0.06173583 -0.028077567 -0.054694496 -0.10999608
-0.03885019 -0.12427079 -0.14485064 -0.10529255 -0.08830564 0.062199272 -0.030211972 -0.0165869
-0.043308552 -0.067068696 -0.18594408 -0.1525777 -0.030351572 -0.19557089 -0.18594983 -0.03709095
-0.17743254 -0.12395091 -0.18422765 -0.025784476 -0.05488353 -0.13540429 -0.13746631 -0.10631038
-0.046349917 -0.21797442 -0.15796232 -0.1355766 -0.12117536 -0.06823575 -0.10890934 -0.01586423
0.03726787 -0.009196224 -0.07810086 -0.15601484 -0.15195276 -0.06551762 -0.08158222 -0.08789859
-0.14411911 -0.083581544 -0.22154123 -0.08434519 -0.12653594 -0.10847007 -0.07392147 -0.058905795
-0.12838958 -0.064874545 -0.1119806 -0.12638883 -0.22782263 -0.14020607 -0.14016813 -0.086505145
-0.23337686 -0.09905647 0.04800559 -0.007327039 -0.04145919 -0.06838076 -0.058830284 -0.13979101
-0.16512781 -0.12830676 -0.16205427 -0.10168239 -0.09015751 -0.05797428 -0.03270281 -0.09037011
-0.06980635 -0.23192275 -0.17562878 -0.15625161 -0.02207363 -0.090084784 -0.21802503 -0.19912443
-0.10635659 -0.33126122 -0.054867283 -0.03663631 -0.0026367349 -0.004047565 0.046142638 0.030602526
-0.21747985 -0.21329926 -0.10625905 0.08662535 0.011478774 -0.24414495 -0.31986487 -0.22010033
0.012743925 0.124782786 -0.268597 -0.4856221 -0.44957602 -0.22103989 0.043834038 -0.30829275
-0.18327883 -0.16885099 -0.2821174 -0.13690743 -0.20323431 -0.26445514 -0.3313883 -0.33845866
-0.3124423 -0.47763896 -0.35529155 -0.13568738 -0.31334752 -0.067461476 -0.22167802 -0.14675343
-0.28349802 -0.4846492 -0.33974946 -0.3454931 -0.18983933 -0.38547504 -0.29509848 0.0023391284
-0.086419806 -0.123653054 -0.09954168 -0.13910234 -0.14832298 -0.33521968 -0.15196414 -0.086043194
-0.054007225 -0.20213382 -0.16480103 -0.26847476 -0.17142746 -0.23566842 -0.1778133 -0.35183746
-0.25546047 -0.101050355 -0.2502911 -0.21615836 -0.108987 -0.10351178 -0.20725033 -0.0495991
0.0028979927 -0.26976314 -0.12230264 -0.18806875 -0.091110475 0.008428212 -0.24379033 -0.025946368
-0.16781342 -0.178438 -0.2275492 -0.18883051 -0.23294732 0.044626515 -0.11472462 -0.26035675
-0.36400944 -0.34658653 -0.13174546 -0.06803226 0.02032378 -0.14817348 -0.20386598 -0.06647902
0.058352493 0.19203942 -0.22734897 -0.42744082 -0.30836105 -0.16214119 -0.031095564 -0.23335254

conv2.bias f4 [16]
00000000: dfe2 38be 61e3 d13d 0682 01be e401 06be
00000010: 1373 b1bd 28a8 a5bd 7a15 a6bd f7f9 12be
00000020: ffa9 14be 209a 42bd e236 debd 70dc 4abe
00000030: 241b f03e 1a66 c7bd 6e5e 09be 360a 76be
-0.18055294 0.10248447 -0.12647256 -0.13086659 -0.08664527 -0.08088714 -0.08109565 -0.14353167
-0.14517973 -0.047510266 -0.10850312 -0.19810653 0.46895707 -0.09736271 -0.13414928 -0.24027333

fc1.weight f4 [120, 400]
00000000: fffb f6bc ece6 5c3c 7665 f4bc 1307 203d
00000010: b4cd 223d 48ac 0abd 4936 26bd ec87 fabc
00000020: 2f90 b63c 2025 febb fe05 77bd c9fd 443d
00000030: 7e31 80bd 4c7c 51bd 45e3 2ebd 2ead 653d
00000040: 3262 fd3c 9120 9cbc 740b 63bc 7a68 3f3d
00000050: 21d8 50bd 61e0 a4bc 40c6 653c 3272 dc3c
00000060: 804b 2bba 32f0 063d 9315 67bc e722 61bd
00000070: 0482 8cbc 2822 d03b f55e 3a3d b928 e1bc
00000080: 3811 fbbb e0fb 59ba 3102 b8bd 84fb 04be
00000090: 0bcc 42bd acc2 1bbd 97f9 823d 4eb2 02bd
000000a0: ecd0 aabd c0aa 203a 29f8 93bc 41ac 823d
000000b0: 1e1f 0dbd 8eea b2bd 5096 e63b 1a72 44bd
000000c0: 167c 82bd b0bd cdba dd17 bcbc 81d8 923d
000000d0: 7ddf 0e3c 6c5d 34bc 3cad d8bc 681a 9abc
000000e0: cc2c 7e3d 66c0 133d 2a21 cebb f32e dc3c
000000f0: 148e 98bd 6898 95bb 427b a73c 83a9 04bd
00000100: 4c9e 533c ae68 60bc 01b8 573c 804f a33c
00000110: 5475 a13d 2044 773c d72b 3cbc 2f5e 20bd
00000120: 9926 e1bc bab5 223d e851 703c 4eda 673d
00000130: 6891 89bb 269f 1cbc c0f9 6e39 7fd8 9e3d
00000140: 9cd1 c23c f21f 5abc b557 aa3c ce0f 713d
00000150: 2819 62bd 27ce 9cbd fb10 603d b071 d53d
00000160: 59a2 fb3c a769 db3d 1cef 52bd 916c 9a3d
00000170: bcca 1fbc fae2 d53d d816 babb b889 d43d
00000180: 4225 833d ec5d 203d 68dd d43c 8c57 983d
00000190: 6718 ae3c 9b05 873c 9630 bfbd 4031 633a
000001a0: e658 b3bd f586 26bd 8ede 83bd b842 23bd
000001b0: 1ae3 82bd 78bf 9a3d 9e00 8fbc 6257 a1bd
000001c0: 04c1 8cbc f3d7 923d 2c2b e43b 3a91 df3d
000001d0: 320f c93c 331f e33c 0a5f a43d dd5f cb3c
000001e0: b40a 3b3d 1427 af3d cc69 fabc 4af4 923d
000001f0: 7059 d73d 941b 293d 289e c3bc b2d5 673c
00000200: 4c17 63bc 45bd 8dbc 7605 0d3d 64c8 d6bb
00000210: d761 373d 00cc cf3b dd0b b5bc 8e02 84bc
00000220: 9de4 ab3c 430c 1dbd 75e6 19bd bfa5 243d
00000230: 6073 c33c e8b4 7ebb d0c0 633b 00be 623a
00000240: 8ef6 18bd 6888 dbbc 18d4 f4bc dbc2 49bc
00000250: 5f54 e03c 8da3 8bbd 2fad 64bd fc2c 8f3c
00000260: 11ff 5fbd f349 3ebd fc73 533c a13c 03bd
00000270: 6a0b 203d b4d4 8dbd aa2c be3b 9498 c9bd
00000280: 134a 26bd 4690 a8bd 721d 8abc 8c0d d5bb
00000290: d829 15bc 13db 26bd a90c c2bc 827f b5bc
000002a0: 7524 a5bc 6234 d1bd e1fd d7bd 9f08 85bd
000002b0: d69a d9bc f53a 77bd b083 c9bc b6a0 9dbd
000002c0: ea9e a0bc a49f 293c 6a38 79bc ff7f ef3c
000002d0: a6af 3b3d c01b 73bc 8430 7dbc e8fe b13a
000002e0: 9418 b33d a081 5e3d b2a5 75bd 1033 15bc
000002f0: aacf 243d 23db c13d 19bc b5bd 06fd ba3c
00000300: a85b 65bc c2af 0a3d c083 763a 0550 2fbc
00000310: af57 a53d 878d fb3d f13b 953c 3fa5 da3d
00000320: 5d55 123d 286e 413d 7045 0f3c 42be 0a3d
00000330: 42a2 903c c206 6ebd 9832 3fbd 3bb2 56bd
00000340: d669 f7bc 34df ee3b 972c 47bd 8f86 b6bc
00000350: e5fd c6bc c627 09bc 1c2a f2bb 4d02 90bd
00000360: 61d5 44bd bc64 e2bc cd8d 5bbd 746e f33c
00000370: 94d6 d63c 95f8 4b3d 1118 933d 463a fb3b
00000380: e5ed e93c c56e b73d 28af f43b 1240 053d
00000390: b282 a03d f414 1b3e ea77 19bd c350 2dbd
000003a0: 2cfb b9bc 16b3 9ebd a051 cbbd 0851 db3c
000003b0: f097 9c3a d8d8 d5bd 03b3 f4bd 3a49 013e
000003c0: d963 0f3d 8b8d aabd 3471 66bc 2645 693c
000003d0: 1487 473c 6225 a1bd cc7f 83bc cfd7 3fbd
000003e0: e2b1 b43c 4f7c bd3d 77df de3c abd7 abbd
000003f0: c183 8dbd 6440 743b b607 e1bc 80e1 ccba
-0.030149458 0.01348279 -0.029833537 0.039069247 0.039746955 -0.033855706 -0.040579114 -0.03058239
0.022285549 -0.0077558905 -0.06030845 0.04809359 -0.0625944 -0.05114393 -0.04269721 0.05607336
0.030930612 -0.019058498 -0.013857711 0.046730496 -0.050987367 -0.020126523 0.014024317 0.026909921
-0.00065343827 0.03294391 -0.014104265 -0.054964926 -0.01715184 0.006351728 0.045500714 -0.027485238
-0.0076619647 -0.00083154254 -0.08984793 -0.1298657 -0.04755787 -0.03802745 0.06395262 -0.031908326
-0.0834063 0.00061289594 -0.018062668 0.06380511 -0.034453504 -0.08736144 0.0070369616 -0.04796038
-0.06371324 -0.001569679 -0.022960598 0.07170201 0.008720276 -0.011008602 -0.026449792 -0.01881142
0.06205444 0.036072157 -0.0062905746 0.026877856 -0.07448974 -0.0045652874 0.020444516 -0.03238822
0.012916159 -0.013696833 0.013166429 0.01993537 0.07883707 0.015091926 -0.011485062 -0.03915232
-0.027484225 0.03972409 0.0146679655 0.056604676 -0.004198242 -0.009559428 0.00022790488 0.07756137
0.02378159 -0.01331328 0.020793775 0.058852963 -0.055199772 -0.07656508 0.054703694 0.10422075
0.030717062 0.10713511 -0.051497564 0.07540239 -0.0097529255 0.10443683 -0.0056789927 0.1037783
0.06403591 0.03915207 0.025984481 0.07438573 0.02125187 0.016482165 -0.09335439 0.00086667016
-0.087571904 -0.04065605 -0.06438933 -0.03985855 -0.063909724 0.07556051 -0.017456349 -0.07877995
-0.01718188 0.07170095 0.0069631543 0.10916372 0.024543379 0.027724838 0.0802594 0.024825985
0.045664504 0.085523754 -0.030568026 0.07175501 0.10515106 0.041286066 -0.023879126 0.01415007
-0.013860535 -0.017302165 0.034429036 -0.00655465 0.04477104 0.0063414574 -0.022100383 -0.0161145
0.020983035 -0.03834177 -0.037573297 0.04019713 0.023858726 -0.0038865153 0.0034752376 0.0008649528
-0.037344508 -0.026798442 -0.02988629 -0.012314524 0.027383981 -0.06818304 -0.055829223 0.017477505
-0.05468661 -0.046457242 0.012906071 -0.032040242 0.039073385 -0.069253355 0.005803664 -0.09843555
-0.040597986 -0.08230643 -0.016859744 -0.006501859 -0.009104215 -0.04073627 -0.023687677 -0.022155527
-0.020158986 -0.10215069 -0.105464704 -0.06495785 -0.02656309 -0.06035896 -0.024598926 -0.07696669
-0.019607026 0.010353003 -0.015211204 0.029235838 0.04582181 -0.014838159 -0.015453462 0.0013579996
0.08744922 0.05432284 -0.059972472 -0.0091064125 0.040237106 0.09465625 -0.088737674 0.02282573
-0.013998903 0.033859022 0.00094037876 -0.0107002305 0.08073365 0.122828536 0.018217059 0.106760494
0.03572594 0.047224194 0.0087445825 0.03387285 0.017655496 -0.058111914 -0.04667911 -0.052416068
-0.030201834 0.0072897915 -0.04862651 -0.02228096 -0.024290988 -0.008371299 -0.0073902737 -0.07031689
-0.048055056 -0.027635925 -0.05360203 0.029715754 0.026225366 0.049797613 0.07182325 0.007666859
0.02855582 0.089566745 0.0074671693 0.032531805 0.07837428 0.15144712 -0.037467875 -0.04231335
-0.022702776 -0.07749002 -0.09927678 0.026772037 0.0011947136 -0.1044175 -0.11948206 0.1262559
0.03500733 -0.083277784 -0.014065076 0.014237678 0.012178201 -0.07868458 -0.01605215 -0.04683667
0.022057477 0.092522256 0.027206166 -0.08390745 -0.06909896 0.0037269825 -0.027469497 -0.0015631169

fc1.bias f4 [120]
00000000: 2ec6 2cbe 0804 01be e85a 783e 0aac 12be
00000010: 0692 9abe dcaf 693e c2f4 943d f3ec 0fbe
00000020: 40d2 00be a6dd 50be 76f9 f03e eecc 413c
00000030: 00ba 1ebe 4856 483d 5439 eabd 4b6c 59be
00000040: 2c3b adbd 3187 9dbd 4822 53be 2554 60be
00000050: a8d8 3cbe 302f 60be a6a6 ea3e edbc a33e
00000060: cb1c 44be 0457 1bbe 7c32 3bbe cf2e 27bd
00000070: a49e 38be 8067 aa39 f48d 353e 48c8 d93e
00000080: e229 11be 8eff 0f3f 9a4a f13e a078 0fbe
00000090: b961 d6bc 5766 8f3e d554 c8bd b08f 80be
000000a0: d751 c2bd f457 003f 795e 0dbe 3a41 0dbd
000000b0: e891 b9bd 4c8d 453e 2c3d ae3e ad8f 80be
000000c0: 46be 943e 22d5 16be d84b d7be a034 353c
000000d0: 9eec c7bd 51c6 30be 84da 3c3d 9a8e 16be
000000e0: 829f 85bd 1b24 b9bd 06e8 623e b863 5ebe
000000f0: a4a5 2ebe e0e9 893d 966a 31be 9974 d43e
00000100: 8012 94be c281 ffbd c0a0 693f 10c4 11bd
00000110: 0a37 d5bd ce22 213f f268 3abe 53c5 a3be
00000120: 22e9 67be 9709 e43e 98f7 cfbd 2ea3 4abe
00000130: 1940 4ebd 4ee8 a0be 605d 07be 2ed0 87bd
00000140: 8ef5 3ebe 146f 80bd 2a14 8bbd c74b ddbe
00000150: 4581 263d 24d3 64bd c420 51be 6844 40bd
00000160: 7418 893e 98a8 57be 938b 143f d9c5 2e3f
00000170: 583e fcbd 0e31 b13e 4f06 81be d085 5dbd
00000180: 3eac 25be 635c a03d 14f5 b3be 5659 9abd
00000190: 7abc 55be fe55 d7bd d67d f7bd 6119 2bbe
000001a0: 3022 a8be bada 71bd 7188 11be 0f6f 9abe
000001b0: 986c 4f3c 6483 2abe dd4c 06be 92b3 093f
000001c0: 3c78 32be c32b 02be c89a aebd 7a76 e2bd
000001d0: 983d f5be 3abf a8bd d876 11be e069 9a3d
-0.16872475 -0.12599194 0.24253428 -0.1432344 -0.30189532 0.22820991 0.07273246 -0.14055233
-0.12580204 -0.20397052 0.47065324 0.011828644 -0.15500641 0.04891041 -0.11436716 -0.21232717
-0.08458552 -0.07691801 -0.20618546 -0.21907099 -0.18442023 -0.21893 0.45830268 0.31980076
-0.19151609 -0.15169913 -0.18280977 -0.040816125 -0.18029267 0.0003250204 0.17729932 0.42535615
-0.14176133 0.5624932 0.4712723 -0.14010859 -0.026169645 0.28007767 -0.097818054 -0.25109625
-0.09488266 0.50134206 -0.1380557 -0.034486033 -0.090610325 0.19292182 0.34031045 -0.25109616
0.29051417 -0.14729741 -0.42050052 0.01105991 -0.09761928 -0.17263152 0.04610683 -0.14702836
-0.06524564 -0.0904009 0.22158822 -0.21717727 -0.17055374 0.06734061 -0.17325816 0.41495207
-0.28920364 -0.12475921 0.9126091 -0.03558737 -0.104108885 0.6294373 -0.18204096 -0.31986484
-0.22647527 0.44538566 -0.10154647 -0.1978881 -0.050354097 -0.31427234 -0.13219213 -0.06631504
-0.18648359 -0.062711865 -0.06790955 -0.43221876 0.040650625 -0.055865422 -0.20422655 -0.046940237
0.2677647 -0.21060407 0.58025473 0.6827064 -0.123165786 0.34607738 -0.25200126 -0.05408269
-0.16178986 0.07830121 -0.35147917 -0.07536571 -0.2087268 -0.105144486 -0.12084548 -0.167089
-0.32838583 -0.059046485 -0.14212205 -0.30162856 0.012660168 -0.16651684 -0.13115259 0.5378963
-0.17428678 -0.12712006 -0.08525616 -0.11057754 -0.47898555 -0.082395986 -0.14205492 0.07539725

fc2.weight f4 [84, 120]
00000000: 2470 433d 6e35 d7bd 9e0a 98be c301 64bc
00000010: 5e24 fd3d 1c07 b5be 8a6a 6d3e a431 963d
00000020: ebf2 09be d2d5 b1bd 340b 2abe 18b1 49be
00000030: 6064 b53c 0b0a d5bd b6e6 29bd f615 1a3d
00000040: 998a 65be e49b 313c e1d9 943d 33be 21bd
00000050: c843 533d 63ef 12bd f233 35be d833 aabe
00000060: 948c 8f3d 76fa 303d 8c7b 2f3d 23c7 23bd
00000070: ecee 313e 426f 60be 7e31 61be 3d12 16bd
00000080: 18d3 a3bd b57c 42be 6fe9 79bd 3318 b83d
00000090: fb14 d6bd 38b9 bfbd 802e 7c3d d23c 593c
000000a0: 6c70 b93d 6170 13be ebc8 51bd 0065 06b9
000000b0: 2408 2abd 8a5c 3ebe 8823 f9bd 13e0 bf3c
000000c0: 5f4b 80be 52cc efbd 76c9 80bd ae79 413e
000000d0: 800c 153b ae5b 8f3d aba1 0b3e e645 843d
000000e0: 52dc c33d 2caf a03d e9a9 25be ce2b 6bbe
000000f0: 0628 e8bd 622a a23d 0c0c 623c 4154 febd
00000100: a74f 113d e556 3d3d 3b31 adbe cf6a 80bd
00000110: 4e96 77bc cc9d 27be bec3 393a 5abf 8e3e
00000120: 84fe 8dbc 37a1 f8bd 68d0 15be 276a 4fbd
00000130: a19c 13bd 6a6d f4bd 1cdf 90bc 764d 05be
00000140: 6551 2bbd acbd e43c a613 02bd 5643 483e
00000150: 7880 10be 6e36 263e c8fe e3bd 4086 a63d
00000160: b4f6 67bd 87a6 1b3e 725f 44be c781 a9bd
00000170: 82e8 413c 67c0 16be d5dd e63c 7489 62bd
00000180: 23d1 28be 5616 403d 4ead 783e b212 76bd
00000190: 9cd9 873e 08c1 99bd a882 62bd 5a22 1dbd
000001a0: 91fb 16bd 6066 54bb 2a62 683c 321d a23d
000001b0: 6763 923e ade2 a43d 78be a33d d85f 16bd
000001c0: 5eca a2bc c99a e63c a8ad 89bc 3a80 b6bc
000001d0: 69da 47bd 2bdd 1abe b65f 34bd 0e51 4cbe
000001e0: cb91 b33c 834a 05be 0dd1 19bd 19fa f43c
000001f0: a864 66bd 58c5 05be 2c9d 803b 84d5 9bbd
00000200: a01f 923d 08a8 44bb c226 cfbd a1e2 d9bd
00000210: a6f0 8d3d 6641 4d3c 3908 67bd 12f2 b8bd
00000220: 58f1 633b 100c 5d3c 3939 ae3b 8edb 3ebb
00000230: 5d8e c1bd 14c4 a5bd 8d3a 42bd 1541 d5bd
00000240: d5ca b73d 290c 80bd 8d8a 8dbc d9f1 a8bd
00000250: c2b9 813c 8a7a e8bd 1476 07be 1040 dfbd
00000260: 02a1 a8bd 520b b1bc 7a3c 5cbd 2246 30bd
00000270: 65a7 a33d d6fb 36bd c032 e5bd 9d02 2fbd
00000280: 2138 84bb e94d e6bd e828 e53c 9b98 19bd
00000290: 4594 79bb a3c6 aa3d 5734 b4bd 885f 01be
000002a0: 20ae ef3b 4400 c3bd e052 18be 1f55 32bd
000002b0: 3061 f1bc 4698 9dbd d8f0 303c e882 81bd
000002c0: d002 47ba e5b3 edbc de80 c7bd 3900 02bd
000002d0: 86bc 4abe 9010 76be 76a3 18bd d0c3 27bd
000002e0: d701 25bd 1b4c a43d dbca bcbd 80b6 843d
000002f0: 945e 86bc 4a3e f6bd b157 eabd cc4a 69be
00000300: facc c1bd 64eb 063e 8a72 e3bd 20e6 bbbd
00000310: 4ec8 c73d d984 8139 47ef 66bc 98e4 13be
00000320: 2574 45bd cf36 b83d 21c6 82bc d2fd b2bd
00000330: 3e66 a43c 23bc 0ebe d221 86bc 16a3 ad3d
00000340: 10c8 42be 8791 9f3c 1e24 cebd b4e0 20be
00000350: eef7 b3bc 3647 633c 51b9 9e3c dfd6 1dbe
00000360: decd e6bd dc31 83bd 87a2 edbd aca8 e93c
00000370: 0edb 2ebe 13a6 ae3b 646b 6bbc 0a1f edbd
00000380: 5fab bdbd 4a0f 2bbc f9bb 8bbd 79ee f93c
00000390: 528d 57bd 1a49 043d 8979 38bc a484 ccbd
000003a0: 8503 b73d 7576 e8bc 6656 3bbd 752e cc3c
000003b0: 53fa 1ebe 4a00 2abd 6c76 adbc b2e5 71bd
000003c0: 96ef 7bbd 74f3 33be 440f 25bc f0fd b23c
000003d0: 0032 8e3c 2887 443e ac2f 17be 0ad8 24bc
000003e0: 7e44 96be 5f47 e9bd e8a1 3abe 3420 fbbc
000003f0: 985c 033e d95e 55be 4693 2b3d c283 d3bd
0.047714368 -0.10508238 -0.296956 -0.013916436 0.12360452 -0.35356987 0.23185173 0.07333687
-0.13471572 -0.08683361 -0.16605836 -0.19696462 0.02214259 -0.10402306 -0.04147979 0.0376186
-0.22416152 0.01084039 0.072681196 -0.03948803 0.051578313 -0.03587283 -0.17695597 -0.3324268
0.07009235 0.04320761 0.042842433 -0.039984833 0.17376298 -0.21917441 -0.21991536 -0.036638487
-0.07999247 -0.18992884 -0.061013635 0.08988991 -0.104532205 -0.093614995 0.061567783 0.01325913
0.09054646 -0.14398338 -0.051217 -0.00012816861 -0.04151167 -0.18589988 -0.1216498 0.023422277
-0.25057504 -0.11708893 -0.062884256 0.18894073 0.0022743046 0.069999084 0.1363589 0.064586446
0.09563507 0.078459114 -0.16178097 -0.22965929 -0.11335759 0.0791824 0.0137968175 -0.12418414
0.035476353 0.046225447 -0.33826622 -0.06270372 -0.015111519 -0.16368788 0.0007086358 0.27880365
-0.017333277 -0.12140124 -0.14630282 -0.050638344 -0.036038045 -0.119349316 -0.017684512 -0.1301783
-0.04182567 0.027922474 -0.03175702 0.19556937 -0.14111507 0.16231701 -0.1113258 0.08131075
-0.05663176 0.15200244 -0.19177034 -0.08276706 0.011835219 -0.14721833 0.02818195 -0.055306867
-0.1648603 0.0468963 0.2428486 -0.060076423 0.2653321 -0.07507521 -0.055300385 -0.03836284
-0.036861006 -0.0032409653 0.01418356 0.07915725 0.28591463 0.080510475 0.079953134 -0.036712497
-0.019871887 0.02814998 -0.016806439 -0.02227794 -0.048792277 -0.15123431 -0.04403659 -0.19952795
0.021920105 -0.13016705 -0.037552882 0.029904412 -0.056248337 -0.13063562 0.0039249863 -0.07609084
0.07134938 -0.003000738 -0.10114814 -0.10638929 0.06930666 0.012527799 -0.056404326 -0.09030546
0.0034781303 0.013491645 0.00531688 -0.0029122564 -0.09450982 -0.080940396 -0.04741912 -0.10412804
0.08974234 -0.06252319 -0.01727798 -0.08249254 0.015835647 -0.113514975 -0.13228637 -0.10900891
-0.08233835 -0.021611843 -0.053768612 -0.043035634 0.07990912 -0.044673763 -0.111913204 -0.0427271
-0.0040350114 -0.11245329 0.027973607 -0.03749905 -0.003808276 0.08338668 -0.087990455 -0.12634099
0.0073144585 -0.09521535 -0.14875364 -0.04353821 -0.029465288 -0.076950595 0.010799609 -0.063237965
-0.00075916667 -0.029016444 -0.09741376 -0.031738494 -0.19798478 -0.24029756 -0.037265263 -0.040958226
-0.040284958 0.080223285 -0.09218379 0.064801216 -0.01640252 -0.120235994 -0.11442507 -0.22782439
-0.09462924 0.13175732 -0.11105831 -0.09174752 0.09755002 0.00024703777 -0.014095134 -0.1444267
-0.048206467 0.08994829 -0.015963616 -0.08739819 0.020068284 -0.13938956 -0.016373549 0.08478372
-0.1902163 0.019478573 -0.100654826 -0.15710717 -0.021968808 0.0138719585 0.019375475 -0.15413998
-0.11269735 -0.06405994 -0.11603265 0.028522812 -0.1707575 0.005329856 -0.014368866 -0.11578186
-0.09261202 -0.010440657 -0.06822962 0.03050922 -0.052625008 0.032296278 -0.011259445 -0.09986237
0.08936218 -0.028376797 -0.045736693 0.024924496 -0.15525179 -0.041504182 -0.021174632 -0.059056945
-0.061507784 -0.17573339 -0.01007444 0.021849602 0.017357826 0.19192183 -0.14764279 -0.010061273
-0.2934913 -0.11390566 -0.18225825 -0.030655004 0.1282829 -0.20836963 0.041888498 -0.10327865

fc2.bias f4 [84]
00000000: ab53 c3bc bafc 94be ca84 1b3f 5623 aabe
00000010: 8ee3 95be 54bb 0e3d dafb a1bd 1a44 463d
00000020: de61 7abe 6861 acbe b848 fc3d ed78 f23d
00000030: 072e 8bbe c12b 463e a2a4 8bbe 6ebd 96bd
00000040: 9943 67be 5be2 013f de37 99be 449a c8be
00000050: a669 8fbe 72b9 8fbd 6603 74bd 4ccd 4cbe
00000060: 7bb9 e63e 3eda 77bd cb03 c2be fedb aabe
00000070: ea86 743d 3efc 54be 5c37 143e d410 9fbe
00000080: 59cb 83be e643 a23d bce8 38be 87e4 b3be
00000090: c5f3 a2be 18e1 4b3e efb8 963e 8865 a13e
000000a0: 1d48 92bd 9e1d 8fbe 1d59 dfbc 97d3 ccbd
000000b0: 7eca 98be cc9d b7bd 84fe 9dbe a570 bb3e
000000c0: 278a 4a3e 9626 203f cd1c 87be 54a9 8a3e
000000d0: bf93 08be 32a6 b1be e29c 8bbe 5d9d 94be
000000e0: 83fd 25be 1ccf 89be ee7c 15be fe9e 1cbe
000000f0: 683e 9bbe 133a adbe fe91 49be 2384 8abe
00000100: 36a9 87be 2be1 28be 9517 97be 50ac 98be
00000110: aeff 3bbe 5960 0b3f 651a 2fbe 1d12 b6bc
00000120: 7553 97be b4df 1cbe 6665 67be bef6 e3bd
00000130: c1b0 5ebe 65c8 6abe c817 8fbe e4bc 06be
00000140: 9469 50be bfc5 e3be 122d 083f 1fdb 20be
-0.023843607 -0.29099065 0.60749495 -0.33230084 -0.29275173 0.03484662 -0.07909365 0.04840479
-0.24451396 -0.33668065 0.123185575 0.11839471 -0.27183554 0.19352628 -0.27274042 -0.073603496
-0.2258438 0.50736016 -0.29925436 -0.39180195 -0.2801029 -0.07017793 -0.059573554 -0.2000019
0.45063385 -0.060510866 -0.3789352 -0.33370966 0.059698977 -0.20799348 0.14474243 -0.31067526
-0.2574108 0.07923107 -0.18057531 -0.3513529 -0.31826606 0.19910085 0.29437968 0.31522775
-0.07142661 -0.27952284 -0.027264172 -0.10001295 -0.2984199 -0.08965644 -0.30858243 0.36609378
0.19779263 0.6255888 -0.2638916 0.27082312 -0.1333761 -0.3469711 -0.2726813 -0.2902631
-0.16209988 -0.26915824 -0.14598438 -0.15295026 -0.3032105 -0.3383337 -0.19684598 -0.27053937
-0.26496285 -0.16492145 -0.2951018 -0.29818964 -0.18359253 0.5444389 -0.17099912 -0.022225434
-0.2955586 -0.15319711 -0.22597274 -0.11131047 -0.21747114 -0.22928007 -0.2794783 -0.13157994
-0.20352775 -0.44486806 0.5319377 -0.15708588

fc3.weight f4 [10, 84]
00000000: 6cfb bcbc 2848 cebc 4404 c2be 9eee 4cbe
00000010: aa6c 89be 584c 04be 2755 47bc ea23 f2bd
00000020: 6525 3abf 1cdc fdbd 798a 37bc 94c5 a3bd
00000030: ca98 39bd bf4b dbbe 54b0 bebd e5a3 923c
00000040: 8cd9 e5be a814 9fbe 4897 acbe dcf1 2bbd
00000050: 0934 a3be 3756 2fbe 6219 00be 00e9 76be
00000060: 867e e0be 5ef0 fabe 8a6e 6cbe 8443 a9be
00000070: 14de b0be 1b8b 50bd 1862 99be b185 a6bd
00000080: 08d6 87be 5331 d939 13cf 8fbd 66f0 cebe
00000090: 3803 18bf bd42 203e d0a4 21be 6058 483c
000000a0: 706c 94be 275b e4bd ecc6 9dbd 35fb 33be
000000b0: 1b34 59be 85ae 183d 0ad3 c5bd d5fd 1dbe
000000c0: 1fb5 753e 43a3 0ebf 3840 8bbe 76aa 383d
000000d0: d073 a3bd 3730 99be 39bb 1d3d b5a3 63be
000000e0: 3c76 30be 20f2 01bf e86f 87bc d3e8 34be
000000f0: 4175 1dbe a185 f7be 64aa 83be 9289 9cbe
00000100: 9056 d0be da5f 99be 1a73 dabe 2000 81be
00000110: 1c22 08bf 2e7d 9cbe 1046 11bf e215 60be
00000120: 40d0 963c 8104 46be 54ce 17bd a6a6 c1be
00000130: 2f09 c4bd a043 86be 903e 66be f4ed 16bf
00000140: f03b 87be a319 81bf 2310 fb3d ad98 c5be
00000150: 1089 6d3e 4e42 2cbe 4cc1 18bf 9abb 59bd
00000160: ee80 5dbe ec8e 79be 8cc3 4cbd a31f c53d
00000170: eb93 35bf 3422 56bd 4070 70bb 8cfb 93be
00000180: 22fd 84bd 6ef3 98bd a0aa 22be a311 8ebe
00000190: 1051 9fbe 0eae 2bbf 6cca 73bd b73b c1be
000001a0: 1ecd 97be 5558 dcbd ba1f 07be 8a50 e6be
000001b0: 6cbe cabe 0ab7 fdbe 8ced 4fbe 68ab ddbd
000001c0: 4ace 83bd c63b 05be 899d 57be 9764 7cbe
000001d0: 06a6 8fbe bedf 3f3e 6332 1ebe 26df 48be
000001e0: e005 84be 2008 9f3a feb7 58be 1c06 d4be
000001f0: 88e0 ffbc dba9 9ebd 84c6 4fbe ac1f 4ebe
00000200: c562 bcbe 0cad 29bc a7d7 15be ec31 5fbe
00000210: 8608 bb3b 0a05 a7be 4d02 5fbe 6b28 0dbf
00000220: 05af ae3c bb8c 36be f165 46be a234 54be
00000230: b4ec cabd 06a5 f5be 739f d9bd b23b 41be
00000240: ce3d 57be f89d e1be 961c 0ebe 8612 24be
00000250: 2972 1cbe 4603 ffbe ffdc 4fbf cce9 a4bd
00000260: 20bd 30bb a273 eebe 0421 39be 4102 0abf
00000270: 72f6 74be 6686 a0bc 1237 f2bd f0aa d2be
00000280: 4a28 8bbd ec3d 79bd f482 a7be be95 5fbf
00000290: 90da 703d 3837 76bf 582e f3be d8b0 c4be
000002a0: 7da9 30be 40ec 40be 8c51 fb3d d417 46be
000002b0: 5e90 73bd 0476 cebd ce0d 36bc 6cb2 43be
000002c0: 665f 74bd 8103 7dbe 7ea5 8e3c 5afe 533d
000002d0: 18e3 42be 8985 e9bd 2b66 12be 1580 1cbd
000002e0: 338e 32be 4ecb 0e3e 5aba 66bd fcd0 30be
000002f0: 5f9c e8be 7bb9 8dbd cc2d ba3c eaf5 49be
00000300: 4cd8 a9bc 4082 62be 62e6 a5be e06d 1fbe
00000310: 4285 6cbe 4cf5 0dbe d4c5 ccbd d37a 8cbe
00000320: 54f8 28be 1bb0 7dbe cc8b 3fbe f402 a3be
00000330: b3e7 ffbe ee7c 853d 246c af3d b6fd 90bd
00000340: 98c8 54be 4572 8fbe eab3 62be 42c5 a03c
00000350: 67fd 69be 147c 77bc 94ba d3be f5a4 013e
00000360: 7c13 41be 50f5 42bd 4584 98be 3a53 1cbd
00000370: 28ab 4d3d a495 8dbe 5a0c abbd 5e93 49be
00000380: c1ee d4be e664 0abe a130 a83c 9e75 11be
00000390: 059e 0ebe cfb2 8fbe 97fb 88be 507d 75be
000003a0: 06d2 63be c9fb e93c b085 30bf 031c dbbe
000003b0: 5c80 5cbe 6e31 ce3d e51f 03bf e840 32be
000003c0: 69eb d7be 42b6 bdbd 7eaf bcbc 977d 63be
000003d0: 9e66 45be 39e3 48be e0d6 46be ad09 4ebe
000003e0: 0174 97be 2cc1 bdbe 9a7d 273e 20e8 5cbe
000003f0: 81b5 8fbe ce23 92be ee6d 0d3e 284d 36be
-0.023069106 -0.025180891 -0.3789388 -0.200129 -0.26840717 -0.12919748 -0.012166298 -0.11823256
-0.7271331 -0.12395498 -0.011202448 -0.079966694 -0.045311727 -0.42831227 -0.09310976 0.017900417
-0.44892538 -0.31070447 -0.33709168 -0.041978702 -0.31875637 -0.17122732 -0.12509683 -0.2411232
-0.4384653 -0.4901151 -0.23089042 -0.33059323 -0.34544432 -0.05091391 -0.29957652 -0.08130968
-0.2653048 0.00041426215 -0.07021918 -0.40417784 -0.5937991 0.15650459 -0.15785527 0.0122281015
-0.2898898 -0.111501984 -0.07703957 -0.17576297 -0.21211283 0.03727581 -0.09659393 -0.1542886
0.23994873 -0.5571787 -0.27197433 0.04508444 -0.07981074 -0.29919598 0.038508628 -0.22230418
-0.17232603 -0.5076008 -0.016532853 -0.1766694 -0.1537676 -0.48344138 -0.25715935 -0.30573708
-0.40691042 -0.2995594 -0.4266594 -0.25195408 -0.53177047 -0.30564255 -0.5674753 -0.21883348
0.018409848 -0.19337656 -0.037062004 -0.37822455 -0.09572064 -0.2622347 -0.22484803 -0.5895684
-0.26412916 -1.0085949 0.12258937 -0.38593045 0.23196816 -0.16822168 -0.5966995 -0.053157426
-0.21631214 -0.24370927 -0.049991176 0.09625175 -0.7092883 -0.052278712 -0.0036688 -0.28902853
-0.06493594 -0.074683055 -0.15885401 -0.2774783 -0.31116533 -0.6706246 -0.059519216 -0.3774087
-0.2964868 -0.107590355 -0.13195696 -0.4498332 -0.39598405 -0.4955371 -0.2030546 -0.10823709
-0.06435831 -0.13011083 -0.21056189 -0.24647747 -0.28056353 0.18737695 -0.15448909 -0.19616374
-0.25785732 0.0012133159 -0.21163937 -0.4141091 -0.031234995 -0.07747241 -0.20290571 -0.2012927
-0.36794105 -0.010356199 -0.14633046 -0.21796387 0.005707803 -0.32621032 -0.21778221 -0.551398
0.02132369 -0.17827122 -0.19374825 -0.20723203 -0.09908429 -0.47977465 -0.10626116 -0.18870428
-0.2101967 -0.44065833 -0.13878092 -0.16022691 -0.15277924 -0.49807185 -0.8119659 -0.08052406
-0.0026968196 -0.46572596 -0.18079 -0.5390969 -0.23922136 -0.019595336 -0.1182691 -0.4114604
-0.06794794 -0.06085007 -0.32717097 -0.87337863 0.058802187 -0.9617801 -0.47496295 -0.3841617
-0.17252155 -0.18840122 0.12271413 -0.19345027 -0.05946385 -0.100811034 -0.01111169 -0.19111031
-0.05966129 -0.24708368 0.017412897 0.05175624 -0.19031942 -0.11402423 -0.14296786 -0.038208086
-0.17437057 0.13944742 -0.056330062 -0.17267221 -0.45431802 -0.06920143 0.022726916 -0.19722715
-0.020733021 -0.22119999 -0.3240233 -0.15569258 -0.23097709 -0.13863105 -0.0999867 -0.27437457
-0.1650098 -0.2477421 -0.18705672 -0.3183819 -0.4998146 0.06517969 0.08565548 -0.070796415
-0.20779645 -0.28016868 -0.22138944 0.01962531 -0.22850572 -0.015105266 -0.41353285 0.12660582
-0.18855089 -0.04759723 -0.29788414 -0.03816531 0.050212055 -0.2765323 -0.08351965 -0.19685122
-0.41588405 -0.13515052 0.020531 -0.14205024 -0.13927467 -0.28066108 -0.26754448 -0.23973584
-0.22248086 0.028562443 -0.6895399 -0.4279481 -0.2153334 0.10068022 -0.5122054 -0.17407572
-0.4217179 -0.092632785 -0.0230329 -0.22215877 -0.19277427 -0.19617929 -0.19417906 -0.20120879
-0.2958069 -0.3706144 0.16356507 -0.21572924 -0.28068164 -0.28542942 0.13811466 -0.1780287

fc3.bias f4 [10]
00000000: 39e3 26be 6621 3bbe 1a02 a23b b086 8a3e
00000010: cb7f 00bd 594e 283e bf96 a43c 802a 273e
00000020: 005a 2e3d 7472 b23c
-0.16297616 -0.18274459 0.004944098 0.27055883 -0.031371873 0.16436137 0.020091413 0.16324806
0.0425663 0.021783091
