final_model.pt (torch, 251845 bytes, 10 tensors)

conv1.weight f4 [6, 3, 5, 5]
00000000: fd88 2ebc a392 44be 1aa8 b4bd 7442 eabc
00000010: 76de adbd f59f 1b3e d3c2 bd3d 15e2 b3bb
00000020: 1afc 653e 8b5b 013e 905d 9a3e 27dc 9b3e
00000030: 56da 773e 38fc 323e 31cd 863e e214 10be
00000040: 32fe aebd 027b 7abe 8228 5ebe e497 29be
00000050: a3ed 8cbe c82f 66be 573f 58be 4361 7bbe
00000060: 52f6 8dbe c5c9 15be 8d48 abbd 2d80 13be
00000070: 3f32 49be 385b 7fbd ce9c 2c3e e87a b23c
00000080: 53a5 043e 4db0 75bc 009e 1839 207b 013e
00000090: b0f7 543e d569 9a3e 0bc8 253e 9228 8c3e
000000a0: 9edb 4fbd b3f7 2ebe 4097 de3c b201 23be
000000b0: ecb0 1ebe fe95 33be 857c 5bbe c49b 64be
000000c0: 1b7c 6dbe 7228 64be 7003 15be 1834 94bc
000000d0: a65b db3b 3b44 99bd 842e 99bc 12b4 fe3d
000000e0: 0037 363d c8f0 003e 2392 76bd 4672 9cbd
000000f0: a523 1f3e 5b6e 373e 9cd4 873e e054 b33e
00000100: a3c8 2f3e 46fd 35bd 2865 92bc 2e06 0ebd
00000110: 42b5 bc3b 3047 543d 2e2e acbd de80 12bd
00000120: 72f8 6fbd a18b 493d e9e0 7cbc 6e6c fc3d
00000130: 0dde 733e 1d15 4d3d 6898 e93d 5a4b 1c3e
00000140: abea 873e 3d5b fc3d d278 8e3e 94d9 213e
00000150: 3dc5 5a3e 26e8 803e c2b2 593e 3e63 d43d
00000160: 30b2 f53d 2149 5b3e d061 193e bd68 0d3e
00000170: 4b78 5abc 360c b93b ddeb 053e 60dd e5b9
00000180: 5eca ecbd fa81 e2bd efb7 54bc 7dce a4bd
00000190: 0274 d2bd f6a1 6cbd c2b3 213d d183 acbc
000001a0: 2dac 16be cc4d c6bd 580a 1ebe 20d1 6ebb
000001b0: edb4 37be 58ee 97bd af23 1abe 4eaf 5cbd
000001c0: 4bd1 52bd 3c9a 66bd ff96 85bd b643 b3bc
000001d0: fc04 2bbe fb4c 21bb 6efd 05bd 282d 133c
000001e0: ed35 bbbd 9cec 0dbd 8a1b 48bb 5cf5 803c
000001f0: 35a2 02bd bc74 8bbd aa71 72bd cdda 03be
00000200: 6858 0e3d e2e7 adbd 6af4 06be 5294 c9bd
00000210: 2208 44be 3b4a a0bc 5c9f 0ebc 8a27 13be
00000220: e519 38be e800 013a f1b5 9abd ddd0 91bd
00000230: 716f 1bbe 235f 04bc fb1a 713d 57f8 b0bb
00000240: 4cbf dbbc b821 863d 401e 9b3d 5bc8 6b3d
00000250: fd2e 143d 55bc 8f3d cccf 3c3e 3466 c83d
00000260: f405 703e 92c3 d33d 2030 693e 5d75 ac3d
00000270: 3d7d 1a3e 8b1a 1e3e cf95 4d3e 90f9 183e
00000280: 5689 82bd 6c44 27be 42b8 a73d fadd 663e
00000290: 5a67 483e 047f 86be 2116 efbd f6b2 18be
000002a0: ac38 07bb a0ff 763c 57c1 42be d058 91be
000002b0: 4a2e 51be 062f e6bd dc2f 8cbd 7870 d0bd
000002c0: 4acd 80bd bf6b 22be 68b4 2fbd 0ca2 8fbd
000002d0: 26a9 16be f00c 48bd dc86 78be 3f5f 1dbc
000002e0: 81b6 3abd 6cc1 fabd 2c68 83bd 7f6f 69be
000002f0: a206 20bd b645 6c3d 0e41 1dbe 5eaf 07be
00000300: 005a 7f3a f697 b03d 936b 0dbd 8ee3 adbc
00000310: 8b12 2dbd f0b3 1abc 0844 12bd 353c 333d
00000320: d21c 1ebe de43 39be a17d 0ebe bfa3 45be
00000330: dd96 e0bd 7329 eabd 4446 d3bd 3849 aabd
00000340: d930 b8bd d89f ddbd 8485 c6bd 4163 c7bc
00000350: 3896 ecbd 4695 f93c 7aba 923d cb73 443d
00000360: 404d cab9 004c d93d 4463 fe3d 5278 963c
00000370: 5a72 16bd 6a1c e5bc 7710 0c3e c8f1 483e
00000380: 9aa1 6c3e f2e0 113e ef02 7b3e c467 253e
00000390: 46c3 cbbd 51ea b53d b237 263e 3c35 a23d
000003a0: 826a 003e bac1 03be 40aa 853d 74dc ad3d
000003b0: 3843 0d3e 7427 ff3c 6cfb 3dbe b51e c4bc
000003c0: 659b a43c 6834 d63d 59ae 6dbd bb24 0cbe
000003d0: 1750 86bd ff56 c1bd 67d8 08bd 1050 b23d
000003e0: f86d 5bbe fbc0 6dbd bad4 aebd 1ab8 253e
000003f0: 1e35 05bd c56a 0fbe 4dfb 04be 7fe6 0e3d
-0.010652778 -0.19196562 -0.08821125 -0.02859614 -0.08489697 0.15197738 0.092656754 -0.0054895976
0.2245945 0.12632577 0.30149508 0.304414 0.24204382 0.17479026 0.26328424 -0.14070466
-0.08544578 -0.24460986 -0.2169514 -0.16561848 -0.27525052 -0.22479165 -0.21117912 -0.24548821
-0.2772699 -0.1462775 -0.08363447 -0.14404364 -0.19648074 -0.062342852 0.16856691 0.021787122
0.12953691 -0.014995647 0.00014554709 0.12644625 0.2079761 0.30158868 0.16189592 0.27374703
-0.050746553 -0.17086677 0.027171731 -0.15918615 -0.15497178 -0.17537686 -0.21434219 -0.22325045
-0.23191874 -0.22281054 -0.14552093 -0.018091246 0.006694275 -0.07483717 -0.018698938 0.124366894
0.044486046 0.12591851 -0.06019796 -0.076389834 0.15540941 0.17913191 0.26529396 0.35025692
0.1716638 -0.044430993 -0.0178705 -0.034673862 0.0057589123 0.051825702 -0.084072456 -0.03576743
-0.058586545 0.049205426 -0.015434482 0.12325369 0.23815174 0.050068963 0.11406022 0.1526312
0.26546225 0.1232209 0.27826554 0.15805656 0.21364303 0.25177115 0.21259597 0.103704914
0.11996877 0.21414615 0.14978719 0.13809486 -0.013334344 0.0056472076 0.13078256 -0.0004384322
-0.11562036 -0.11059947 -0.012983306 -0.08047197 -0.10276033 -0.057771645 0.03947807 -0.021058949
-0.14714117 -0.09682807 -0.15433633 -0.0036440566 -0.17940111 -0.07418507 -0.15052675 -0.05387812
-0.05146913 -0.056299433 -0.06522941 -0.021882873 -0.1670112 -0.0024612534 -0.032712393 0.008982934
-0.09141145 -0.034649476 -0.0030533993 0.015741996 -0.031892974 -0.06809375 -0.05919043 -0.12876435
0.03475228 -0.08491494 -0.13179174 -0.09842743 -0.19143727 -0.019566646 -0.008704986 -0.14370552
-0.17978628 0.00049210945 -0.07554234 -0.07119916 -0.1517923 -0.008079323 0.05886362 -0.005400698
-0.026824616 0.065494 0.07574129 0.05756412 0.036177624 0.07018343 0.18438643 0.09785119
0.23439771 0.103400365 0.22772264 0.08420823 0.15086837 0.15439813 0.20076679 0.1493895
-0.06373851 -0.16334695 0.08189441 0.22545615 0.19570675 -0.2626878 -0.11674143 -0.14912018
-0.0020633144 0.015075594 -0.19019066 -0.2838807 -0.20427814 -0.11239438 -0.06845066 -0.10177702
-0.06289156 -0.15861414 -0.04289666 -0.0701333 -0.14712963 -0.048840463 -0.24270195 -0.009605228
-0.045584206 -0.122439235 -0.064163536 -0.22796439 -0.039068826 0.05768367 -0.15356848 -0.13250491
0.0009740889 0.08622734 -0.03452642 -0.02122667 -0.042254012 -0.0094423145 -0.03570941 0.04375859
-0.15440682 -0.18092296 -0.13915111 -0.19300745 -0.10966275 -0.11433687 -0.103161365 -0.083147466
-0.08993692 -0.108215034 -0.09693435 -0.02433932 -0.115520895 0.030466687 0.07164474 0.04796199
-0.00038585998 0.10610199 0.12421277 0.01836792 -0.036730148 -0.02796765 0.13678156 0.19623482
0.23108521 0.14245966 0.24512838 0.16152865 -0.09949355 0.08882583 0.16232184 0.0792031
0.1254063 -0.1286687 0.06526613 0.08489314 0.13795173 0.031146742 -0.18552941 -0.023940424
0.02009363 0.104592144 -0.0580276 -0.13685887 -0.06558245 -0.09440421 -0.033409502 0.08706677
-0.21428668 -0.05804537 -0.08536668 0.1618351 -0.03252136 -0.14005573 -0.12986489 0.034887787

conv1.bias f4 [6]
00000000: aaf4 d6be 2ff8 4dbf 7efd fdbe 3b00 8f3c
00000010: 27b0 0fbf 9509 0bbe
-0.4198354 -0.80456823 -0.49607462 0.017456165 -0.5612816 -0.13577874

conv2.weight f4 [16, 6, 5, 5]
00000000: ac7a 7f3c 3062 ab39 ba74 04be 38ce dabc
00000010: 5f8d 91bc abdd 843b acfe 61bd b09e babd
00000020: 7456 01bd 5f24 10be e28b 2dbd 2605 8abd
00000030: 2816 10bd 9452 b0bd 34b7 12bc 10c6 f1bd
00000040: 00f6 cbb9 4513 d6bd 1a0b f43c b37e c6bd
00000050: d4ac 99bb 89e8 55bd 1ec3 ff3c e655 9cbd
00000060: 82b1 bdbd 4ea0 d6bc ea45 59bd de5b ebbd
00000070: b72b a9bd 7e31 b7bd 7e6f c43c f0e8 f4bd
00000080: ca38 febc 5f70 debd 9ebc 06bd a173 d6bc
00000090: 510b 92bd 9e92 57bd 10cb c5ba 8211 80bd
000000a0: 2cb8 a6bc 0cdc efbd 6446 d2bd ad2e 92bd
000000b0: 6873 8839 7b60 293c 236d aabd f82e 34bd
000000c0: 693d a4bd 28c1 fcbc 86ab 24bc 2ab1 23bd
000000d0: 2c82 33bc 5776 b7bd da8c dcbd 284b 25bd
000000e0: be03 f5bd 5970 c3bb 6646 dabb 5ab2 6ebc
000000f0: 82ed f3bd 6e42 6d3b b873 caba 4d4d 79bd
00000100: f424 09be 0c61 8fbd 31d4 f5bd efe7 b4bd
00000110: 6748 0ebc 0e93 58bd e2e8 d7bd e838 973a
00000120: 8d59 f9bc 883b 09bd ae42 4cbc 2119 9ebd
00000130: 5def 62bd 4b8c 6cbc aa0b a4bd f741 82bc
00000140: 9289 95bd 3af2 d1bd 2b62 81bc 3e53 dabd
00000150: f44a b9bc b697 513c b7ec e0bd 5c37 08be
00000160: 1764 c4bd fa91 10be 2c0d c2bd 0c42 f6bd
00000170: a2d3 233b d327 29bd 969f fdbc 7e3b 0fbd
00000180: 38d8 febd 7737 3bbd 51a6 cabd 3100 07be
00000190: b158 05bd 02be 74bd bcc2 04bd 57be 6cbd
000001a0: be03 febd 33b6 4cbd 765d ca3c ce53 07be
000001b0: e010 91bc a05a 6fbd 44fb 33bc feb8 a6bd
000001c0: 0529 10bc 26f9 8dbd 8ec9 f7bd 422a e7bd
000001d0: 464f a4bc 4829 553c 4a95 ddbd 8833 58bd
000001e0: a275 00be eefd a6bd 0261 8dbd 9465 98bc
000001f0: 2a85 ddbd 6888 02be 3179 b0bd 5c85 b1bb
00000200: 3485 60bd 93f2 e5bd b334 a2bc 46e0 cebd
00000210: a781 e4bd 5afb cfbd 30cf 003d fc7c 2d3c
00000220: 748c ce3c 504c 22ba 982e 5abd 646f fabd
00000230: cd14 65bc f4d9 b4bd 5ca1 afbd 8863 46bb
00000240: 3c32 8cbc f8c6 64bc b918 02be 2f3a 28bd
00000250: fb32 b2bd d55b 28bd 3375 e9bd cd3f bcbe
00000260: deb7 2bbe bb8e 28be f222 d9bd 307d eabe
00000270: 0052 8cbe c631 50be aa6f b4be 1efe 27be
00000280: ccf3 18be fb0f 83be a8ac 123c 1ae5 25be
00000290: 6c81 44be 9700 83be 93e1 84be e489 61be
000002a0: 6548 d7bd c8bf 7cbe 8c71 653d 525b ab3c
000002b0: 3e98 9fbc 2455 d0bd 858c 7ebe ec49 69bd
000002c0: 2e76 e23b e7a2 90be a963 25be aed4 bdbd
000002d0: 31d5 953c 6fe9 a8bc fee3 20be 2690 afbd
000002e0: 77e6 b7bd 2044 5a3c f861 46bc 3e10 1f3d
000002f0: d8ba 48bd adf5 39bd ef46 2dbd 57a7 85bc
00000300: 9a52 3bbe 68af 31bd 1956 b2bd c037 6fba
00000310: 62c8 8dbd 0ad2 b0bd e58f f6bd 791a 47bd
00000320: d725 08be 827e 16be a9bd 28be 7e78 e1bd
00000330: 710d 53be ed96 45be dcf8 2fbe f492 84bd
00000340: 1249 c1bd aae4 86be fcbd 75be 3d94 30be
00000350: 7e68 4cbe c82f 95bd 09f1 1dbe 35f9 05be
00000360: 62bb 84bd e716 06be a408 4ebd 31ea 11bd
00000370: aa45 01be c923 4b3c 8b38 20be 1a19 35be
00000380: b596 1ebe 1fc0 b2be 4ac1 6bbe 1779 00be
00000390: 7e52 bdbd 0048 f3b8 70fc 81be 7843 8cbe
000003a0: 6c5f 21be 56e5 84be 947a bebd 607e 76bc
000003b0: 1a74 f1bd 412a abbe 68e0 6bbe e097 20be
000003c0: 29b5 ca3d bb84 72bd 3a94 bfbe cb16 41be
000003d0: f844 4abe d034 1b3e 1cc2 98bc 7a46 b6be
000003e0: f66b 4abe c743 fdbd 4244 71bd 7d92 85bc
000003f0: b759 8e3d 2ce7 4e3d 340d 88bb e2a4 27be
0.015593212 0.00032688817 -0.12935153 -0.02670966 -0.017767606 0.004054745 -0.055174515 -0.091122985
-0.03157659 -0.14076374 -0.04236973 -0.06739263 -0.03517738 -0.086095005 -0.008954812 -0.118053555
-0.00038902462 -0.10452894 0.02979045 -0.09692135 -0.004689792 -0.052223716 0.031220969 -0.07633571
-0.092623726 -0.026199486 -0.05304519 -0.11492132 -0.08260291 -0.08944987 0.023978945 -0.11958492
-0.031032939 -0.10861277 -0.032894723 -0.026178183 -0.07131065 -0.05263006 -0.0015090425 -0.06253339
-0.020351492 -0.117118925 -0.10267332 -0.07137809 0.00026025926 0.010337944 -0.083215974 -0.043990105
-0.080195256 -0.030853823 -0.01005066 -0.03996388 -0.010956328 -0.089581184 -0.10769053 -0.040354878
-0.119636044 -0.0059643206 -0.006661224 -0.0145688895 -0.119105354 0.0036202925 -0.0015445864 -0.060864735
-0.13393003 -0.07000932 -0.12003363 -0.088333 -0.008684254 -0.052874617 -0.10542466 0.0011537345
-0.030438209 -0.03350404 -0.01246707 -0.07719637 -0.055404056 -0.014437745 -0.08010037 -0.015900595
-0.0730163 -0.10251279 -0.01579388 -0.106604084 -0.022618748 0.012792518 -0.1098265 -0.13302368
-0.09589403 -0.14118186 -0.094751686 -0.12024316 0.002499797 -0.041297745 -0.030959886 -0.034968846
-0.12443584 -0.045707192 -0.098950036 -0.13183667 -0.032555286 -0.059751518 -0.032412276 -0.05779871
-0.124030575 -0.049978446 0.024702769 -0.13215563 -0.017708242 -0.058436036 -0.010985199 -0.08140753
-0.008798842 -0.06932287 -0.120989904 -0.11287357 -0.020057332 0.0130103305 -0.1081949 -0.05278352
-0.12544873 -0.08153902 -0.069032684 -0.018603124 -0.10816415 -0.12747347 -0.086168654 -0.005417509
-0.054814532 -0.11227908 -0.01980052 -0.101013705 -0.11157542 -0.101553634 0.03144759 0.010588881
0.025213458 -0.0006191181 -0.05326709 -0.12228277 -0.01398201 -0.08830634 -0.08575699 -0.0030271728
-0.017113797 -0.0139634535 -0.12704743 -0.041071113 -0.0870113 -0.041103203 -0.11399307 -0.36767426
-0.16769359 -0.16460697 -0.106023684 -0.45798635 -0.2740631 -0.20331487 -0.35241443 -0.16405532
-0.14936751 -0.2559813 0.008952297 -0.16200677 -0.19189996 -0.25586388 -0.2595335 -0.22025257
-0.10511855 -0.24682534 0.05601649 0.020917568 -0.019481774 -0.10172489 -0.24858291 -0.056955263
0.006911061 -0.28249285 -0.16151299 -0.09269081 0.018290134 -0.020619122 -0.15711972 -0.08572416
-0.089795046 0.013321906 -0.0121083185 0.03883385 -0.049006313 -0.04540031 -0.042303976 -0.016315145
-0.18293229 -0.04338017 -0.08707828 -0.0009125434 -0.069229856 -0.08633812 -0.120391645 -0.04860923
-0.13295685 -0.14696696 -0.164786 -0.1100931 -0.20610596 -0.19295855 -0.17184776 -0.064733416
-0.09437765 -0.26346332 -0.23998255 -0.17244048 -0.19961736 -0.07284504 -0.15423979 -0.13083346
-0.06481053 -0.13094674 -0.05030121 -0.035623733 -0.12624231 0.012398669 -0.1564657 -0.17685357
-0.15487178 -0.34912202 -0.23022953 -0.12546192 -0.0924425 -0.00011600554 -0.25387907 -0.27395225
-0.15759057 -0.2595622 -0.09300724 -0.015044779 -0.11789723 -0.33430675 -0.23034823 -0.15682936
0.09897835 -0.059208613 -0.37417775 -0.18856351 -0.19752872 0.15156865 -0.018647246 -0.35600644
-0.19767746 -0.12366443 -0.058902986 -0.016305203 0.069507055 0.05051343 -0.0041519646 -0.16371492

conv2.bias f4 [16]
00000000: 2ea6 8cbd 5509 7a3e 5e58 0dbe ac70 22bd
00000010: e6ce cebd 5645 aabd 7e78 bfbc 5903 00be
00000020: 7023 d8bd 1cec 07bd 29db 1c3d eef7 4fbd
00000030: 20dc dabd 669b 423e 5e47 7a3e 60bb 76bd
-0.06867634 0.24417622 -0.1380324 -0.039658234 -0.100980565 -0.08314006 -0.023372885 -0.12501277
-0.10553634 -0.033184156 0.038294945 -0.050773554 -0.10686517 0.19004592 0.24441287 -0.06023729

fc1.weight f4 [120, 400]
00000000: 4f70 f83c a8fa 973b 4496 75bc 49af c3bc
00000010: fb3a 363d 4803 2cbc c82e 2cbd 61b2 0e3d
00000020: 2802 61bc acd6 1d3c dcab a2ba 5491 2c3d
00000030: 2238 423d 305b 123d dc0a 08bd a27e d6bb
00000040: 70f9 8e38 b4ea 003d 1419 4bbc 8e0a 323d
00000050: a251 153d 2bbd 953c 23b4 ab3d 8bea 663d
00000060: cd13 0c3d 18e4 abba 8dce d0bb ad91 9ebc
00000070: fda8 a23b 4cf8 cf3c 3ecb a13c 401c 38bd
00000080: caef 2b3c d759 ca3c 569c 71bd 2e23 15bd
00000090: a27e 703b 643b 31bd 045c 1b3c 28ec 10bd
000000a0: 6b62 69bd 0048 f837 e0b3 253d 9a04 24bc
000000b0: 5a40 3bbd 8c7f ccbb 2d56 16bc e866 9c3d
000000c0: f0ce debc e489 10bb 1420 d6bc efe8 a2bd
000000d0: f2bb c2bd f889 35bb 1c5d c63b 4666 c1bd
000000e0: 74f8 f23c 58cd 7bbc 5f1c 713c bf85 883c
000000f0: ef3c c4bd 19f8 a5bc c38c 56bd dc5c 65bb
00000100: 043a 75bd 374b 9bbd fc4f bebd 5f51 16bd
00000110: 2c72 ab3c ff66 3bbc d4b4 8ebd d578 88bc
00000120: 400a 4bbd 7c6f bc3a 267f b3bd 3588 53bd
00000130: af57 103d 56a5 133d 2905 fe3c 9ccf 76bd
00000140: fbe8 2c3d 36f5 553c 5e0c d8bc e35f d53c
00000150: 9e4b 85bc 084e 2a3d ed4a 6abc 8bb5 84bd
00000160: 5ec5 3fbd a9c8 2c3d 20c0 ad3c d007 79bd
00000170: 5beb b7bb c80d 0cbc 2739 d23c 364e c2bc
00000180: f45d dd3c 70ae e33b a967 3ebd 5843 47bd
00000190: e4d4 823c 5e08 8e3d c704 56bc 2e53 803d
000001a0: 9a9d c73d 94c6 673c 20cb 8e3d 0f94 a93d
000001b0: be89 233d 12a9 803d 5015 5e3b fcda 25bd
000001c0: 2e83 bebc 9fda 0cbd 5020 883c fac7 a1bd
000001d0: 7af6 9fbd 1222 85bd 660a 2e3b 90fa 6dbd
000001e0: e061 31bd f242 73bd d7c6 8ebc 203b b3bc
000001f0: 7490 633c 9ce1 0ebe 491e fbbd e689 eebd
00000200: 16b1 babd 24a4 9dbc 5144 9fbd f4a2 e4bd
00000210: 6acd 943d b2e9 203c 1fd0 4bbd c838 eebb
00000220: 7e2f 09be 0186 63bd e436 68bd 938d 283d
00000230: ef50 ccbd bcd6 4cbd 407a bf3b b4c3 a03b
00000240: 6132 58bd a367 24bd c1a8 f13b b92b c5bd
00000250: 6a60 dfbd 249f 6d3b 92ab 123d 808c 4bbd
00000260: b20a f1bd 447c 03be 9dab 28be 6932 4ebc
00000270: 58bc 79bd 981e 3dbd 2a5d 0abe 65fd 24be
00000280: 1706 15bd a0f3 08bd 7cf2 2cbc d4b9 84bb
00000290: ea24 c0bd 357a a2bd 682e d3bd 6bfa 8ebd
000002a0: bc87 07be 5b6c 5e3d bb59 a8bd 590c 14be
000002b0: f29f b5bd 524d 0abe d7d6 96bd ce91 abbd
000002c0: 1e2d 97bd 9ed8 a2bd 5f35 01bd 8859 d7bb
000002d0: b29e 98bd e514 99bd 5020 a6bd 0d56 c8bd
000002e0: 15f6 bdbd 3339 e0bb bc50 b3bc 8a64 9cbd
000002f0: 7472 68bd 48eb acbd a0ff 033c 8453 af3b
00000300: 881a 56bd 939b 25bd 9710 83bd 4aa0 183c
00000310: b730 453b 150b 86bc 45eb adbd 8499 05bd
00000320: 5cfa 80bd ae02 93bd b075 cfbc 6f8a b1bd
00000330: 1aaf 9fbd ea3b 233b ac2a 113b 5cee 8ebd
00000340: db40 bbbc b8ea 2ebc 1ed8 5dbd bc4d 6fbd
00000350: 2d23 99bd 4861 80bc b50e 84bd de52 72bd
00000360: 0d43 20bd 9008 f1bb 0c54 a1bd b955 b5bc
00000370: 07f0 8abd 61ea 9abd 0304 88bd ec29 e5bd
00000380: 8382 08be 04a9 42bc 0038 c0b9 2ad5 54bc
00000390: 40c4 00bd 7aaf 11bc 364f 163d 14b1 243c
000003a0: 5e03 903c 4001 7cbd d26e 653c e8ab b43c
000003b0: 8830 e1bc 0a34 82bc 587b 6dbc cd11 803d
000003c0: 1caf 843d 633c fcbc d083 6f3d 371b f4bc
000003d0: b43d 75bd ad5d 1f3d daba a93c 3e7a febc
000003e0: 303e c1bc 8bd0 753d a488 e23c e423 febc
000003f0: 442c a2bd 1483 debd e8d2 6dbd 2b33 673d
0.03032699 0.004638035 -0.014989439 -0.023887293 0.044489842 -0.010498829 -0.0420368 0.034838084
-0.013733424 0.009633701 -0.0012410837 0.042130783 0.047416814 0.035731494 -0.03321348 -0.0065458575
6.817549e-05 0.03147383 -0.012396116 0.043467097 0.036454804 0.018278679 0.08383968 0.05637602
0.03419857 -0.0013114242 -0.006372279 -0.019356573 0.0049639926 0.025386952 0.019750234 -0.044948816
0.010494182 0.024701042 -0.058986984 -0.036410503 0.0036696573 -0.04326953 0.009482387 -0.035381466
-0.056978624 2.9597431e-05 0.040454745 -0.010010863 -0.045715667 -0.0062407907 -0.009175819 0.07636815
-0.027198285 -0.0022054845 -0.026138343 -0.07954585 -0.09508504 -0.0027700644 0.00605358 -0.09443335
0.029659487 -0.015368782 0.014716237 0.016665338 -0.09581935 -0.020259904 -0.052380335 -0.0034997975
-0.05986978 -0.075827055 -0.092925996 -0.036698695 0.020928465 -0.01143813 -0.06968084 -0.01665918
-0.049570322 0.0014376487 -0.08764486 -0.05164357 0.03523987 0.03604635 0.03100832 -0.060256585
0.042214375 0.013058951 -0.026373085 0.026046699 -0.016271409 0.041578323 -0.01430009 -0.06479939
-0.046819083 0.042183552 0.021209776 -0.060798466 -0.0056127734 -0.008548208 0.025662018 -0.023718935
0.02702234 0.006948285 -0.046485577 -0.04864821 0.015970655 0.0693519 -0.013062662 0.06265865
0.09746857 0.014146466 0.06972337 0.08280193 0.039926283 0.062822476 0.0033887215 -0.040492043
-0.02325591 -0.03438818 0.01661697 -0.078994706 -0.078106835 -0.06500639 0.002655649 -0.058100283
-0.04330623 -0.059390016 -0.017428799 -0.021878779 0.013889421 -0.1395325 -0.12261636 -0.11647396
-0.09115808 -0.019243307 -0.07776702 -0.11163893 0.07265742 0.009821342 -0.049759027 -0.0072699524
-0.13397023 -0.055547718 -0.056692973 0.04115064 -0.09976374 -0.050009474 0.0058434308 0.004906142
-0.05278242 -0.0401379 0.0073748534 -0.0962748 -0.109070614 0.0036258185 0.035808153 -0.049694538
-0.11769618 -0.12840372 -0.16471715 -0.012585261 -0.060970634 -0.046171755 -0.13512102 -0.16112287
-0.03638276 -0.033435464 -0.01055586 -0.0040504728 -0.09382041 -0.079334654 -0.10311586 -0.06981357
-0.13235372 0.054302555 -0.0822024 -0.14457835 -0.08868398 -0.13506058 -0.07365196 -0.083774194
-0.07381652 -0.07951473 -0.03154504 -0.0065719523 -0.07452144 -0.074746884 -0.08111632 -0.09782038
-0.09275452 -0.006842756 -0.021889083 -0.07636364 -0.056749776 -0.08443314 0.008056551 0.005350532
-0.052271396 -0.04043157 -0.06399649 0.00931556 0.003008885 -0.016362706 -0.0849214 -0.032617107
-0.06297752 -0.071782455 -0.025324672 -0.08668982 -0.0779707 0.0024907538 0.0022150679 -0.06979057
-0.022858074 -0.0106760785 -0.054161184 -0.058423743 -0.074774124 -0.015671387 -0.06448118 -0.05916106
-0.039126445 -0.007355757 -0.07877359 -0.022135602 -0.06784063 -0.075642355 -0.0664139 -0.111896366
-0.13331036 -0.011881117 -0.00036662817 -0.012990275 -0.03143716 -0.0088919345 0.036696635 0.010051984
0.01757973 -0.06152463 0.014003472 0.022054628 -0.027488962 -0.015893955 -0.0144947395 0.06253395
0.06478712 -0.030790513 0.058475316 -0.029798133 -0.059873298 0.038907696 0.02071898 -0.031064149
-0.023589224 0.060013335 0.027653046 -0.031022973 -0.07918599 -0.10864845 -0.058062464 0.056445282

fc1.bias f4 [120]
00000000: fe66 1fbe 7600 e7bd eb1c d7bd a4ae 2dbe
00000010: ea2c 1bbe 6e2a 22be dfed 673e 2cca 39be
00000020: 804c 80bd 7b13 24be 4488 11be 5a35 53be
00000030: 0707 cb3c ead5 a4bd c678 f2bd 0c8e c5bd
00000040: 2378 04be e412 61bd eda7 2d3e ba82 afbd
00000050: a58d 893e 1fce 58be 7054 2cbe a725 06be
00000060: f3a1 1e3d bb98 23be 8c49 b03e ce80 46bd
00000070: 321b 54be d709 c7bd c554 1c3e bb3d d9bc
00000080: 084a e83d 947b 4d3d 1483 c8bd 06af 3abe
00000090: 42c0 3abe f931 463c 1dcb 87bd dd84 48be
000000a0: 0369 88bd 6886 f1bb 4606 82bd 6fdc 34bd
000000b0: 11c1 48bd a8e3 31be ffe4 42bd 3204 10be
000000c0: 78b1 81bd 2e07 37be 8776 63bd 5064 493e
000000d0: 3015 0e3e 0aa1 2dbe 8c3f 23be 12f4 e5bd
000000e0: db2c 493e 1b81 353e a4d9 1abe 2e3a 0cbe
000000f0: 9608 05be ce8b 6f3c 34a6 fabd 0fbc 84bd
00000100: d1ab 36be e2dc f8bd 37c6 e6bc 4754 08be
00000110: 3a32 e3bd 42f3 b2bd 1cda e1bd 1835 04be
00000120: e048 6f3e 4bbf 02bb b04e 95bd a21a efbd
00000130: d058 96bd ce52 2ebe 8e46 38be a46f 29be
00000140: 40aa 3b3e 7052 b9bd c9c9 73bd e298 59bd
00000150: c6d5 9fbd ba81 ecbd f2f9 b93d f3fe 86bd
00000160: eaaa eebd b890 9b3d c993 e2bd b206 60be
00000170: c0c0 083b 0953 06be 9625 903e 751d 2bbe
00000180: 8961 ccbd 102e 16be 428c ccbd f57f 9ebd
00000190: 8f40 863e 536b 32bc 6de2 2fbe e98a f6bd
000001a0: 51c2 903c f6cb a13e d011 16be c55c 0ebe
000001b0: 94b0 18be f82a 1bbe 7e43 31be 2db3 54bd
000001c0: c00f 943e b2c5 1cbe a2bd c6bd 57ff 41be
000001d0: ca4a ff3c cf2e d4bd e3a1 c8bd 4d94 993c
-0.15566632 -0.11279385 -0.105035625 -0.16961151 -0.15153852 -0.15836498 0.22649334 -0.18143529
-0.06264591 -0.16023056 -0.14212137 -0.20625821 0.024783624 -0.08048613 -0.11839442 -0.09646234
-0.12936454 -0.054949656 0.1695859 -0.08569856 0.2686588 -0.21172379 -0.16829085 -0.131003
0.038728666 -0.15976231 0.34431112 -0.04846268 -0.20713499 -0.09718674 0.15266712 -0.026518693
0.11342245 0.05016668 -0.09790626 -0.18230829 -0.18237403 0.012096875 -0.06630538 -0.19581933
-0.066606544 -0.007370759 -0.06348853 -0.044155534 -0.049012247 -0.17372 -0.04758167 -0.140641
-0.063326776 -0.17873833 -0.05553296 0.19667172 0.1387527 -0.16955963 -0.1594221 -0.11228193
0.19646017 0.17725031 -0.15122086 -0.13694069 -0.12991557 0.014620734 -0.12238732 -0.06481182
-0.1783898 -0.12151505 -0.028170688 -0.133134 -0.11093564 -0.08737804 -0.11027929 -0.12910879
0.23367643 -0.0019950445 -0.07290399 -0.11675002 -0.073411584 -0.17023775 -0.17995664 -0.16546494
0.18326664 -0.09048927 -0.05951861 -0.053124316 -0.07804446 -0.11548181 0.090808764 -0.065915965
-0.11653693 0.07595962 -0.11063344 -0.21877554 0.002086684 -0.13117613 0.28153676 -0.16710456
-0.09979541 -0.14666009 -0.099876896 -0.077392496 0.2622113 -0.010889846 -0.17176218 -0.12038214
0.017670782 0.31600922 -0.14655232 -0.13902576 -0.14911109 -0.1515311 -0.17310902 -0.051928688
0.28918266 -0.1530979 -0.09704138 -0.1894506 0.031163592 -0.103604905 -0.097965024 0.018747473

fc2.weight f4 [84, 120]
00000000: 62d8 a6bc c577 38bd 2c6a 8dbd 9935 b83d
00000010: 5e0a 1cbd d654 113e 193d 0ebe d8f9 71bd
00000020: 5f26 4cbc 2ad5 8e3c 4fb7 62bc c87b ecbb
00000030: f577 acbb 3381 473d 4c86 bf3c 5dd9 0d3c
00000040: 8939 d8bc 3c72 183d 2498 c93c 24a2 ea3b
00000050: 5009 793d 1227 03bd 8b2b 093e 38c6 d9bd
00000060: 3f73 3ebd a9f5 2b3c 268d f1bd 4edc 3fbd
00000070: 1f3e 993c 5465 fcbd a4ca 04be 60b0 8fbd
00000080: 7e95 8e3d 9f8b afbd fc2b 41bd c069 03ba
00000090: e0c9 50bd 6322 2cbe 249f 03be 611d e1bd
000000a0: 4c6c 0b3d 83a4 b63d 8843 ebbc 0fdb 9d3d
000000b0: f500 8f3d 0cf5 b5bd 4a6e 26bd 3be4 d4bd
000000c0: c971 b6bd d2a6 3bbd 2ce0 483c 89bb 8ebd
000000d0: f142 c63d 61dc afbc 7c36 afbb 573f 47bd
000000e0: bbfd c1bd 50ec f0bd 51b4 a03c 211d 933d
000000f0: d0f3 78bb 8b10 f3bd cfd9 b63c 2d0a fbbc
00000100: a019 97bc 762f 473d 1a84 d6bc 384a 8a3d
00000110: f083 833b b041 07be 4d9e 423d ae30 13be
00000120: b27c 3f3c 203a 77bd 5206 c0bd 1485 e3bd
00000130: 6e68 b2bd 661d 37bd 5a7a 943d 3884 26bd
00000140: d687 e9bd fe91 203e d2c2 14be 4779 51bd
00000150: 616c 21be 9c46 04be 43c1 22be 424f 013d
00000160: bffa 2fbe cf9e 793d 3e53 c23d e3aa 72bd
00000170: 6e50 d6bd 9f38 033d e18f 07be 8200 b4bc
00000180: 9022 56be 8065 34ba 87f5 6a3d 4d2c 9fbd
00000190: de1b 80be ad03 8dbc 6628 d1bc 2440 ccbd
000001a0: 753f f1bd 74fc b4bc 6237 03bd 8821 b93c
000001b0: 02ac 70bd e919 8d3c 5979 a0bd 4cce 10bc
000001c0: a61b 0e3e 6aa6 07be 3f89 103d 28b5 853c
000001d0: 43df cb3d 78eb 83be d64a 483d 555f 19bd
000001e0: 2a32 eabd 60ed 23be 0be0 a5bc c302 483c
000001f0: 9785 023d 2404 523c 6f1e 0fbe 0cce 073d
00000200: 2491 6dbd 9a20 b1bd f5ae 19bd 95df 08be
00000210: 7205 55be fd05 48be b347 2e3d 8157 73bd
00000220: b86c 4cbb 0af0 22be e7ce fcbd 254a 37be
00000230: 6fb9 953c 3635 6f3d 42ad 25be d6b9 06bd
00000240: 5be0 9bbd c06f 00bd 14a6 90bd 01ec 59bd
00000250: 67f9 583d 18ea 33be 2853 40be 2447 00be
00000260: 440e b3bd c479 c4bd c407 a3bd d4d3 d9bd
00000270: a27d 943c 1ece 5fbd ae30 013d e9ea 733d
00000280: 38b5 bebd 4024 263d ef26 eebd 0537 31bd
00000290: 3279 11be 432c b53d 305a 4abd 2880 7dbd
000002a0: 1eec 0c3d ae73 f63d 78ec 36be 045a 1dbe
000002b0: 3c73 0f3d 0e10 d2bd ad32 ec3d 01ec 93bd
000002c0: aed6 39bd c8d3 d7bd 82ff 59bd 006d b3bd
000002d0: 2dda 86bd 824f 83be 28df af3d 6c48 02bd
000002e0: e61c 1f3e fe2d 923d d75b 83bd 4719 893d
000002f0: 6d4f 10be fa09 98bb 0515 b8bd 3099 f4bb
00000300: 26ed 24be 3112 27be f496 f33c 67f9 333d
00000310: 1003 a4bd 40df ebbd c037 dbbb f429 13bd
00000320: fc92 74be 5bd7 99bd cd26 b03d a84e 18be
00000330: 5941 09be ccaf e23d 1844 e4bc 821e 093d
00000340: bee4 da3d 2908 38be b8f6 fe3c d9a8 81bc
00000350: e869 84bd 728b 033c dbd7 58be c523 013c
00000360: 96d3 f1bd c40c d73d 10a7 4abd 3a57 153d
00000370: 23c9 b8bd b5e4 47be d8f0 13bd 871f 533d
00000380: 4554 97bd 5efd bebe 211e 0a3c 1b41 163d
00000390: d4ab bdbd eb39 99bc c79b 0cbd 1084 08be
000003a0: aa77 2dbe f3c7 983c 9c10 4abd 463b c4bd
000003b0: ce06 4fbd dff6 2ebc 862a fdbd a4ef bbbd
000003c0: 5e28 a23c c05c 633d e23f 403c a08a a3bd
000003d0: 3646 a7bd 0c9f 09bd c075 23be fba0 cb3c
000003e0: 3c0e cdbd 6013 7a3d 769a 13be c251 9ebd
000003f0: 0141 5b3c b752 8fbc b5d0 11bd b7e8 90bc
-0.020366851 -0.045036096 -0.06905016 0.08994598 -0.038095824 0.14192519 -0.13890494 -0.05907616
-0.01246032 0.017435629 -0.0138376495 -0.0072169043 -0.0052633234 0.0487072 0.023379467 0.0086577805
-0.026394622 0.037218317 0.02460868 0.007160442 0.060799897 -0.032019682 0.13395517 -0.1063351
-0.046496626 0.010495582 -0.117945 -0.04684096 0.01870638 -0.12324014 -0.12967926 -0.07016063
0.06962107 -0.085715525 -0.047161087 -0.00050130114 -0.050973773 -0.16809992 -0.12853676 -0.10991932
0.034038827 0.08918097 -0.028718725 0.07707798 0.069826044 -0.088846296 -0.040632524 -0.10395094
-0.089084215 -0.04581339 0.012260478 -0.06969363 0.09680737 -0.02146739 -0.005347071 -0.04864439
-0.09472223 -0.11763823 0.019617232 0.0718329 -0.003798712 -0.1186839 0.022320656 -0.0306445
-0.018444836 0.048629247 -0.026186038 0.06752437 0.004013531 -0.13208652 0.04751425 -0.14374039
0.0116874445 -0.060358167 -0.093762055 -0.11109367 -0.08711325 -0.04470577 0.07249899 -0.040653437
-0.11402862 0.15680692 -0.14527443 -0.05114105 -0.15764 -0.1291756 -0.15894036 0.031569727
-0.17185496 0.060942467 0.094885334 -0.059245 -0.104645595 0.03203642 -0.13238479 -0.021972898
-0.20911622 -0.000688158 0.05736306 -0.077721216 -0.2502126 -0.017213667 -0.025531959 -0.09973171
-0.117796816 -0.022093035 -0.03203524 0.022598997 -0.05875779 0.017224269 -0.07835645 -0.0088382475
0.13877735 -0.13247076 0.035287138 0.016321734 0.09954693 -0.25765586 0.048899494 -0.03744443
-0.11435349 -0.1600852 -0.020248434 0.01220769 0.031865682 0.01281837 -0.13976453 0.033155486
-0.057999745 -0.086487964 -0.037520368 -0.1336654 -0.20802858 -0.19533534 0.042548846 -0.059409622
-0.003119273 -0.1591188 -0.12344151 -0.17899378 0.018276898 0.058400355 -0.16179374 -0.03289207
-0.07611152 -0.031356573 -0.07062927 -0.053203586 0.052972224 -0.17569768 -0.18781722 -0.12527138
-0.08742955 -0.095935374 -0.079604656 -0.10636106 0.018126313 -0.054639928 0.031540565 0.0595502
-0.093119085 0.040561914 -0.1162852 -0.04326536 -0.14206389 0.08846333 -0.049402416 -0.061889797
0.034404866 0.12033783 -0.17863643 -0.1536637 0.035022005 -0.102569684 0.11533103 -0.072227485
-0.04537075 -0.10538441 -0.053222187 -0.087610245 -0.065845825 -0.25646597 0.085874856 -0.031807348
0.15538368 0.071376786 -0.064140014 0.066942744 -0.14092799 -0.004639861 -0.08988384 -0.0074645504
-0.1610609 -0.16315533 0.029735066 0.04393902 -0.080083966 -0.11517191 -0.0066899955 -0.03592868
-0.23884195 -0.07511779 0.08601151 -0.14873755 -0.13403834 0.11068687 -0.0278645 0.03347636
0.1068816 -0.17971863 0.031123504 -0.015827583 -0.064655125 0.008028852 -0.21176092 0.007882063
-0.11807935 0.10500482 -0.04947573 0.03646014 -0.09022739 -0.19520839 -0.03611836 0.05154374
-0.0738912 -0.3730268 0.008430035 0.036683183 -0.09261289 -0.018704375 -0.03432825 -0.13331628
-0.1694018 0.01865003 -0.049332246 -0.09581618 -0.0505436 -0.010678976 -0.12361626 -0.09176567
0.01979464 0.055508375 0.011733981 -0.07985425 -0.081676885 -0.033598945 -0.15962887 0.024857035
-0.100124806 0.061053634 -0.14414391 -0.07730438 0.013382197 -0.017495496 -0.03559943 -0.017689092

fc2.bias f4 [84]
00000000: 57e7 1dbe c83c 763c 1897 18be 781a cb3c
00000010: ce0e 58be 4caf 5ebe 8884 30be 9994 86bd
00000020: 3624 57be c6ca af3e 0cef fabd fadb 3fbd
00000030: 662d 13bd 7daa 26be 7c45 48be 8bfe ab3e
00000040: 00c4 243e 515d bd3e 8010 0bbe 681e 753d
00000050: 393a 6b3c b50d d0bd 6449 dcbd c22e 813c
00000060: 31f8 23be d06e a43e 16f7 5a3d c0cf f1bd
00000070: b806 f73b acb1 933c e172 0fbe c4af d13d
00000080: 908f 54bd f129 813d 04e9 54bd cdff 4a3b
00000090: e700 c83d b987 903e 1083 aebd 8a55 dfbd
000000a0: 480b 963e b957 10be 7a69 01be c644 e53e
000000b0: ed36 08be ba28 10bc 6c85 66bc 3d29 16be
000000c0: 43a0 bc3c b28a d7bd 850a 9dbd b3e5 853d
000000d0: 7b50 04be 48ac 713a 9421 5e3d 1a41 02be
000000e0: 0abb aabd 752b 1cbd a205 31bd 8a47 123e
000000f0: dc75 9cbb 0619 dfbd e354 a5bd 7ab5 11be
00000100: 876a 1abd 2c1e 6fbe 705c 35bd b2b1 013e
00000110: c606 0fbe 52f9 bc3c 63e1 3bbe ba4e c7bd
00000120: c4d9 05be 1e7e 823e 560a 41be ac0b 273e
00000130: 8c56 4fbd 702b 903d 5463 1bbe 1414 82bc
00000140: 5c39 4ebd 7890 2bbe 6a2d 46be a1d7 313e
-0.1542028 0.01502914 -0.14901388 0.024792895 -0.21099398 -0.21746558 -0.17238057 -0.065713115
-0.21009907 0.3433439 -0.12252626 -0.046840645 -0.035931967 -0.16275974 -0.19557756 0.33592638
0.16090393 0.36985257 -0.13580513 0.05984345 0.014357143 -0.101588644 -0.10756186 0.015769366
-0.16012646 0.32115793 0.053458296 -0.11807203 0.0075386427 0.018029056 -0.14008667 0.10238603
-0.051894724 0.06306828 -0.051980034 0.0030975223 0.09765797 0.28228548 -0.08521092 -0.10904987
0.29305482 -0.14095964 -0.12637892 0.44779032 -0.13302203 -0.0087987725 -0.014069896 -0.14664169
0.023025637 -0.10524501 -0.07668022 0.06537952 -0.12921326 0.00092190923 0.05423124 -0.12720147
-0.08336456 -0.03812738 -0.043218262 0.14285102 -0.004774792 -0.10893445 -0.080728315 -0.14229384
-0.03769925 -0.23351353 -0.04427761 0.12665442 -0.13967428 0.023068104 -0.18347697 -0.09731813
-0.13071352 0.25486845 -0.18851599 0.16313046 -0.050619647 0.07039535 -0.1517461 -0.015878715
-0.05034767 -0.16754329 -0.19353262 0.17367412

fc3.weight f4 [10, 84]
00000000: e2bd a2be ecd8 ec3d 6ae7 62be c113 50bd
00000010: 6385 fcbd 14f8 b4be 0fd2 a0bd e6c1 5d3d
00000020: 3ffa d8bd 5af8 9ebe e8ce 1dbd c128 b83d
00000030: 33c2 3b3e 61a4 43be 3c3a ebbd 8dca b3be
00000040: 19d7 09be f55e c8be 39a5 9cbb f981 003e
00000050: c059 41be 3887 7ebe af7e bebd c9d7 cbbe
00000060: 45c0 23bc bc8c 85be aa7a a4be d977 91bd
00000070: 6003 81be f3fe 23bd a5ae b3be 9c25 91be
00000080: 05cf 343d 5892 b3bd 1412 f9bc 3677 303d
00000090: 1abd 503d 4a17 a4be 6cee ecbd a2c0 42be
000000a0: 792b 46be 2ab2 86bd 608b ccbd 404b 10be
000000b0: c9d0 2cbd 1eed a4bd c10a 6ebd 77ef 24bc
000000c0: 0812 68be 4ae9 ffbd 2a9b 3abe cce9 fcbc
000000d0: f856 26bd 22d7 e6bd 0ef4 49be e550 a0bd
000000e0: dd8b f83b 964c 323c b854 e3bd 80ab e6bd
000000f0: 1820 87bb 8491 de3b afe6 55bd 0889 5abe
00000100: d740 b3bc ee98 75bd 9e35 85be d87b a5be
00000110: 92c5 8bbe b4e9 9cbe c988 9abd dcbe afbd
00000120: f739 3fbe a390 d5be 496e 87bd 6024 6cbd
00000130: 47c5 56be 3c54 133e 4ee9 1dbe 52b2 52bd
00000140: 151a 83bd 4857 30bd c4b5 4abd 58cb 8cbb
00000150: 89e2 97be a286 fbbb 867e 5dbe 13c9 253e
00000160: cc37 09bd be09 3abe a183 b9bd f48c 2cbe
00000170: 53ec 09be 8b80 90be 69d0 bfbc 5a44 c83d
00000180: 5863 c73d d7de 92be f7ce 50be 066b 1dbe
00000190: ac00 63be c7cb 93be eb98 33bd 73ca 8abc
000001a0: d537 2bbe 562b 5dbe d737 f2bd ce1e 79be
000001b0: f359 31be 4647 d3be cccd 48be 0ffa 86bd
000001c0: def6 aabe e1d2 1abe 6cf2 48be 4cfd aabe
000001d0: 2668 7ebe 359d 1dbf 639d ae3d f18a 433d
000001e0: 4de3 73be ceda a6be f69a 10be 162e e5bd
000001f0: 9afa b1be 4b53 85bd e795 35be d8b5 eabe
00000200: 47c0 21be 8975 5cbe 13fd 59be 10e7 803d
00000210: c987 91be d67b aabe b230 86be 3eb2 343e
00000220: 95cc 2b3d b0ed 523c 5e24 d3be f462 cbbb
00000230: 720a e1bd 22f4 be3d 0e64 a1bd 40a4 15be
00000240: 6199 c8bd 5925 90be ea82 e4bd c42d 86be
00000250: 348d 25ba 41c5 73bd c16c e7bd 2714 e6bd
00000260: eb13 a2be 3258 1abe 075d 97bc 6019 3dbe
00000270: 5a7a babd 12c4 81be 61ac 46be 920b 22bd
00000280: d43e 5ebe 6a87 263e 000b 16be a9aa 64bd
00000290: 8e2a 3b3c 7a3c 19bd e9bd a3bd ff71 78be
000002a0: 383a 33be 3511 1fbd 9ffc 8ebe 4548 01be
000002b0: bd37 e8bd 528e 47be 693b c8bd 92ee 7dbd
000002c0: e62a 78bd 8c5e 9c3c ac10 d3bd fb2c bcbd
000002d0: dca0 38be fb38 b5bd 416e 23be 8ddb 89bd
000002e0: 0acd 7ebe 5637 98bc bf13 b3bc 7a68 643d
000002f0: d4f8 37bd 1359 19be 66f2 2c3d 4b32 c9bd
00000300: 2c91 7ebd ef0e 053e 8692 6cbe 7259 59be
00000310: bc1b 81bc 56da 7abd cc0d 1abe f3ad a33d
00000320: d6f8 d83b 06e8 88bd d92d cdbd b1c3 12bd
00000330: 8c44 833b 2332 183e 344f abbd 0c49 c43c
00000340: 79b0 1e3e f2fa d6bd ee8d 1abe 7ee6 093d
00000350: d2ca efbd 76e1 033d f2f1 11be 80bb 69bd
00000360: 1c2c 013e 6d3b d6bd de8c 74bb 09f5 a7be
00000370: 94ed 34be 636c 57be fe2f 003b f813 2dbe
00000380: 8278 febd 7697 2bbe 9f4a 0bbe cced 95bd
00000390: 06a3 07bd 6966 06be c64f 1abd 3202 a5be
000003a0: 370b 1f3d dcaa f6bd 483d 09be d2a8 30be
000003b0: f4fd 7b3d e03d 15be 4c1b a0bd 71b8 abbd
000003c0: c7a5 44bd 54aa 2dbe 9e17 3d3d 2566 05be
000003d0: 2cb3 94bd 12aa 1ebe 9ff1 76be 5f85 b3bd
000003e0: 86e8 59be 30b8 73be a4a2 efbc c1fd ebbc
000003f0: 3500 c6bd 743b 35be df42 2cbe 6808 1fbd
-0.31785494 0.11564812 -0.2215859 -0.05080009 -0.12330129 -0.3534552 -0.078525655 0.054139994
-0.10594606 -0.31048852 -0.0385274 0.08992148 0.183358 -0.19105674 -0.11485717 -0.3511547
-0.1346096 -0.39134946 -0.0047804383 0.1254958 -0.18881893 -0.2485627 -0.09301507 -0.39813069
-0.009994571 -0.26083934 -0.32124835 -0.07102937 -0.25197887 -0.04003806 -0.3509418 -0.28349006
0.04414274 -0.08768147 -0.030404128 0.04308244 0.05096159 -0.32049018 -0.11568913 -0.19018796
-0.19352521 -0.06576951 -0.09987521 -0.14091206 -0.0421913 -0.08053039 -0.058115724 -0.0100668585
-0.22663128 -0.12495668 -0.18223253 -0.030873202 -0.040610284 -0.11271502 -0.19722006 -0.078279294
0.0075850324 0.010882517 -0.11100143 -0.1126318 -0.004123699 0.006792249 -0.05222195 -0.21341336
-0.021881504 -0.0599603 -0.2601747 -0.32321048 -0.27299172 -0.3064705 -0.07545621 -0.085813254
-0.18674456 -0.41711912 -0.06612832 -0.057651877 -0.20973693 0.14387602 -0.1542103 -0.05143959
-0.06401459 -0.043051988 -0.04948975 -0.0042967014 -0.2966502 -0.0076759616 -0.21630296 0.16189985
-0.033500478 -0.18167779 -0.09058309 -0.16850644 -0.13469057 -0.2822307 -0.023414807 0.09778662
0.09735745 -0.28685638 -0.20391451 -0.15372857 -0.22168225 -0.28866407 -0.043847006 -0.016942238
-0.16720517 -0.21598563 -0.11827057 -0.24328157 -0.17319469 -0.41265315 -0.19609755 -0.06590664
-0.3339147 -0.15119506 -0.19623727 -0.33396375 -0.24844417 -0.61568004 0.08526113 0.047739927
-0.23817177 -0.3258881 -0.14121613 -0.11190431 -0.34761506 -0.065100275 -0.17732964 -0.4584186
-0.15796004 -0.21529211 -0.21287946 0.06294072 -0.28423908 -0.33297604 -0.26209027 0.17646119
0.04194315 0.012874052 -0.41238683 -0.0062068645 -0.109883204 0.093239084 -0.07880412 -0.14613438
-0.0979488 -0.28153494 -0.111577824 -0.2620679 -0.00063152914 -0.059514288 -0.1130004 -0.112343125
-0.3165582 -0.15072706 -0.018476976 -0.18466711 -0.09105368 -0.25344902 -0.19401695 -0.039561816
-0.21703655 0.16262594 -0.14652634 -0.055826817 0.01142372 -0.03741119 -0.07995207 -0.24262236
-0.17502677 -0.03883477 -0.2792711 -0.12625225 -0.11338756 -0.19487885 -0.097769566 -0.061995097
-0.060587786 0.019088052 -0.10305914 -0.09188267 -0.18030113 -0.08848759 -0.15960027 -0.06731329
-0.24882904 -0.018581074 -0.021860002 0.0557637 -0.044915035 -0.14975385 0.042223357 -0.09824046
-0.062150165 0.12993978 -0.2310277 -0.21225527 -0.015760295 -0.061243378 -0.15044326 0.079921626
0.0066214604 -0.0668488 -0.1001851 -0.035831157 0.004005974 0.14862876 -0.08364716 0.023960613
0.15497006 -0.10497083 -0.15093204 0.03366708 -0.11708607 0.03219744 -0.14252451 -0.05706358
0.12614483 -0.10460553 -0.0037315409 -0.32804134 -0.17668754 -0.2103744 0.0019559856 -0.16902149
-0.12425329 -0.16756997 -0.13602684 -0.07320747 -0.033114456 -0.13125004 -0.037673734 -0.32228237
0.038829055 -0.120443076 -0.13402283 -0.172519 0.061521485 -0.14574385 -0.078177065 -0.08384789
-0.04800966 -0.16959506 0.0461651 -0.13027246 -0.07260737 -0.15494564 -0.24115609 -0.08765673
-0.21280107 -0.2380073 -0.029252358 -0.028807523 -0.09668008 -0.17698461 -0.16822384 -0.038826376

fc3.bias f4 [10]
00000000: 9768 eabd 0e81 63be dfb0 4fbd 7808 773e
00000010: 2298 f6bd 0aa1 243e 38e1 df3d 2375 cd3d
00000020: 7b7b 60be 24a5 693d
-0.1144573 -0.22217199 -0.050705787 0.24124324 -0.12040736 0.16077057 0.10931629 0.10032108
-0.21922104 0.057042256
